public_models/Dnn3Layers/020.pth (torch_old, 616467 bytes, 14 tensors)

weight f4 [252, 252]
0.7561934 1.6383722 0.55468583 1.4732162 2.9034293 -0.39051953 -1.977972 3.653466
2.7672446 2.6685061 -0.94159454 0.2945521 -2.201007 -1.4685444 1.227591 -1.3837099
-1.4285418 -1.3341298 1.6803564 -2.8281534 -0.29928228 0.30287728 -0.37171173 1.6331917
0.36308306 0.52341175 -2.9026444 -8.004221 -4.6117353 0.701038 0.95614845 -0.84630805
-0.0123599535 0.25855085 3.008116 0.7871417 -0.51991266 -1.0741519 -0.3737597 -2.357377
-1.8281072 1.2328544 0.93650657 -0.74394417 -0.13537827 0.19302134 -0.026066199 0.22540693
0.16038598 0.30949014 -0.26388028 0.18776985 0.004350645 0.022348657 0.009744936 -0.23147565
0.21897353 -0.42766923 0.58234924 0.46772388 -0.5879836 0.9868296 -3.119704 -6.9469438
-0.61183196 2.5122712 -1.2270216 0.48353472 0.31428435 0.0037779198 -0.1902711 0.23910853
0.22667801 0.023013575 0.65671337 -0.20436375 -0.6627599 0.28068975 -0.04777385 -0.068287164
0.7900854 -0.18466832 0.20870711 -0.38606417 -0.015572321 -0.24440363 0.0107888095 0.071935266
-0.21058363 0.05597134 -0.029549565 0.1837246 0.045680083 0.030393934 -0.039728396 -0.10660263
0.1830737 -0.08819825 0.14840932 0.23864107 -0.37682924 0.097665794 -0.03953257 0.15578674
0.56570494 -0.2847936 0.81299156 0.19224165 -0.022186294 -0.10930213 -0.07786533 0.41280332
-0.33960038 0.28384286 -0.14184988 0.057464954 0.44696718 -0.32108033 0.29833546 -0.09657247
0.2255153 -0.37602815 -0.15979117 0.35369012 -0.29125437 0.5138385 -0.047018513 -0.13607097
0.23994173 0.08486776 -0.12371988 0.43204919 -0.103256255 -0.10943654 -0.34633648 0.14664091
0.36880007 -0.762618 0.05415952 0.20261677 -0.07482149 0.20912133 -0.030793224 0.22700857
0.3656777 0.39228708 0.02188254 0.31529745 0.42052373 -0.24652681 -0.50397754 -0.5176462
-0.8375771 0.26116514 -0.83654594 0.081632845 -0.5455989 0.9648493 0.2684537 0.058319435
0.18093835 1.2569225 -0.078160696 -1.3043978 -0.17085879 0.830033 -0.6690725 0.1507672
-0.17790902 0.02332091 -0.62811834 -0.22817898 0.5545343 0.16773926 -0.38276222 0.24201933
0.15890114 -0.012824811 0.048316114 0.5862185 0.26566502 0.47702295 1.9648619 -0.8196642
-0.35783213 0.4206277 0.40550455 0.2980988 -3.5699387 -0.47638276 0.6103272 1.9357799
-0.7378393 1.0768507 0.84682035 -0.70713425 2.2985752 -1.8545454 -6.5915623 1.9227694
0.5086156 0.6285866 0.6967382 0.6675616 -0.5650199 -0.77086514 4.5392113 -4.833945
-0.34786913 1.6376429 -1.8405104 1.5917536 0.28734988 -1.2817547 -0.6707722 2.104501
0.9862157 -0.07109613 -2.8414538 1.9511127 1.4742053 -0.5885208 -0.50535566 4.1065187
6.479484 -4.3350053 -3.641835 1.2988415 1.4213978 -0.9863035 8.008581 2.6966457
0.31459168 -1.2453775 -38.36622 -22.252893 4.0501704 4.885326 4.351163 -0.5262369
0.69141406 4.1112733 1.2054393 0.63769364 3.3681846 4.862707 -2.4677095 -2.7670517
2.8725038 -4.9142036 -1.8700645 3.7583623 3.2646608 -2.883924 1.9689254 4.306233
00000000: e495 413f 2eb6 d13f e4ff 0d3f 5992 bc3f
00000010: c9d1 3940 2df2 c7be 302e fdbf 63d2 6940
00000020: 891a 3140 cec8 2a40 570c 71bf 88cf 963e
00000030: 4cdd 0cc0 43f9 bbbf b421 9d3f 681d b1bf
00000040: 75da b6bf c4c4 aabf eb15 d73f 7700 35c0
00000050: 873b 99be bb12 9b3e 0051 bebe 6d0c d13f
00000060: 06e6 b93e 50fe 053f edc4 39c0 4a11 00c1
00000070: 5693 93c0 3a77 333f 25c6 743f a5a7 58bf
00000080: 6781 4abc c760 843e f984 4040 1e82 493f
00000090: ff18 05bf cf7d 89bf 6e5d bfbe 44df 16c0
000000a0: 6bff e9bf 2cce 9d3f e5be 6f3f 2073 3ebf
000000b0: 9aa0 0abe 63a7 453e c888 d5bc 13d1 663e
000000c0: 393c 243e 7e75 9e3e 511b 87be bd46 403e
000000d0: db8f 8e3b 8814 b73c 39a9 1f3c f407 6dbe
000000e0: 993a 603e 76f7 dabe d714 153f 8179 ef3e
000000f0: 1886 16bf dda0 7c3f 3ba9 47c0 5d4d dec0
00000100: 05a1 1cbf 0dc9 2040 0b0f 9dbf dd91 f73e
00000110: e1e9 a03e fa96 773b 6dd6 42be ded8 743e
00000120: 481e 683e f786 bc3c 5e1e 283f bb44 51be
00000130: a2aa 29bf 91b6 8f3e 83ae 43bd 24da 8bbd
00000140: 0943 4a3f b119 3dbe 51b7 553e 34aa c5be
00000150: 0c23 7fbc f244 7abe 8cc3 303c cc52 933d
00000160: 3ca3 57be 3442 653d ee11 f2bc 4d22 3c3e
00000170: 0a1b 3b3d b3fc f83c 3eba 22bd 7b52 dabd
00000180: ac77 3b3e 49a1 b4bd 9df8 173e 535e 743e
00000190: c3ef c0be 0105 c83d e7ec 21bd 8f86 1f3e
000001a0: 0ad2 103f 77d0 91be 3720 503f ffda 443e
000001b0: 08c0 b5bc ccd9 dfbd dc77 9fbd f55a d33e
000001c0: 1ae0 adbe da53 913e 1841 11be 5f60 6b3d
000001d0: e2d8 e43e a464 a4be 6dbf 983e cac7 c5bd
000001e0: 7ced 663e c386 c0be 4ca0 23be df16 b53e
000001f0: 4b1f 95be ec8a 033f 7c96 40bd 3056 0bbe
00000200: 49b3 753e 26cf ad3d d960 fdbd 8d35 dd3e
00000210: 0478 d3bd 4420 e0bd 0453 b1be 0929 163e
00000220: 5dd3 bc3e ef3a 43bf 5fd6 5d3d c57a 4f3e
00000230: 023c 99bd e723 563e 1242 fcbc ef74 683e
00000240: 1c3a bb3e dad9 c83e 0343 b33c ab6e a13e
00000250: e34e d73e 8671 7cbe ac04 01bf 7684 04bf
00000260: 746b 56bf 70b7 853e e027 56bf 1f2f a73d
00000270: 5fac 0bbf 5d00 773f c372 893e 5ce0 6e3d
00000280: e747 393e d6e2 a03f b712 a0bd 82f6 a6bf
00000290: 9bf5 2ebe 0b7d 543f 5648 2bbf b862 1a3e
000002a0: c82d 36be 7e0b bf3c 5dcc 20bf c0a7 69be
000002b0: f6f5 0d3f d7c3 2b3e 69f9 c3be ead3 773e
000002c0: fbb6 223e 281f 52bc 1ee7 453d 6a12 163f
000002d0: 3f05 883e 5a3c f43e 9880 fb3f 83d5 51bf
000002e0: c635 b7be 845c d73e 4b9e cf3e 68a0 983e
000002f0: e079 64c0 71e8 f3be 673e 1c3f a3c7 f73f
00000300: 09e3 3cbf 3ed6 893f 38c9 583f c006 35bf
00000310: db1b 1340 be61 edbf 14ee d2c0 4f1d f63f
00000320: a234 023f 0deb 203f 6f5d 323f 51e5 2a3f
00000330: 25a5 10bf 6b57 45bf 3841 9140 adaf 9ac0
00000340: e71b b2be 489e d13f d895 ebbf 95be cb3f
00000350: 861f 933e 8a10 a4bf bab7 2bbf 25b0 0640
00000360: a278 7c3f d99a 91bd 61da 35c0 10be f93f
00000370: c2b2 bc3f 4da9 16bf fd5e 01bf 9a68 8340
00000380: ef57 cf40 5db8 8ac0 d313 69c0 7040 a63f
00000390: 5df0 b53f 637e 7cbf 2623 0041 d895 2c40
000003a0: 2912 a13e 8868 9fbf 0277 19c2 ed05 b2c1
000003b0: ff9a 8140 9754 9c40 ba3c 8b40 76b7 06bf
000003c0: 8300 313f 8d8f 8340 d64b 9a3f e43f 233f
000003d0: 5690 5740 4c9b 9b40 f4ee 1dc0 6017 31c0
000003e0: 1ad7 3740 2841 9dc0 465e efbf 0289 7040
000003f0: 34f0 5040 3692 38c0 bf05 fc3f a9cc 8940

bias f4 [252]
1.5694554 -5.388441 -98.227066 -43.88983 -71.29143 -23.101252 -36.984406 -87.645546
-91.41284 -27.569725 -58.074337 -8.243591 -103.852806 -80.65316 -32.794655 -72.13727
-81.17347 -23.663061 -32.044834 -55.625935 -24.229555 -57.13491 -8.900508 -55.412895
-50.885567 -66.71805 -84.22715 -38.92119 -97.48301 -107.78555 -103.32562 -11.423529
-25.152243 -102.184006 -92.363785 -18.017267 -56.49797 -35.191208 -39.13936 -33.535934
-66.579735 -56.256554 -38.922924 -50.01089 -35.811733 -0.96533644 -87.142265 -51.29705
-83.612465 -28.095272 -57.27334 -69.49335 -22.242147 -38.10817 -98.89173 -36.757153
-23.891903 -89.34552 -81.61765 -28.931505 -37.275444 -90.10562 -32.273197 -110.81163
-36.154556 -63.68485 -48.171406 -31.671104 -35.952522 -94.92633 -97.252235 -46.53762
-33.382717 -80.64269 -31.052418 -27.000675 -43.184605 -58.268764 -67.52721 -79.9836
-41.480255 -99.30521 -38.24106 -23.974947 -37.581955 -26.686201 -106.29936 -29.08378
-48.479424 -44.25585 -23.460201 -71.30326 -45.512993 -46.900658 -97.60767 -15.482753
-93.37488 -28.164774 -23.202324 -44.683594 -14.924158 -68.7841 -41.104286 -34.195366
-33.76568 -78.423935 -110.33711 -40.30114 -46.332233 -14.587489 9.296434 -59.366932
-29.346775 -49.945366 -42.307747 -55.897316 -35.437847 -13.774363 -35.27777 -115.43967
-27.042091 -48.12592 -80.79133 -87.983574 -92.661804 -17.318703 -51.604454 -72.57646
-49.31294 -18.281916 -10.71745 -27.260288 -0.56033516 -58.635704 -70.04087 -64.562805
-39.067642 -76.16836 -6.197992 -49.49926 -65.22887 -35.074066 -22.429476 -95.28789
-26.193527 -32.654163 -54.890423 -2.0357163 -14.035862 -21.440517 -62.05242 -24.332418
-18.195663 -30.190037 -15.441721 -44.085045 -48.559868 -71.173416 -92.57923 -38.02399
-15.385993 -42.174335 -48.842773 -59.293102 -47.631294 -39.563747 -19.108934 -35.570873
-44.42198 -31.20827 -49.504936 -50.88538 -41.480686 -94.63646 -127.98651 -24.263826
-43.562122 -61.87437 -21.94326 -23.37068 -42.3528 -63.49703 -27.718187 -29.169697
-41.82006 -70.66184 -96.46189 -36.934235 -16.935577 -79.554214 -88.70989 -11.598863
-39.388012 -103.76649 -103.591156 -51.941685 -45.089283 -37.54585 -48.05835 -90.427795
-110.99093 -22.96588 -28.40294 -118.573944 -42.13229 -40.28706 -23.842978 -103.13284
-24.632418 -3.2441967 -53.705173 -96.27641 -47.507458 -51.306095 -12.434211 -66.22697
-46.322453 -52.46544 -62.46551 -49.58545 -28.509207 -19.219646 -47.896896 -87.312614
-58.893764 -116.74881 -25.25507 -90.927246 -36.889664 -74.30744 -55.47217 -29.068363
-19.359886 -77.46311 -55.700104 -31.643337 -97.447784 -28.02654 9.603972 -2.7770813
-29.071968 -76.586105 -41.653217 -27.728586 -100.349464 -29.604902 -56.886738 -56.947155
-103.17527 -30.20879 -34.16356 -10.135131
00000000: eae3 c83f 1c6e acc0 4274 c4c2 308f 2fc2
00000010: 3695 8ec2 5dcf b8c1 08f0 13c2 854a afc2
00000020: 60d3 b6c2 cc8e dcc1 1f4c 68c2 c0e5 03c1
00000030: a3b4 cfc2 6b4e a1c2 ba2d 03c2 4846 90c2
00000040: d158 a2c2 f34d bdc1 e92d 00c2 f580 5ec2
00000050: 21d6 c1c1 268a 64c2 7b68 0ec1 cea6 5dc2
00000060: d28a 4bc2 a46f 85c2 4d74 a8c2 4caf 1bc2
00000070: 4df7 c2c2 3492 d7c2 b8a6 cec2 c6c6 36c1
00000080: cb37 c9c1 365e ccc2 42ba b8c2 5d23 90c1
00000090: ecfd 61c2 ccc3 0cc2 b48e 1cc2 cc24 06c2
000000a0: d328 85c2 b606 61c2 13b1 1bc2 270b 48c2
000000b0: 373f 0fc2 4a20 77bf d748 aec2 2e30 4dc2
000000c0: 9539 a7c2 1ec3 e0c1 e617 65c2 98fc 8ac2
000000d0: ebef b1c1 c46e 18c2 91c8 c5c2 5307 13c2
000000e0: 9e22 bfc1 e8b0 b2c2 3d3c a3c2 b973 e7c1
000000f0: 0e1a 15c2 1436 b4c2 c117 01c2 8e9f ddc2
00000100: 449e 10c2 49bd 7ec2 85af 40c2 6c5e fdc1
00000110: 62cf 0fc2 48da bdc2 2581 c2c2 8626 3ac2
00000120: e787 05c2 0f49 a1c2 5a6b f8c1 6201 d8c1
00000130: 09bd 2cc2 3713 69c2 ee0d 87c2 9af7 9fc2
00000140: c8eb 25c2 449c c6c2 d8f6 18c2 b1cc bfc1
00000150: ec53 16c2 577d d5c1 4699 d4c2 95ab e8c1
00000160: eeea 41c2 fe05 31c2 7eae bbc1 459b 8ec2
00000170: 4e0d 36c2 469a 3bc2 2137 c3c2 5bb9 77c1
00000180: f0bf bac2 7551 e1c1 5c9e b9c1 00bc 32c2
00000190: 5ac9 6ec1 7691 89c2 ca6a 24c2 0ec8 08c2
000001a0: 0e10 07c2 0ed9 9cc2 9aac dcc2 5e34 21c2
000001b0: 3554 39c2 5b66 69c1 32be 1441 bd77 6dc2
000001c0: 32c6 eac1 0ec8 47c2 223b 29c2 da96 5fc2
000001d0: 5bc0 0dc2 ca63 5cc1 701c 0dc2 1ce1 e6c2
000001e0: 3456 d8c1 f180 40c2 2995 a1c2 97f7 afc2
000001f0: d852 b9c2 b48c 8ac1 f66a 4ec2 2627 91c2
00000200: 7340 45c2 5d41 92c1 ad7a 2bc1 1215 dac1
00000210: 2072 0fbf f68a 6ac2 ed14 8cc2 2820 81c2
00000220: 4445 1cc2 3356 98c2 f355 c6c0 3eff 45c2
00000230: 2e75 82c2 d84b 0cc2 916f b3c1 6693 bec2
00000240: 588c d1c1 dd9d 02c2 cb8f 5bc2 2d49 02c0
00000250: e492 60c1 2e86 abc1 ae35 78c2 cba8 c2c1
00000260: b890 91c1 3285 f1c1 4a11 77c1 1657 30c2
00000270: 4e3d 42c2 ca58 8ec2 9128 b9c2 9118 18c2
00000280: 072d 76c1 85b2 28c2 005f 43c2 232c 6dc2
00000290: 7286 3ec2 4741 1ec2 19df 98c1 9348 0ec2
000002a0: 1cb0 31c2 89aa f9c1 0e05 46c2 a18a 4bc2
000002b0: 39ec 25c2 de45 bdc2 18f9 ffc2 511c c2c1
000002c0: 9d3f 2ec2 5b7f 77c2 cc8b afc1 27f7 bac1
000002d0: 4469 29c2 f5fc 7dc2 d9be ddc1 8a5b e9c1
000002e0: be47 27c2 dd52 8dc2 7dec c0c2 a8bc 13c2
000002f0: 107c 87c1 c21b 9fc2 776b b1c2 f194 39c1
00000300: 538d 1dc2 7188 cfc2 ac2e cfc2 49c4 4fc2
00000310: 6d5b 34c2 f32e 16c2 c03b 40c2 08db b4c2
00000320: 5bfb ddc2 1fba b7c1 3939 e3c1 dc25 edc2
00000330: 7787 28c2 f325 21c2 6bbe bec1 0444 cec2
00000340: 310f c5c1 eba0 4fc0 19d2 56c2 868d c0c2
00000350: a307 3ec2 7139 4dc2 87f2 46c1 3574 84c2
00000360: 314a 39c2 9cdc 51c2 afdc 79c2 8057 46c2
00000370: db12 e4c1 d6c1 99c1 6c96 3fc2 0fa0 aec2
00000380: 3793 6bc2 647f e9c2 620a cac1 c0da b5c2
00000390: 048f 13c2 699d 94c2 81e3 5dc2 028c e8c1
000003a0: 0ce1 9ac1 1ded 9ac2 e8cc 5ec2 8e25 fdc1
000003b0: 44e5 c2c2 5b36 e0c1 dfa9 1941 b3bb 31c0
000003c0: 6493 e8c1 162c 99c2 e59c 26c2 25d4 ddc1
000003d0: edb2 c8c2 d7d6 ecc1 058c 63c2 e3c9 63c2
000003e0: bd59 cec2 9aab f1c1 7ca7 08c2 7f29 22c1

weight f4 [252]
0.9090366 0.9344779 1.0218557 1.0264837 1.0413898 1.0845101 0.9206521 1.2946398
1.1643814 0.9720796 1.1670766 1.0106487 1.1638802 1.0467172 0.9227442 1.0586126
1.2047048 0.8444203 0.9528846 0.9960584 0.87618273 0.91643983 0.9338208 0.9490943
0.8902946 1.1045314 1.107709 0.9950932 1.2206129 1.1663367 1.274893 0.96834034
0.86816305 1.0812714 1.2357845 0.85575926 1.0596457 1.1501715 1.0418801 1.0063456
1.0305446 0.9992805 0.91630435 0.89947236 1.1184896 1.1858478 1.1385144 1.1530849
0.9290516 0.94016963 0.7851341 1.0761311 0.8690493 1.1083428 1.0933689 0.96432406
0.9324549 1.1253711 1.1802342 0.9734093 0.98614657 1.4357241 0.91334754 1.2212272
1.0859462 0.9960165 1.1237186 0.91348547 0.92507887 1.1393111 0.9571293 1.2254506
0.9273665 1.1657608 0.96418375 0.91675943 1.0076983 0.91725934 0.8669321 1.112833
1.2208039 1.4170139 0.9147521 1.0188516 1.0182691 1.074582 1.0920912 1.2176437
0.9755184 1.0129632 1.0708528 1.131775 1.0110373 0.95859045 1.2365545 1.0276244
1.1553888 0.93128335 1.0194924 0.99136215 0.82786196 0.9527593 1.041797 1.0649152
0.9623736 0.902752 1.0589921 1.017137 0.9877737 0.9572462 0.87735814 0.93330395
1.0047799 0.9283692 0.93996215 0.96608925 0.91217816 0.902001 0.9722669 1.1531577
0.96823597 0.94119626 1.1279762 1.2923942 1.2231178 1.0767369 1.0220101 0.93686104
1.0522892 0.9019379 1.021872 1.0396769 0.9855041 1.0501596 1.0513439 0.9249213
1.034972 0.94143605 0.84858346 1.2563826 1.0094994 1.1731398 1.049934 1.1681029
1.0360261 0.9567249 0.9600417 0.91266257 1.0039179 1.0596259 0.97698736 0.9434289
0.99821365 0.9919299 0.98864627 1.0632004 0.87369186 0.94958097 1.0384356 0.9550324
0.96088976 0.96512276 0.9497013 1.0899132 0.88204616 1.0197089 0.93452907 1.1304561
1.2416203 0.9333374 0.9678414 1.0119796 1.0113999 1.0990199 1.1074226 1.0590209
0.94351965 1.0930555 1.0661107 1.1599392 1.0292746 1.0184745 0.92284906 0.9870203
0.8914711 1.1206903 0.9905541 0.8739472 0.84260577 0.9152768 1.0164337 0.9757209
0.89899594 1.2682937 1.3583677 0.92074966 -0.9211829 0.859585 1.1296122 1.1054442
1.0449424 0.84961617 0.99632835 1.2116491 0.78981894 0.9728402 1.0217127 1.1843065
1.0748895 0.89318633 0.9731879 1.04607 0.92146975 0.9404106 1.0392559 1.1099004
1.0547816 0.9076656 0.96877134 1.0594466 1.2396904 0.96574247 1.0330828 0.96035016
0.9940846 1.1770089 0.94978184 1.3040717 1.0379708 1.0290759 1.1329247 1.1674701
0.88964725 1.1873783 1.0445309 0.8917741 1.1629772 1.261278 0.98184645 1.0551986
0.85751426 1.13693 1.0676688 0.87429327 1.2716696 1.0107222 1.0846012 0.99019873
1.1506774 1.1539518 1.0422165 0.9223613
00000000: 9fb6 683f f239 6f3f 2bcc 823f d163 833f
00000010: 434c 853f 3ad1 8a3f dbaf 6b3f c2b6 a53f
00000020: 730a 953f 35da 783f c462 953f f05c 813f
00000030: 07fa 943f d4fa 853f f738 6c3f 9e80 873f
00000040: c433 9a3f ee2b 583f 3ff0 733f affd 7e3f
00000050: 834d 603f cd9b 6a3f e10e 6f3f d8f7 723f
00000060: 59ea 633f 4961 8d3f 69c9 8d3f 6ebe 7e3f
00000070: 0b3d 9c3f 854a 953f b22f a33f 27e5 773f
00000080: ef3f 5e3f 1a67 8a3f 302e 9e3f 0a13 5b3f
00000090: 78a2 873f d238 933f 545c 853f efcf 803f
000000a0: e3e8 833f d9d0 7f3f ec92 6a3f d243 663f
000000b0: ab2a 8f3f dcc9 973f d7ba 913f 4998 933f
000000c0: 53d6 6d3f f5ae 703f 8cfe 483f aabe 893f
000000d0: 047a 5e3f 2dde 8d3f 83f3 8b3f f1dd 763f
000000e0: 5db5 6e3f 290c 903f ea11 973f 5a31 793f
000000f0: 1a74 7c3f cfc5 b73f 25d1 693f 2c51 9c3f
00000100: 4900 8b3f f0fa 7e3f 03d6 8f3f 2fda 693f
00000110: f8d1 6c3f f2d4 913f 6d06 753f 91db 9c3f
00000120: e467 6d3f a637 953f bfd4 763f bfb0 6a3f
00000130: 42fc 803f 82d1 6a3f 43ef 5d3f 5071 8e3f
00000140: 4d43 9c3f b660 b53f 322d 6a3f bb69 823f
00000150: a456 823f e78b 893f a5c9 8b3f c0db 9b3f
00000160: 93bb 793f c7a8 813f b411 893f 01de 903f
00000170: ac69 813f 2f66 753f 6b47 9e3f 3289 833f
00000180: c8e3 933f 9668 6e3f ba7e 823f e9c9 7d3f
00000190: c3ee 533f 09e8 733f 9b59 853f 244f 883f
000001a0: 1e5e 763f c11a 673f 0e8d 873f 8c31 823f
000001b0: bdde 7c3f 160e 753f 8b9a 603f 02ed 6e3f
000001c0: a19c 803f 9ba9 6d3f 5ca1 703f a051 773f
000001d0: 8284 693f 8ae9 663f 7ce6 783f ac9a 933f
000001e0: 50de 773f 3df2 703f 8661 903f 2c6d a53f
000001f0: 208f 9c3f 84d2 893f 3ad1 823f 20d6 6f3f
00000200: 6ab1 863f 67e5 663f b4cc 823f 2214 853f
00000210: ff49 7c3f a16b 863f 7092 863f a4c7 6c3f
00000220: f679 843f f401 713f c43c 593f 25d1 a03f
00000230: 4737 813f 7229 963f 3d64 863f 6584 953f
00000240: 819c 843f eceb 743f 4bc5 753f 41a4 693f
00000250: 6280 803f d2a1 873f d81b 7a3f 8e84 713f
00000260: ee8a 7f3f 1eef 7d3f ec17 7d3f f316 883f
00000270: 45aa 5f3f bd17 733f 75eb 843f 017d 743f
00000280: dffc 753f 4912 773f a01f 733f 4782 8b3f
00000290: c7cd 613f d285 823f 4c3d 6f3f c9b2 903f
000002a0: 6aed 9e3f 33ef 6e3f 74c4 773f 8c88 813f
000002b0: 8d75 813f afac 8c3f 06c0 8d3f ff8d 873f
000002c0: 818a 713f 3ee9 8b3f 5176 883f e378 943f
000002d0: 45bf 833f 5f5d 823f d63f 6c3f 5dad 7c3f
000002e0: 7337 643f c872 8f3f f494 7d3f 01bb 5f3f
000002f0: 03b5 573f 954f 6a3f 801a 823f d8c8 793f
00000300: 9924 663f 7357 a23f fede ad3f 40b6 6b3f
00000310: a4d2 6bbf c30d 5c3f 2297 903f 327f 8d3f
00000320: acc0 853f 7280 593f 600f 7f3f 5117 9b3f
00000330: 9331 4a3f 0e0c 793f 7bc7 823f 5b97 973f
00000340: fb95 893f dca7 643f d822 793f 9fe5 853f
00000350: 71e5 6b3f c0be 703f 5606 853f 3711 8e3f
00000360: 1503 873f c65c 683f 6601 783f f29b 873f
00000370: 2dae 9e3f e63a 773f 0f3c 843f 82d9 753f
00000380: 547c 7e3f 3aa8 963f e724 733f d2eb a63f
00000390: 3adc 843f c2b8 833f ad03 913f a96f 953f
000003a0: ecbf 633f 03fc 973f 30b3 853f 4f4b 643f
000003b0: 70dc 943f 8f71 a13f 4a5a 7b3f bf10 873f
000003c0: 0e86 5b3f ec86 913f 5fa9 883f afd1 5f3f
000003d0: 12c6 a23f 585f 813f 36d4 8a3f aa7d 7d3f
000003e0: 6649 933f b1b4 933f 5a67 853f df1f 6c3f

bias f4 [252]
-0.021026993 0.030011155 -0.32068315 0.07685469 0.1397758 0.37900177 0.10239761 -0.39404103
-0.49861193 -0.11530163 0.37669644 0.3013455 -0.5529108 -0.40378368 0.1352371 0.36680326
-0.3052556 0.0041593635 -0.08184259 0.1849766 0.009655452 0.015607152 0.20791437 0.16610381
0.19206382 0.19736889 -0.30752718 0.31635565 -0.22953911 -0.73308724 -0.14595774 0.342163
0.04480715 -0.35006016 -0.6941428 0.11697796 0.080159165 0.43082717 0.16422664 0.396458
0.117617756 0.16387433 0.08160846 -0.04729055 0.33221504 0.40549025 -0.36995262 -0.011486049
-0.053421926 0.0597412 -0.016278263 -0.05060217 0.01574874 0.45688862 0.08142881 0.19214739
0.17525074 -0.44511232 -0.6634735 0.055746466 0.07270303 0.5568392 0.1091417 -0.57962584
0.36859542 0.018452806 0.4149502 0.13026595 0.19076607 0.18074095 -0.037804056 0.43226808
0.13619179 -0.55840653 0.28347394 -0.008943562 0.15444243 -0.21906815 -0.050144393 -0.25655514
0.54875016 0.45502594 -0.088428184 0.22187956 0.09912384 0.37582523 0.009398095 0.63550144
-0.1573789 0.19356287 0.37834904 -0.054179754 0.2683006 0.124550276 -0.6854877 0.35837325
-0.6621042 0.12550679 0.26934525 -0.044651978 -0.06363161 0.09160819 0.34509164 0.2977822
0.12388209 -0.101885416 -0.06358587 0.26115546 0.050539546 0.1527042 0.08636203 0.01513292
0.3461169 0.026662994 0.04633124 0.10399109 -0.010181931 0.071228474 0.2813761 -0.080381736
0.17980456 0.12685947 -0.49440968 -0.65574586 -0.00619682 0.3793931 0.014747167 -0.046499774
0.11609637 0.16620484 0.34877264 0.27816784 0.23476334 0.053291436 -0.039954994 0.10192496
0.19069993 -0.3535276 -0.020064348 0.45953244 0.34146345 0.52064353 0.3056182 -0.42760265
0.25841525 0.0044903145 0.16588725 0.15199332 0.25344118 0.19406515 0.17881191 0.15268618
0.2952378 0.30008766 0.12301254 0.2678665 0.04789173 0.22846384 -0.39373988 0.09075496
0.20773664 -0.005170106 0.23116429 0.32620582 0.11543277 0.109733626 0.17115563 0.4355257
0.5062968 0.16630064 0.18465655 0.25458533 0.090466164 0.10031431 -0.23519355 0.10048045
-0.15563636 0.2737394 0.556337 0.4291811 0.24016482 0.17781518 0.33070558 0.1957771
0.12854432 0.121877685 0.22885971 0.17817499 0.1032108 -0.016024813 0.0023375673 0.23502783
-0.03494213 -0.65970737 0.41517252 0.15774699 -0.02405709 0.044438392 0.41285995 0.011380885
0.09662601 0.09630908 0.17141487 -0.79420066 0.024638673 -0.1521492 0.13111214 -0.4740179
0.4767573 0.012620269 0.11889944 -0.07661019 0.06679444 0.0995361 0.4039945 0.29605892
0.2450898 0.024260068 0.1634194 0.006853662 0.3957009 0.2878862 0.2714739 -0.082936876
-0.054567482 -0.03791373 0.18113989 0.41014415 0.007793881 0.26764092 0.26327038 0.5846552
0.03645835 -0.48427454 0.23363943 0.16138178 -0.50500387 0.6692289 0.2339781 0.15090962
0.12938738 -0.29112527 0.4056429 0.06795485 -0.60947394 0.22819096 0.32104072 0.21170788
-0.7679241 0.13829969 0.40687948 0.044804055
00000000: cd40 acbc f4d9 f53c 9530 a4be fe65 9d3d
00000010: 6321 0f3e 850c c23e d7b5 d13d bfbf c9be
00000020: 104a ffbe 4323 ecbd 5bde c03e f549 9a3e
00000030: 908b 0dbf bcbc cebe 987b 0a3e a3cd bb3e
00000040: 764a 9cbe 454b 883b 169d a7bd 816a 3d3e
00000050: e731 1e3c 24b5 7f3c 81e7 543e 1e17 2a3e
00000060: 61ac 443e 121b 4a3e 3474 9dbe 5ef9 a13e
00000070: 4d0c 6bbe 9bab 3bbf f275 15be fd2f af3e
00000080: b487 373d 163b b3be 58b3 31bf 2492 ef3d
00000090: 7d2a a43d 6195 dc3e 072b 283e 8bfc ca3e
000000a0: 94e1 f03d acce 273e 5622 a73d bcb3 41bd
000000b0: 1718 aa3e 6b9c cf3e 6e6a bdbe fb2f 3cbc
000000c0: f3d0 5abd 30b3 743d fe59 85bc 3944 4fbd
000000d0: 8003 813c 4eed e93e 26c4 a63d 49c2 443e
000000e0: ee74 333e c3e5 e3be 66d9 29bf 6856 643d
000000f0: 54e5 943d 048d 0e3f af85 df3d 5c62 14bf
00000100: 8ab8 bc3e 572a 973c 5a74 d43e 7064 053e
00000110: 2e58 433e 2814 393e 6dd8 1abd 3e52 dd3e
00000120: dc75 0b3e bbf3 0ebf 7f23 913e 0588 12bc
00000130: 2826 1e3e 6753 60be 3564 4dbd 325b 83be
00000140: e47a 0c3f 29f9 e83e d619 b5bd 6534 633e
00000150: 7101 cb3d 2a6c c03e 78fa 193c 39b0 223f
00000160: ef27 21be 5835 463e f7b6 c13e 97eb 5dbd
00000170: b25e 893e 3714 ff3d 1f7c 2fbf b37c b73e
00000180: a97f 29bf da84 003e 9fe7 893e fee4 36bd
00000190: 4a51 82bd 139d bb3d daaf b03e e976 983e
000001a0: e5b5 fd3d 4da9 d0bd 4f39 82bd 2bb6 853e
000001b0: 8e02 4f3d 7d5e 1c3e 93de b03d 11f0 773c
000001c0: 3c36 b13e 5a6c da3c d4c5 3d3d 48f9 d43d
000001d0: 1dd2 26bc 3ce0 913d 8710 903e 2e9f a4bd
000001e0: b01e 383e 73e7 013e 4423 fdbe f6de 27bf
000001f0: b20e cbbb d03f c23e 1a9e 713c 8c76 3ebd
00000200: efc3 ed3d 9a31 2a3e 5492 b23e 046c 8e3e
00000210: cd65 703e 1f48 5a3d d9a7 23bd 09be d03d
00000220: d846 433e 9201 b5be fd5d a4bc d647 eb3e
00000230: 4cd4 ae3e e548 053f fd79 9c3e bcee dabe
00000240: 014f 843e 7d23 933b 59de 293e 23a4 1b3e
00000250: 0bc3 813e 04b9 463e 781a 373e c459 1c3e
00000260: 6929 973e 17a5 993e 00ee fb3d cc25 893e
00000270: 1e2a 443d 6df2 693e 4698 c9be bddd b93d
00000280: eab8 543e fe69 a9bb 55b6 6c3e 7304 a73e
00000290: 0468 ec3d 06bc e03d 6c43 2f3e 39fd de3e
000002a0: ab9c 013f b74a 2a3e 9b16 3d3e 0259 823e
000002b0: 5346 b93d 9771 cd3d 94d6 70be b2c8 cd3d
000002c0: 235f 1fbe 9227 8c3e 1a6c 0e3f a0bd db3e
000002d0: c4ed 753e 2f15 363e 3e52 a93e cb79 483e
000002e0: 1fa1 033e 029b f93d 335a 6a3e 8173 363e
000002f0: 2f60 d33d 7846 83bc df31 193b 23ab 703e
00000300: 7b1f 0fbd 95e2 28bf 7e91 d43e 6d88 213e
00000310: 6013 c5bc 0805 363d 6162 d33e e476 3a3c
00000320: dce3 c53d b23d c53d 6187 2f3e bc50 4bbf
00000330: 0bd7 c93c 00cd 1bbe 4342 063e 79b2 f2be
00000340: 8819 f43e 3fc5 4e3c 8d81 f33d cee5 9cbd
00000350: 86cb 883d 95d9 cb3d 5ed8 ce3e 0995 973e
00000360: d2f8 7a3e 0dbd c63c 6a57 273e af94 e03b
00000370: 4f99 ca3e d265 933e a1fe 8a3e cfda a9bd
00000380: 2782 5fbd 6d4b 1bbd bc7c 393e 6afe d13e
00000390: d063 ff3b 3b08 893e 60cb 863e f7ab 153f
000003a0: 5a55 153d d5f2 f7be 2d3f 6f3e 4441 253e
000003b0: ef47 01bf 9652 2b3f f497 6f3e 0d88 1a3e
000003c0: 207e 043e 5f0e 95be 6db0 cf3e ea2b 8b3d
000003d0: 7c06 1cbf e4aa 693e 735f a43e f3c9 583e
000003e0: ac96 44bf 6f9e 0d3e 8252 d03e 7584 373d

running_mean f4 [252]
12432.157 12433.504 35573.11 17599.748 11686.53 18563.816 18079.979 13825.373
19551.365 9277.323 27157.42 9143.768 41745.52 14516.857 21258.627 19105.291
8205.028 8884.047 11450.12 14118.239 10866.844 16885.871 7701.931 20001.34
15464.543 8500.457 41787.37 11459.037 17018.805 35626.75 11390.49 10072.536
6479.195 35848.457 26726.053 9900.179 21899.295 12591.04 14188.673 9716.938
25277.871 12854.389 13468.557 8970.69 14150.467 15062.168 13566.422 5181.6157
7456.449 12269.305 5859.808 4858.998 11894.85 19870.264 8983.458 10709.427
11731.683 32298.682 43276.043 4095.4395 18831.94 13582.602 10953.534 56494.76
7684.249 8365.996 20385.795 6766.4985 10635.591 11190.386 20803.695 10685.683
10483.737 51218.273 12626.285 15220.292 18916.195 14894.023 5311.8286 20268.742
18508.463 18977.197 8578.91 13562.59 12061.34 11985.131 15216.521 16438.02
5890.213 16136.116 16690.484 26745.037 19169.63 8876.757 29700.275 11596.735
43991.44 12680.118 13678.684 28866.47 12670.811 21161.787 9409.403 9961.102
16525.41 7487.6387 29429.283 11620.167 22807.373 7309.9365 12419.17 13176.358
13101.349 7050.8687 17237.191 22205.883 10221.287 13544.674 12674.254 6510.9736
11947.284 14078.38 38454.19 50948.39 7875.309 11932.025 21633.512 11603.519
21918.18 8989.515 11775.972 16793.664 11331.857 10244.513 28887.688 22142.037
16562.264 17487.691 8582.588 13258.635 7298.625 17150.496 17402.53 40237.008
18130.129 20481.697 18133.139 13374.081 11980.607 16989.188 11999.038 18022.79
16902.205 12610.158 19619.383 12652.318 16910.139 20424.35 31830.492 14024.3
13450.799 9289.556 15247.745 13155.4795 16247.304 25232.29 8586.76 12029.298
11540.909 7702.315 7891.894 18920.46 14079.546 12701.968 8592.536 20734.238
9742.729 22285.414 11994.106 17824.586 17149.3 11566.067 8148.761 11895.215
14339.923 12965.351 8094.587 15534.483 10633.131 5837.665 19787.81 12773.204
12649.783 27849.283 15858.463 11530.101 10454.151 9745.467 20508.729 6633.9067
18300.22 9619.439 15908.302 39534.516 7034.4824 7322.9746 12700.057 34109.1
10404.013 8332.208 14512.297 8577.646 11360.132 22048.68 10755.968 11373.333
16703.516 7200.048 16684.535 23181.33 20829.506 9938.252 15024.918 33425.32
20898.479 6556.027 7746.051 18024.598 26212.867 5556.411 14009.839 22262.734
8944.473 57256.9 10593.377 15755.228 41517.305 14715.829 9000.169 18691.965
12864.527 43489.438 15866.431 12591.514 52842.293 17684.053 15954.973 21817.256
45015.914 15536.475 19938.416 10942.665
00000000: a140 4246 0446 4246 1cf5 0a47 7f7f 8946
00000010: 1f9a 3646 a207 9146 f53f 8d46 7e05 5846
00000020: bbbe 9846 4bf5 1046 d72a d446 12df 0e46
00000030: 8511 2347 6ed3 6246 4115 a646 9542 9546
00000040: 1d34 0046 30d0 0a46 7be8 3246 f598 5c46
00000050: 60cb 2946 beeb 8346 73af f045 ae42 9c46
00000060: 2ca2 7146 d4d1 0446 5f3b 2347 260c 3346
00000070: 9cf5 8446 c02a 0b47 f6f9 3146 2562 1d46
00000080: 8f79 ca45 7508 0c47 1bcc d046 b7b0 1a46
00000090: 9716 ab46 29bc 4446 b1b2 5d46 c1d3 1746
000000a0: be7b c546 8ed9 4846 3a72 5246 c32a 0c46
000000b0: de19 5d46 ac58 6b46 b0f9 5346 edec a145
000000c0: 9803 e945 38b5 3f46 771e b745 fcd7 9745
000000d0: 66db 3946 873c 9b46 d55d 0c46 b555 2746
000000e0: bb4e 3746 5d55 fc46 0b0c 2947 08f7 7f45
000000f0: e11f 9346 683a 5446 2326 2b46 c3ae 5c47
00000100: fe21 f045 fcb7 0246 9743 9f46 fd73 d345
00000110: 5d2e 2646 8bd9 2e46 6487 a246 bbf6 2646
00000120: f3ce 2346 4612 4847 2449 4546 2bd1 6d46
00000130: 64c8 9346 18b8 6846 a1fe a545 7c59 9e46
00000140: ed98 9046 6542 9446 a40b 0646 5cea 5346
00000150: 5c75 3c46 8644 3b46 16c2 6d46 0a6c 8046
00000160: b411 b845 7720 7c46 f864 8246 13f2 d046
00000170: 43c3 9546 07b3 0a46 8d08 e846 f132 3546
00000180: 71d7 2b47 7920 4646 bcba 5546 f184 e146
00000190: 3efb 4546 9353 a546 9d05 1346 68a4 1b46
000001a0: d21a 8146 1cfd e945 91ea e546 ab90 3546
000001b0: bf2e b246 7e6f e445 ae0c 4246 6fe1 4d46
000001c0: 65b5 4c46 f356 dc45 62aa 8646 c47b ad46
000001d0: 26b5 1f46 b2a2 5346 0409 4646 ca77 cb45
000001e0: 23ad 3a46 85f9 5b46 3136 1647 6404 4747
000001f0: 791a f645 1a70 3a46 0603 a946 134e 3546
00000200: 5c3c ab46 0f76 0c46 e3ff 3746 5433 8346
00000210: 6e0f 3146 0d12 2046 60af e146 13fc ac46
00000220: 8764 8146 629f 8846 5a1a 0646 8a2a 4f46
00000230: 0015 e445 fefc 8546 0ff5 8746 022d 1d47
00000240: 42a4 8d46 6503 a046 47aa 8d46 53f8 5046
00000250: 6e32 3b46 60ba 8446 277c 3b46 94cd 8c46
00000260: 690c 8446 a208 4546 c446 9946 46b1 4546
00000270: 471c 8446 b390 9f46 fcac f846 3321 5b46
00000280: 322b 5246 3926 1146 fb3e 6e46 eb8d 4d46
00000290: 37dd 7d46 9420 c546 0a2b 0646 31f5 3b46
000002a0: a353 3446 85b2 f045 279f f645 ecd0 9346
000002b0: 2ffe 5b46 df77 4646 2542 0646 7afc a146
000002c0: ea3a 1846 d41a ae46 6d68 3b46 2c41 8b46
000002d0: 9afa 8546 45b8 3446 17a6 fe45 dcdc 3946
000002e0: b10f 6046 6795 4a46 b2f4 fc45 efb9 7246
000002f0: 8624 2646 526d b645 9f97 9a46 d194 4746
00000300: 22a7 4546 9192 d946 dac9 7746 6728 3446
00000310: 9b58 2346 de45 1846 7539 a046 414f cf45
00000320: 71f8 8e46 c24d 1646 3591 7846 846e 1a47
00000330: dcd3 db45 ccd7 e445 3a70 4646 1a3d 0547
00000340: 0d90 2246 d530 0246 30c1 6246 9606 0646
00000350: 8780 3146 5c41 ac46 df0f 2846 55b5 3146
00000360: 087f 8246 6200 e145 1259 8246 a91a b546
00000370: 03bb a246 0249 1b46 acc3 6a46 5291 0247
00000380: f544 a346 37e0 cc45 6810 f245 32d1 8c46
00000390: bcc9 cc46 4aa3 ad45 5be7 5a46 78ed ad46
000003a0: e4c1 0b46 e6a8 5f47 8285 2546 e92c 7646
000003b0: 4e2d 2247 51ef 6546 ada0 0c46 ee07 9246
000003c0: 1c02 4946 70e1 2947 b9e9 7746 0ebe 4446
000003d0: 4b6a 4e47 1b28 8a46 e44b 7946 8372 aa46
000003e0: ead7 2f47 e6c1 7246 d5c4 9b46 a9fa 2a46

running_var f4 [252]
1.9920408e+08 1.5393264e+08 4.5128355e+08 1.9225373e+08 1.0497487e+08 2.815833e+08 3.4195117e+08 1.01371704e+08
1.9604709e+08 1.1144078e+08 6.0360006e+08 2.6099882e+08 7.0517446e+08 1.13287256e+08 4.0762413e+08 4.9332938e+08
3.567487e+07 1.0340411e+08 1.2750895e+08 2.4329051e+08 3.2096157e+08 1.693725e+08 1.1082389e+08 4.1895885e+08
3.382605e+08 6.4322896e+07 6.820363e+08 2.3583456e+08 1.6221203e+08 5.9878406e+08 8.345171e+07 2.5292963e+08
5.1728468e+07 4.8749194e+08 3.4865248e+08 1.3534885e+08 3.7127715e+08 2.1055982e+08 1.996147e+08 1.4641198e+08
3.769005e+08 1.6613622e+08 2.3731621e+08 7.637386e+07 3.9447005e+08 1.4265613e+09 9.511179e+07 1.4681573e+07
4.10987e+07 1.18939944e+08 3.2750476e+07 1.0425381e+07 1.5494731e+08 8.6200986e+08 5.4760636e+07 2.1682352e+08
2.0521157e+08 4.5053834e+08 8.0025254e+08 1.138112e+07 2.9871466e+08 9.50503e+08 1.7008462e+08 1.0574999e+09
2.9425942e+08 5.763605e+07 4.752108e+08 6.910624e+07 2.2872584e+08 1.11675256e+08 2.5820485e+08 7.061393e+08
1.579738e+08 1.00997997e+09 2.8183053e+08 1.8346162e+08 2.6337298e+08 2.152634e+08 2.2066524e+07 1.9592619e+08
3.8845427e+08 1.9833704e+09 1.0016015e+08 3.0267466e+08 2.5120648e+08 2.3102334e+08 1.3293781e+08 6.177171e+08
3.4624908e+07 2.139599e+08 4.2887594e+08 5.0752893e+08 4.5423968e+08 8.204444e+07 3.9042454e+08 2.4830493e+08
8.1761005e+08 2.0043906e+08 2.998608e+08 3.8523382e+08 1.7087805e+08 2.7478224e+08 2.5469579e+08 4.044744e+08
3.504903e+08 3.4807404e+07 3.8510694e+08 1.653125e+08 2.7950518e+08 1.7236632e+08 1.8396298e+08 1.2188053e+08
3.689676e+08 5.3570292e+07 1.5685838e+08 3.5471286e+08 1.686236e+08 1.7115283e+08 3.0637126e+08 2.272443e+07
1.7719346e+08 2.5434949e+08 6.038481e+08 9.9430214e+08 3.4024864e+07 3.1395414e+08 2.7004262e+08 1.20245576e+08
3.2303456e+08 1.3715245e+08 4.0438464e+08 3.8789706e+08 2.5007928e+08 1.0122511e+08 4.4906054e+08 3.624854e+08
3.194729e+08 2.4675549e+08 9.510214e+07 1.0334741e+09 9.6070136e+07 4.8847315e+08 5.4500154e+08 5.3118957e+08
2.5266107e+08 3.090973e+08 2.7374083e+08 1.8205176e+08 2.3992891e+08 3.143385e+08 3.090803e+08 4.7258464e+08
4.5872026e+08 2.6471354e+08 3.321133e+08 2.2205595e+08 2.5771693e+08 4.9407158e+08 3.7750365e+08 2.3823176e+08
1.857242e+08 1.1661168e+08 4.078073e+08 2.6049208e+08 2.0854232e+08 3.5675504e+08 1.26338696e+08 2.712777e+08
2.0956864e+08 2.3819074e+08 1.6181829e+08 3.4261782e+08 2.0868666e+08 1.3134097e+08 4.1261276e+07 3.4245725e+08
1.256627e+08 4.252326e+08 2.8800976e+08 4.0640957e+08 3.759849e+08 1.345472e+08 1.659163e+08 1.8671912e+08
2.3898163e+08 1.6572656e+08 8.708279e+07 3.3389658e+08 1.25841416e+08 2.204565e+07 2.2352661e+08 2.2623312e+08
1.6773722e+08 3.6454355e+08 1.5348946e+09 1.7846197e+08 1.1840965e+08 1.0897911e+08 7.096439e+08 2.5444308e+07
2.316257e+08 1.8751816e+08 3.0034013e+08 7.150855e+08 5.229177e+07 4.8947284e+07 3.8459443e+08 5.645316e+08
2.4726227e+08 9.532624e+07 3.0883507e+08 5.986275e+07 9.0941864e+07 3.2332048e+08 3.6752224e+08 7.189824e+08
3.515895e+08 4.3053196e+07 2.6368968e+08 2.7610925e+08 6.77811e+08 1.7522771e+08 3.4438346e+08 4.246421e+08
2.2362966e+08 2.2437088e+07 1.507295e+08 1.7639064e+09 3.61351e+08 1.04167016e+08 6.2826534e+08 6.430963e+08
9.7725656e+07 1.0432681e+09 2.6430083e+08 3.494427e+08 7.1702336e+08 4.4938656e+08 1.2676408e+08 3.0556758e+08
2.887013e+08 7.2982515e+08 4.4304416e+08 1.7695054e+08 9.544243e+08 3.691166e+08 3.0527e+08 4.0511942e+08
9.169031e+08 1.9764904e+08 3.9801507e+08 1.4134853e+08
00000000: cff9 3d4d 36cd 124d 5330 d74d f258 374d
00000010: 4339 c84c f644 864d 160e a34d e759 c14c
00000020: 0ff7 3a4d 728e d44c d3e8 0f4e 6ae8 784d
00000030: 6f20 284e 0b14 d84c ce5e c24d df3c eb4d
00000040: be16 084c 4a3a c54c 3b34 f34c 1905 684d
00000050: e10b 994d b586 214d 3a61 d34c 70c6 c74d
00000060: 914b a14d 545f 754c 319c 224e cce8 604d
00000070: 8cb2 1a4d e1c2 0e4e e82b 9f4c 6636 714d
00000080: 1554 454c 4b74 e84d 1e40 a64d 2714 014d
00000090: eb09 b14d 35ce 484d 0f5e 3e4d 1da1 0b4d
000000a0: 5db8 b34d 9a70 1e4d 8752 624d ecab 914c
000000b0: 1519 bc4d 320f aa4e 4e69 b54c e505 604b
000000c0: 73c7 1c4c 25dc e24c c6dd f94b 2514 1f4b
000000d0: efc4 134d e884 4d4e 2fe5 504c 6ec7 4e4d
000000e0: 7bb4 434d 5bd5 d64d 8acb 3e4e 80a9 2d4b
000000f0: 3170 8e4d 199e 624e 9134 224d ac20 7c4e
00000100: 5750 8c4d 34dd 5b4c 2299 e24d 48cf 834c
00000110: 4521 5a4d ef00 d54c 4b3e 764d 535b 284e
00000120: d2a7 164d 49cc 704e 2463 864d 6ff6 2e4d
00000130: 0b2c 7b4d 8a4a 4d4d ae5a a84b 8bd9 3a4d
00000140: bc3a b94d a96f ec4e 530a bf4c 9753 904d
00000150: b591 6f4d 2f52 5c4d 0a8f fd4c 7646 134e
00000160: 6315 044c 4e0c 4c4d 0581 cc4d 3702 f24d
00000170: 2e99 d84d c37c 9c4c 3f2b ba4d 52cd 6c4d
00000180: f5ee 424e 5127 3f4d 1afc 8e4d 9db1 b74d
00000190: 46f6 224d c106 834d 97e5 724d 51de c04d
000001a0: 7620 a74d 9bc7 044c 20a2 b74d 7fa7 1d4d
000001b0: 4947 854d 9f61 244d d670 2f4d fa77 e84c
000001c0: feef af4d bd5a 4c4c 8197 154d e923 a94d
000001d0: dfcf 204d 5c39 234d d616 924d a75f ad4b
000001e0: 1ffc 284d 0b91 724d f7f7 0f4e 630f 6d4e
000001f0: 68cb 014c 7bb4 954d 30c4 804d a959 e54c
00000200: ee08 9a4d 7ccc 024d 5cd3 c04d b7f6 b84d
00000210: 837e 6e4d 5312 c14c f620 d64d b5d8 ac4d
00000220: 2856 984d 0a53 6b4d 9864 b54c 4166 764e
00000230: 3f3d b74c 12ec e84d 41f0 014e 7a4a fd4d
00000240: d5f4 704d 9b63 934d a187 824d 3b9e 2d4d
00000250: 65d0 644d 66e3 954d 8761 934d 8e58 e14d
00000260: 20bc da4d 5473 7c4d 2d5d 9e4d e1c4 534d
00000270: 2cc7 754d 7997 eb4d fd01 b44d 0d32 634d
00000280: d21e 314d 4c6b de4c 2a75 c24d b36c 784d
00000290: a7e1 464d 331d aa4d d1f8 f04c f45a 814d
000002a0: 38dc 474d 0928 634d 6b52 1a4d 775f a34d
000002b0: e404 474d 5583 fa4c 3766 1d4c dd4b a34d
000002c0: beae ef4c 47c4 ca4d 7155 894d 8bca c14d
000002d0: 9848 b34d 7050 004d e93a 1e4d b911 324d
000002e0: 20e9 634d 960c 1e4d e518 a64c dc36 9f4d
000002f0: 0106 f04c e931 a84b ed2b 554d b2c0 574d
00000300: 78f7 1f4d f2d3 ad4d 44f9 b64e d131 2a4d
00000310: 36d9 e14c 75dc cf4c 3a31 294e ea1f c24b
00000320: 3ee5 5c4d cdd4 324d 9d36 8f4d 5b7d 2a4e
00000330: 2e7a 474c 15b8 3a4c 9063 b74d 4698 064e
00000340: c4ce 6b4d 04d2 b54c 9843 934d b85b 644c
00000350: 3575 ad4c d52b 9a4d 8e3f af4d 346b 2b4e
00000360: a4a6 a74d 233c 244c 5d79 7b4d bea8 834d
00000370: 4d9a 214e 341c 274d ff36 a44d 327c ca4d
00000380: 1645 554d 702e ab4b 32bf 0f4d 2746 d24e
00000390: 3b4e ac4d cdae c64c 46ca 154e 7c53 194e
000003a0: 9b65 ba4c 08bc 784e 920e 7c4d 94a0 a64d
000003b0: a2f3 2a4e c248 d64d 86c8 f14c bbb4 914d
000003c0: dca9 894d fe00 2e4e 8a42 d34d d1c0 284d
000003d0: 708d 634e 2e02 b04d 6890 914d 0e2d c14d
000003e0: 539b 5a4e 297e 3c4d d3c9 bd4d ebcc 064d

weight f4 [252, 252]
-0.48598206 -0.13788028 0.024069285 -2.1247413 0.9861682 0.29720214 -0.39739498 0.37124878
0.20438212 0.80168796 0.36663625 1.0393525 -0.86256814 0.42216474 -1.667378 1.0966957
-0.2349238 1.4512051 0.73864275 -0.45768604 -0.47145474 -1.2881579 0.15171021 0.24919167
-1.4245242 0.13560453 0.29794773 0.31553236 -0.18974972 0.5153718 0.17986934 0.6925193
-0.7333853 -0.6104004 -1.303485 -0.0021380798 0.34753415 0.21199518 -0.8591675 -0.62409776
2.2095902 -0.060452636 0.06357694 -0.38332367 0.09338146 0.056242388 0.042348217 -0.36323035
0.52219117 2.5329788 0.25517234 -1.048572 -1.1132418 -0.6127494 0.1296129 -0.3248791
-1.1114547 -0.013609133 0.6578353 1.1727777 0.3332633 -0.14836414 0.6429551 0.58686227
-0.078133464 -0.36103028 0.09707028 0.13290213 -0.029738404 0.03958139 -0.1456864 -0.4262808
-0.3345739 0.24609068 0.092102475 0.2949903 2.4707568 -0.52402973 -0.27603984 -0.7915457
0.49811816 -1.158997 -2.2013268 -1.1357214 0.32154414 -0.8141297 -0.7564228 1.5869278
-0.9861786 -2.562354 -0.21107838 0.46068695 1.3019207 -1.0827948 0.031483732 -0.34142622
1.1198498 0.58930016 -0.95379895 -0.2513574 5.0481424 -0.4094843 -0.11944451 0.37613222
-0.21018708 -0.29486412 0.46860608 -0.47675237 0.2564818 -0.23168768 0.3908777 0.4187089
1.1611 -0.12645069 0.005795135 1.5752603 -0.5168235 1.8002964 0.16099153 0.4374524
-0.051695075 -0.782466 0.358704 0.19524015 0.062561356 -0.89248765 0.07658413 -0.6407839
-1.0489125 -0.07907673 -0.09530368 0.42541808 -0.4890647 0.015895171 0.100786515 0.6854486
-1.1167288 -0.6813057 -0.14275266 -1.2941767 0.3119938 0.8083753 -0.21301983 0.16973504
-0.69864434 -1.2368238 -0.8128882 -0.19946845 -0.50662416 -0.92224085 2.2905116 -0.56797254
-0.38324973 0.28232077 0.5816587 1.5204525 -0.48389766 1.5627996 0.30719095 0.7255051
1.3998042 0.20362031 -1.2580225 -0.3160442 -1.4026096 0.834638 0.6315369 -0.55127794
1.1093938 0.5782189 -0.2253091 -0.609809 -0.7126742 -0.011178132 -0.38092464 0.54648423
-0.6727632 -1.6761891 2.05947 0.06804225 -0.4142678 -0.699896 -1.1758264 0.7707018
0.19430009 5.189273 -0.9670557 1.0649784 -0.45563388 1.0398597 1.2994975 0.41305518
0.23155373 -0.09781635 -0.95221674 4.199238 -0.6693518 1.0290719 -0.22024386 0.07134841
0.14645405 -0.7656174 -1.1266364 0.27017155 -1.7726225 -0.2921437 -0.09217955 0.2150358
0.6029306 0.64408624 -2.073284 -1.8097479 0.21993509 -0.18629028 1.3004681 -1.9049618
1.3324449 0.40322033 0.4415507 -0.30751967 -0.7915919 -0.48807862 -0.2884319 -0.17776456
0.53954315 0.07428385 -0.07855224 -0.2048905 0.18681481 0.23036651 -0.025119737 -0.82710123
-0.6131703 0.071144804 -0.6656426 -1.1594461 0.06214896 -0.45864877 -1.601228 0.37904462
1.3110477 -0.17086965 0.035900865 1.0743322 0.2869132 1.3870695 0.2454977 0.74110305
0.25019082 1.0416468 -0.7379095 0.23640071 -0.17061763 0.0057077054 -1.2053764 -0.68430644
00000000: a4d2 f8be 7d30 0dbe f32c c53c c3fb 07c0
00000010: 8575 7c3f e12a 983e 5b77 cbbe 5214 be3e
00000020: 8c49 513e 6c3b 4d3f bfb7 bb3e 8109 853f
00000030: 44d1 5cbf fa25 d83e a46c d5bf 8660 8c3f
00000040: dd8f 70be 17c1 b93f b117 3d3f d355 eabe
00000050: 8462 f1be 5ce2 a4bf ec59 1b3e 1a2c 7f3e
00000060: cf56 b6bf eadb 0a3e 9b8c 983e 758d a13e
00000070: c04d 42be 68ef 033f ab2f 383e f248 313f
00000080: 24bf 3bbf 3343 1cbf 99d8 a6bf 071f 0cbb
00000090: ffef b13e 4415 593e 67f2 5bbf dfc4 1fbf
000000a0: ed69 0d40 2f9d 77bd a034 823d 0043 c4be
000000b0: c73e bf3d 6b5e 663d 5375 2d3d 54f9 b9be
000000c0: 52ae 053f 531c 2240 f3a5 823e 9b37 86bf
000000d0: b57e 8ebf 25dd 1cbf 3eb9 043e 8e56 a6be
000000e0: 2644 8ebf d7f8 5ebc e567 283f 941d 963f
000000f0: 7da1 aa3e c5ec 17be b598 243f 9b3c 163f
00000100: 7004 a0bd f6d8 b8be c8cc c63d 7f17 083e
00000110: f49d f3bc 1820 223d d12e 15be 7a41 dabe
00000120: 454d abbe 32ff 7b3e 39a0 bc3d f808 973e
00000130: e120 1e40 d026 06bf 1855 8dbe bda2 4abf
00000140: 5809 ff3e 045a 94bf 8ae2 0cc0 525f 91bf
00000150: 6fa1 a43e ce6a 50bf eda4 41bf 7320 cb3f
00000160: 3376 7cbf 9cfd 23c0 ee24 58be 29df eb3e
00000170: 56a5 a63f 0599 8abf 16f5 003d 6bcf aebe
00000180: 3d57 8f3f 60dc 163f 2b2c 74bf ebb1 80be
00000190: 628a a140 eda7 d1be 539f f4bd 6794 c03e
000001a0: 483b 57be 6ef8 96be 23ed ef3e e318 f4be
000001b0: 9551 833e 893f 6dbe 1f21 c83e 0361 d63e
000001c0: ed9e 943f 4a7c 01be 1ee5 bd3b 21a2 c93f
000001d0: 8b4e 04bf 1d70 e63f f7da 243e c3f9 df3e
000001e0: 37be 53bd b14f 48bf 0da8 b73e 09ed 473e
000001f0: 2b20 803d 127a 64bf 24d8 9c3d 6a0a 24bf
00000200: c442 86bf fbf2 a1bd 932e c3bd 66d0 d93e
00000210: b066 fabe 9736 823c 2969 ce3d 8f79 2f3f
00000220: f8f0 8ebf 0d6a 2ebf c12d 12be 95a7 a5bf
00000230: a7bd 9f3e aff1 4e3f df21 5abe 06cf 2d3e
00000240: 5bda 32bf 3e50 9ebf 7119 50bf 7541 4cbe
00000250: 1fb2 01bf fa17 6cbf be97 1240 a666 11bf
00000260: 4f39 c4be 598c 903e 96e7 143f 309e c23f
00000270: 6fc1 f7be d109 c83f 2248 9d3e b4ba 393f
00000280: c92c b33f d881 503e e206 a1bf 8cd0 a1be
00000290: b688 b3bf d6aa 553f 67ac 213f 8d20 0dbf
000002a0: 9e00 8e3f 2706 143f 6eb7 66be 711c 1cbf
000002b0: d171 36bf 7c24 37bc 8e08 c3be 64e6 0b3f
000002c0: 363a 2cbf 5d8d d6bf 5bce 0340 bc59 8b3d
000002d0: e91a d4be 622c 33bf 7b81 96bf b74c 453f
000002e0: 9af6 463e 860e a640 f690 77bf 3651 883f
000002f0: d848 e9be 1f1a 853f ef55 a63f f87b d33e
00000300: 6c1c 6d3e f053 c8bd 7ac4 73bf 2860 8640
00000310: a45a 2bbf a1b8 833f 9b87 61be 1d1f 923d
00000320: 0df8 153e 80ff 43bf 9f35 90bf ed53 8a3e
00000330: 4be5 e2bf dc93 95be a2c8 bcbd 5832 5c3e
00000340: a959 1a3f d6e2 243f afb0 04c0 d2a5 e7bf
00000350: aa36 613e e1c2 3ebe bd75 a63f cad5 f3bf
00000360: 8e8d aa3f e572 ce3e ef12 e23e 3873 9dbe
00000370: c4a5 4abf 71e5 f9be 59ad 93be ea07 36be
00000380: 801f 0a3f 2222 983d ffdf a0bd d1ce 51be
00000390: 624c 3f3e 33e5 6b3e e8c7 cdbc e8bc 53bf
000003a0: bbf8 1cbf 5eb4 913d 8e67 2abf bb68 94bf
000003b0: e88f 7e3d 03d4 eabe 0af5 ccbf 2312 c23e
000003c0: 69d0 a73f 74f8 2ebe c90c 133d b883 893f
000003d0: 49e6 923e 7e8b b13f c063 7b3e eeb8 3d3f
000003e0: 0319 803e af54 853f a3e7 3cbf 0713 723e
000003f0: 63b6 2ebe b407 bb3b c649 9abf b52e 2fbf

bias f4 [252]
5.219392 6.6933117 5.309325 3.6450114 3.3922102 5.7497025 0.56330705 7.3983274
5.7752786 4.0048394 1.9207458 3.84138 5.8774366 1.066449 6.1202264 3.7393181
3.2676682 0.7562676 6.0352597 0.30576363 5.77297 -1.1828132 1.6869931 7.156986
0.5203152 4.922056 5.4777007 5.6476207 6.157041 1.0225209 1.9912384 4.949612
4.8025956 2.6081748 4.290513 6.3745856 4.5022154 -2.2764447 5.0704703 -2.8825798
6.837675 -5.726098 -3.010217 4.8777847 1.9874531 2.6063616 1.3397858 4.3595185
1.5345548 0.040061016 4.176792 4.3138027 5.777373 4.5898614 7.6817675 0.27232885
-1.860142 5.105658 4.9895525 1.711717 4.4285417 2.9354243 5.45873 4.893315
5.750047 0.70087975 2.9072747 -3.7959447 5.41399 8.075619 2.4328313 -0.346922
8.202844 5.4525266 0.43509027 2.2870302 3.449177 -3.2123568 3.307676 6.7528954
-1.2678086 -5.049699 6.095748 -5.6457644 3.79695 6.1599693 3.8277779 -1.7113138
6.821039 4.009777 1.4640299 3.7727365 3.8382888 4.9675817 1.134931 3.1601315
7.119534 0.7113915 1.7242967 5.596768 6.8142586 -0.20551756 4.609604 2.0348878
2.3420758 6.1851687 8.0257015 5.8407063 5.997061 -7.5112214 1.628275 0.42515618
4.3684726 -5.842403 2.3530242 5.928363 8.246152 2.6464808 4.4838424 1.5285947
2.0326555 7.444909 -0.4608999 2.9397705 -0.82642853 4.415097 5.3229675 3.9311287
-2.5795388 -5.912156 3.033525 4.587455 2.5880036 -7.1647635 3.6144013 7.369324
2.4829776 4.947751 1.5894935 3.9723449 4.1499476 0.7162822 2.6253066 4.853429
3.5925057 0.78578573 6.2895856 2.862351 2.344922 -6.820365 0.8713695 -1.7763811
1.0669001 2.3304975 1.1219414 3.7459967 5.4600935 1.5611975 5.715603 2.2746985
7.3682127 8.661029 -6.189725 1.9202188 3.1157093 2.9431028 5.2310615 5.815595
6.4294486 4.569033 1.8891729 5.790503 6.694523 1.6779135 2.4083507 5.092239
3.2087417 2.3665917 4.348478 3.6963542 7.367773 -3.6435525 -4.823651 3.9502027
-0.16383635 7.6945515 -4.5736814 4.931346 5.644974 -2.8704314 -4.247935 4.193422
-0.3743871 -5.603478 -4.5103707 3.654522 -6.642315 5.717048 6.8870707 6.297762
2.1532655 -0.06890894 5.650467 5.6315765 6.619264 6.0831885 3.4689736 2.8167293
4.3644514 2.6592085 6.0619464 -3.1672096 6.6949544 1.5524937 5.2044544 2.7993183
5.461292 3.0269413 -5.7637506 4.560469 4.156359 -1.9348416 3.1511712 2.0377429
2.8745437 -0.30503485 7.17061 6.634067 0.37327957 5.1115966 4.4919605 -5.9581113
3.550754 3.7478929 8.882153 3.1596544 7.211854 4.716302 1.9454266 2.8343432
5.0516596 4.5607066 3.968369 5.643794 4.1848845 6.126503 2.332823 5.3066506
4.1434407 4.5920396 5.341452 0.9762952
00000000: 4205 a740 9c2f d640 fee5 a940 de47 6940
00000010: f919 5940 90fd b740 e434 103f 19bf ec40
00000020: 15cf b840 a527 8040 00db f53f 2bd9 7540
00000030: f613 bc40 6781 883f e5d8 c340 fd50 6f40
00000040: 7a21 5140 c19a 413f d920 c140 0d8d 9c3e
00000050: 2cbc b840 6c66 97bf 64ef d73f 0806 e540
00000060: 6033 053f 7c81 9d40 5349 af40 4fb9 b440
00000070: 7b06 c540 f7e1 823f e6e0 fe3f 3963 9e40
00000080: ddae 9940 56ec 2640 e24b 8940 9bfc cb40
00000090: 2612 9040 45b1 11c0 4b41 a240 307c 38c0
000000a0: 3cce da40 323c b7c0 65a7 40c0 d016 9c40
000000b0: dd64 fe3f a1ce 2640 1a7e ab3f 2d81 8b40
000000c0: 4b6c c43f 0517 243d 48a8 8540 ac0a 8a40
000000d0: 3de0 b840 25e0 9240 0ad1 f540 b06e 8b3e
000000e0: 2219 eebf 8d61 a340 6aaa 9f40 8b19 db3f
000000f0: 9db6 8d40 fedd 3b40 ebad ae40 0996 9c40
00000100: 6300 b840 db6c 333f ca10 3a40 c2f0 72c0
00000110: 683f ad40 bc35 0141 82b3 1b40 c39f b1be
00000120: d93e 0341 197b ae40 27c4 de3e b45e 1240
00000130: 51bf 5c40 4197 4dc0 f7b0 5340 b817 d840
00000140: 8d47 a2bf 2297 a1c0 5e10 c340 1aaa b4c0
00000150: 3b01 7340 781e c540 50fa 7440 550c dbbf
00000160: f445 da40 1850 8040 5565 bb3f 8474 7140
00000170: 86a6 7540 6ef6 9e40 6b45 913f 983f 4a40
00000180: 39d3 e340 c11d 363f c1b5 dc3f b918 b340
00000190: 680e da40 3273 52be e081 9340 9a3b 0240
000001a0: 92e4 1540 e7ec c540 4669 0041 11e7 ba40
000001b0: ece7 bf40 ed5b f0c0 516b d03f 12ae d93e
000001c0: 87ca 8b40 f7f4 bac0 f397 1640 26b5 bd40
000001d0: 3df0 0341 f15f 2940 a37b 8f40 fea8 c33f
000001e0: 0717 0240 b23c ee40 12fb ebbe 3325 3c40
000001f0: d290 53bf 7a48 8d40 c055 aa40 9d97 7b40
00000200: 2a17 25c0 6230 bdc0 4625 4240 6ecc 9240
00000210: daa1 2540 be45 e5c0 5a52 6740 81d1 eb40
00000220: 1be9 1e40 fa53 9e40 8674 cb3f e63a 7e40
00000230: 5fcc 8440 455e 373f 0605 2840 4a4f 9b40
00000240: 9deb 6540 4129 493f 4944 c940 c230 3740
00000250: 3413 1640 6e40 dac0 1212 5f3f 7560 e3bf
00000260: 2f90 883f df26 1540 c79b 8f3f 69be 6f40
00000270: 16b9 ae40 52d5 c73f 38e6 b640 a994 1140
00000280: 66c8 eb40 9393 0a41 3a12 c6c0 bbc9 f53f
00000290: c867 4740 cc5b 3c40 db64 a740 5b19 ba40
000002a0: 0bbe cd40 8535 9240 6bd0 f13f cd4b b940
000002b0: 8839 d640 dfc5 d63f 6b22 1a40 9ff3 a240
000002c0: 065c 4d40 3d76 1740 bb26 8b40 1191 6c40
000002d0: ccc4 eb40 f72f 69c0 595b 9ac0 1fd0 7c40
000002e0: b7c4 27be c439 f640 995b 92c0 96cd 9d40
000002f0: a1a3 b440 26b5 37c0 15ef 87c0 8330 8640
00000300: aaaf bfbe b14f b3c0 f554 90c0 b0e3 6940
00000310: d88d d4c0 0ff2 b640 e262 dc40 4487 c940
00000320: 1acf 0940 2120 8dbd a0d0 b440 e035 b440
00000330: 03d1 d340 7ba9 c240 aa03 5e40 4b45 3440
00000340: 96a9 8b40 7930 2a40 77fb c140 90b3 4ac0
00000350: 113d d640 1db8 c63f e48a a640 0828 3340
00000360: e7c2 ae40 68b9 4140 a570 b8c0 5def 9140
00000370: e500 8540 e4a8 f7bf caac 4940 616a 0240
00000380: 86f8 3740 872d 9cbe a375 e540 474a d440
00000390: 801e bf3e 3392 a340 24be 8f40 d9a8 bec0
000003a0: 8e3f 6340 7add 6f40 4c1d 0e41 c737 4a40
000003b0: 82c7 e640 f2eb 9640 bd03 f93f e165 3540
000003c0: 32a7 a140 4ff1 9140 c2f9 7d40 f699 b440
000003d0: 93ea 8540 500c c440 f94c 1540 15d0 a940
000003e0: 1197 8440 fdf1 9240 2ded aa40 7bee 793f
