public_models/Dnn3Layers/050.pth (torch_old, 616467 bytes, 14 tensors)

weight f4 [252, 252]
-2.2513573 2.7168298 -0.9118919 1.01877 5.2184677 -0.58529097 -2.912596 9.400459
5.7798414 1.5925691 -0.92428005 0.20236158 -2.1132598 -0.73332936 2.7175949 -3.1189044
-3.7306225 -1.4807984 6.5844054 -4.4734144 -0.96411973 -0.33273482 -1.1498414 0.8879427
-0.15774177 2.8050246 -2.3368468 -8.134301 -5.7727356 -0.31817684 1.53298 -0.81118894
1.293068 0.5553043 3.158532 -0.1161099 -0.6624742 -0.7206207 -0.7768046 0.23576424
0.14462356 2.9057314 1.0439856 -2.0457156 0.29397675 0.44862938 -0.8309793 0.24173422
0.3604397 0.038011245 0.029293746 0.31914917 -0.47068495 0.3456612 -0.16368866 -0.5735997
0.31393257 -0.6140365 0.84140384 0.6852215 -0.8051723 1.6042686 -4.347194 -10.953554
-1.7456905 3.7012994 -2.132933 1.2494147 0.5520268 -0.4427638 -0.0027929782 0.19160962
0.2734877 0.030924676 1.0361823 -0.43544936 -1.084189 0.9829712 -0.2355747 -0.16311114
1.3195604 -0.47339484 0.6890881 -0.34660763 0.08417637 -0.16796128 -0.0063957484 0.09839323
-0.6531527 0.46303266 -0.2121542 0.22755472 -0.00089300046 0.20906089 -0.15156078 -0.15814087
0.44336993 -0.6242344 0.2903866 0.5504465 -0.95357776 -0.1038452 0.07813572 0.42321113
0.72319406 -0.19095415 1.1628189 -0.40058377 0.18711512 0.1759554 -0.3927489 0.9448319
-0.4724932 0.19151923 -0.08504766 -0.11048991 0.8701985 -0.7564484 0.09824919 0.030079301
0.16819899 -0.58174616 -0.49829754 0.64723325 -0.2979848 0.8078485 -0.12528932 -0.43171233
1.0245982 -0.29372883 0.19723955 0.6897493 -0.14115164 0.014445694 -0.17239887 -0.1574073
0.18908048 -0.5258449 0.0040929383 0.16143917 -0.34245065 0.016063271 0.31274244 0.4720701
1.0513849 0.20810145 0.32937664 0.53363633 0.3120806 -0.3004438 -0.59299874 -0.93080604
-0.8125908 0.70402306 -1.061258 -0.54738 -1.0513971 1.6060852 -0.095304914 0.46525815
-0.2631536 1.4045781 0.2895083 -2.1211696 -0.26682365 0.9082001 -0.6910848 1.1349965
-0.58422506 0.67273057 -1.6913147 -0.7378854 1.3692957 -0.67745525 0.29586092 0.4489629
-0.43348137 -0.16362534 -0.162645 0.7399713 0.43375087 -0.061123166 2.200351 -0.4642205
0.02585467 1.1394252 0.6602812 1.1155976 -7.2211456 -2.2453372 0.6790092 3.2443726
-1.649885 1.4668632 2.155999 -1.2817616 2.376705 -6.389183 -9.3959255 3.2887788
0.08066675 0.7875252 0.60768193 1.6176417 -1.3316786 -0.98432803 9.934258 -5.2322755
-1.207221 1.7497119 -1.8318077 3.301409 1.7294542 -2.7461312 -1.0475323 2.6320174
1.1942023 0.06514318 -5.1986003 2.1204364 -0.12684116 -1.6091293 0.3692081 4.3498387
17.867805 -9.446823 -15.608919 2.7627869 5.6891804 -4.6885514 12.115667 4.9977584
-0.15601644 4.0857067 -53.037464 -34.274155 7.825837 3.059164 5.6583986 -1.5478618
-1.824231 7.32249 -3.2330225 -5.9393516 4.0426197 7.8265753 -0.9230572 -4.716224
4.743334 -3.7860372 -5.056395 -1.1580323 5.7358203 -5.6560817 4.816172 5.0126104
00000000: 3d16 10c0 8ae0 2d40 bf71 69bf 0e67 823f
00000010: b0fd a640 a1d5 15bf f967 3ac0 4868 1641
00000020: 76f4 b840 4ed9 cb3f 9e9d 6cbf e037 4f3e
00000030: a63f 07c0 79bb 3bbf 13ed 2d40 219c 47c0
00000040: 85c2 6ec0 cd8a bdbf 73b3 d240 3626 8fc0
00000050: 8dd0 76bf 385c aabe 012e 93bf 3650 633f
00000060: 0f87 21be 8685 3340 e68e 15c0 1926 02c1
00000070: 40ba b8c0 13e8 a2be b038 c43f 14aa 4fbf
00000080: 4183 a53f 6c28 0e3f 6325 4a40 07cb edbd
00000090: e997 29bf 997a 38bf abdc 46bf 2e6c 713e
000000a0: 3318 143e 81f7 3940 52a1 853f 01ed 02c0
000000b0: 1f84 963e c0b2 e53e 0fbb 54bf 2d89 773e
000000c0: 8d8b b83e aeb1 1b3d 70f9 ef3c 8567 a33e
000000d0: 9efd f0be 81fa b03e 009e 27be 6ed7 12bf
000000e0: c5bb a03e 7f31 1dbf 3e66 573f ad6a 2f3f
000000f0: c61f 4ebf ac58 cd3f 371c 8bc0 c241 2fc1
00000100: c972 dfbf 17e2 6c40 f981 08c0 d2ec 9f3f
00000110: a151 0d3f f0b1 e2be 660a 37bb 5035 443e
00000120: 9406 8c3e bf55 fd3c 9fa1 843f 38f3 debe
00000130: b5c6 8abf 00a4 7b3f 7f3a 71be 9b06 27be
00000140: 5be7 a83f cf60 f2be 1468 303f 8e76 b1be
00000150: a964 ac3d 0bfe 2bbe 6d93 d1bb 6482 c93d
00000160: 0435 27bf 9e12 ed3e f33e 59be 1b04 693e
00000170: 3f18 6aba 0f14 563e c032 1bbe aeef 21be
00000180: 6201 e33e d3cd 1fbf 8dad 943e 10ea 0c3f
00000190: ac1d 74bf cbac d4bd 9f05 a03d 21af d83e
000001a0: 3f23 393f 7c89 43be 40d7 943f 5119 cdbe
000001b0: 1b9b 3f3e a72d 343e 6216 c9be 81e0 713f
000001c0: a1ea f1be 9e1d 443e 782d aebd 8948 e2bd
000001d0: 54c5 5e3f 9aa6 41bf df36 c93d de68 f63c
000001e0: 5b3c 2c3e 51ed 14bf db20 ffbe 14b1 253f
000001f0: 7791 98be 29cf 4e3f d84b 00be 6609 ddbe
00000200: 0926 833f a063 96be 2af9 493e 6993 303f
00000210: 0e8a 10be a2ad 6c3c 5489 30be 612f 21be
00000220: 509e 413e c59d 06bf 0e1e 863b 4f50 253e
00000230: b155 afbe 1f97 833c c71f a03e 2cb3 f13e
00000240: c893 863f 8c18 553e 0ea4 a83e 649c 083f
00000250: 07c9 9f3e c5d3 99be c4ce 17bf 4e49 6ebf
00000260: f305 50bf db3a 343f 4dd7 87bf 1821 0cbf
00000270: 2e94 86bf 3394 cd3f 392f c3bd 5136 ee3e
00000280: 12bc 86be 37c9 b33f 6f3a 943e 3ec1 07c0
00000290: 1c9d 88be cd7f 683f efea 30bf 9147 913f
000002a0: c68f 15bf 1238 2c3f 007d d8bf 0fe6 3cbf
000002b0: 1545 af3f b56d 2dbf 157b 973e 77de e53e
000002c0: 45f1 ddbe 678d 27be 698c 26be c26e 3d3f
000002d0: 9814 de3e 495c 7abd 8dd2 0c40 4fae edbe
000002e0: 2ccd d33c afd8 913f 3008 293f e7cb 8e3f
000002f0: a013 e7c0 9bb3 0fc0 8cd3 2d3f cda3 4f40
00000300: 6f2f d3bf 2cc2 bb3f e3fb 0940 c410 a4bf
00000310: ef1b 1840 3074 ccc0 b655 16c1 5a7b 5240
00000320: 9c34 a53d 409b 493f 0b91 1b3f e20e cf3f
00000330: 7274 aabf ecfc 7bbf b9f2 1e41 cd6e a7c0
00000340: 3886 9abf 8ff6 df3f ad78 eabf 494a 5340
00000350: c15e dd3f 9dc0 2fc0 8a15 86bf f972 2840
00000360: 9fdb 983f ca69 853d ef5a a6c0 3bb5 0740
00000370: a6e2 01be f3f7 cdbf d808 bd3e e131 8b40
00000380: 44f1 8e41 3026 17c1 22be 79c1 80d1 3040
00000390: c40d b640 9d08 96c0 c6d9 4141 a3ed 9f40
000003a0: c6c2 1fbe 1cbe 8240 5d26 54c2 bc18 09c2
000003b0: 426d fa40 58c9 4340 9a11 b540 5620 c6bf
000003c0: 6780 e9bf d751 ea40 d7e9 4ec0 2b0f bec0
000003d0: 245d 8140 4e73 fa40 7a4d 6cbf 4feb 96c0
000003e0: 64c9 9740 6f4e 72c0 fdcd a1c0 673a 94bf
000003f0: d78b b740 9ffe b4c0 151e 9a40 4e67 a040

bias f4 [252]
13.445768 -39.02528 -235.48212 -123.41106 -169.5448 -72.379486 -85.565895 -223.70952
-186.64667 -62.55543 -133.61055 -26.124516 -239.9661 -191.259 -97.94271 -171.3155
-182.03284 -61.720333 -121.792175 -130.22379 -50.08258 -169.6003 -45.726883 -128.35854
-108.34689 -174.62906 -205.27129 -91.31063 -202.0779 -268.3197 -224.07831 -32.410294
-50.951668 -246.44823 -208.51772 -46.25146 -158.86983 -101.26176 -125.98267 -82.3056
-168.78583 -117.58909 -91.922646 -153.71124 -96.67952 4.6547656 -181.01662 -192.67033
-183.3098 -83.22182 -155.2925 -200.08975 -46.936737 -89.996056 -232.4072 -93.18319
-78.82639 -202.01247 -196.36075 -76.44461 -88.39805 -202.25726 -75.83761 -249.44788
-103.54564 -165.58946 -110.820656 -68.2505 -93.20931 -210.37773 -250.78607 -64.99274
-75.11332 -199.99617 -85.03549 -72.24397 -86.608986 -150.30003 -215.91872 -191.92047
-100.86882 -263.1593 -114.98967 -61.964256 -111.4849 -59.072365 -235.32594 -65.652405
-221.03331 -119.80484 -59.192356 -162.64218 -105.14806 -118.536674 -253.01788 -20.582464
-249.73953 -52.134823 -58.467163 -109.07445 -50.27102 -176.24936 -108.71199 -92.11383
-99.966225 -201.00797 -282.5785 -103.62591 -119.6501 -43.88776 26.023094 -162.69026
-73.322495 -131.86111 -111.47693 -136.12749 -65.86992 -31.418844 -96.61524 -243.09595
-69.6481 -107.38529 -203.62419 -220.57153 -205.39165 -50.32813 -115.17603 -177.76482
-130.07301 -56.627712 -36.60916 -68.82093 -13.685336 -137.7795 -161.21631 -147.14851
-128.63684 -205.20654 -15.270167 -112.80185 -169.72208 -82.18749 -63.90167 -211.81429
-56.238842 -80.740944 -139.16426 10.386264 -48.381138 -56.280895 -137.811 -68.28255
-48.404842 -78.83501 -44.293545 -97.198586 -107.079605 -162.94325 -211.1238 -71.960556
-47.76912 -110.12084 -122.83056 -134.30458 -104.71379 -89.42172 -32.874405 -82.43602
-99.74705 -93.13451 -113.92093 -114.52782 -102.4962 -244.94711 -221.32678 -52.03835
-136.92487 -127.12548 -42.74758 -70.20361 -113.118324 -163.47075 -66.41751 -62.539955
-93.98207 -178.3643 -205.73155 -71.19891 -37.979855 -233.43312 -193.6491 -30.743477
-89.59526 -237.04097 -271.41245 -109.47521 -102.71362 -75.96297 -90.288284 -262.84998
-245.70871 -67.24794 -57.10385 -287.89175 -114.26731 -79.38696 -48.56751 -243.66385
-50.504307 -13.382726 -116.831024 -199.62709 -96.70776 -123.4162 -19.413235 -154.49214
-122.085625 -158.98369 -146.89986 -140.52754 -80.19108 -56.134224 -91.03544 -206.85468
-162.13528 -298.1818 -41.3648 -234.87361 -87.26471 -180.52228 -132.19139 -67.8541
-44.702763 -185.01361 -146.49222 -83.1375 -245.24838 -69.08379 15.329837 -4.5559287
-54.48923 -178.26872 -98.48843 -45.3722 -237.99658 -81.10147 -134.67928 -127.67788
-249.53882 -85.54003 -66.69094 -8.569463
00000000: de21 5741 e319 1cc2 6c7b 6bc3 76d2 f6c2
00000010: 788b 29c3 4cc2 90c2 bd21 abc2 a3b5 5fc3
00000020: 8ca5 3ac3 c338 7ac2 4d9c 05c3 02ff d0c1
00000030: 52f7 6fc3 4e42 3fc3 abe2 c3c2 c550 2bc3
00000040: 6808 36c3 9fe1 76c2 9895 f3c2 4a39 02c3
00000050: 9054 48c2 ad99 29c3 54e8 36c2 c95b 00c3
00000060: 9cb1 d8c2 0aa1 2ec3 7345 4dc3 0b9f b6c2
00000070: f113 4ac3 ec28 86c3 0c14 60c3 24a4 01c2
00000080: 82ce 4bc2 bf72 76c3 8984 50c3 7f01 39c2
00000090: adde 1ec3 0586 cac2 21f7 fbc2 789c a4c2
000000a0: 2cc9 28c3 9d2d ebc2 65d8 b7c2 14b6 19c3
000000b0: ea5b c1c2 d7f3 9440 4104 35c3 9bab 40c3
000000c0: 4f4f 37c3 9271 a6c2 e14a 1bc3 fa16 48c3
000000d0: 38bf 3bc2 fbfd b3c2 3e68 68c3 cb5d bac2
000000e0: 1da7 9dc2 3103 4ac3 5a5c 44c3 a4e3 98c2
000000f0: cdcb b0c2 dc41 4ac3 dbac 97c2 a872 79c3
00000100: 5e17 cfc2 e796 25c3 2da4 ddc2 4280 88c2
00000110: 2b6b bac2 b360 52c3 3cc9 7ac3 48fc 81c2
00000120: 053a 96c2 05ff 47c3 2c12 aac2 ea7c 90c2
00000130: cd37 adc2 cf4c 16c3 31eb 57c3 a4eb 3fc3
00000140: d6bc c9c2 6494 83c3 b6fa e5c2 66db 77c2
00000150: 45f8 dec2 1a4a 6cc2 7153 6bc3 084e 83c2
00000160: 8708 5dc3 149c efc2 f9c4 6cc2 66a4 22c3
00000170: cf4b d2c2 c712 edc2 9404 7dc3 e3a8 a4c1
00000180: 52bd 79c3 0f8a 50c2 60de 69c2 1e26 dac2
00000190: 8615 49c2 d63f 30c3 8a6c d9c2 483a b8c2
000001a0: b5ee c7c2 0a02 49c3 0c4a 8dc3 7740 cfc2
000001b0: da4c efc2 118d 2fc2 4c2f d041 b5b0 22c3
000001c0: 1ea5 92c2 72dc 03c3 30f4 dec2 a320 08c3
000001d0: 66bd 83c2 cb59 fbc1 013b c1c2 9018 73c3
000001e0: d44b 8bc2 45c5 d6c2 cb9f 4bc3 5092 5cc3
000001f0: 4364 4dc3 0150 49c2 215a e6c2 cbc3 31c3
00000200: b112 02c3 c782 62c2 c86f 12c2 51a4 89c2
00000210: 23f7 5ac1 8dc7 09c3 6037 21c3 0526 13c3
00000220: 08a3 00c3 e034 4dc3 9b52 74c1 8c9a e1c2
00000230: dab8 29c3 ff5f a4c2 4f9b 7fc2 75d0 53c3
00000240: 93f4 60c2 5d7b a1c2 0d2a 0bc3 232e 2641
00000250: 4986 41c2 a31f 61c2 9ecf 09c3 aa90 88c2
00000260: 8f9e 41c2 86ab 9dc2 972c 31c2 ad65 c2c2
00000270: c228 d6c2 79f1 22c3 b11f 53c3 ceeb 8fc2
00000280: 9413 3fc2 df3d dcc2 3fa9 f5c2 f94d 06c3
00000290: 766d d1c2 ecd7 b2c2 647f 03c2 3edf a4c2
000002a0: 7d7e c7c2 de44 bac2 84d7 e3c2 3e0e e5c2
000002b0: 0efe ccc2 76f2 74c3 a853 5dc3 4527 50c2
000002c0: c4ec 08c3 3f40 fec2 86fd 2ac2 4068 8cc2
000002d0: 953c e2c2 8378 23c3 c4d5 84c2 ea28 7ac2
000002e0: d2f6 bbc2 435d 32c3 47bb 4dc3 d865 8ec2
000002f0: 5feb 17c2 e16e 69c3 2ba6 41c3 a4f2 f5c1
00000300: c630 b3c2 7d0a 6dc3 cbb4 87c3 4ff3 dac2
00000310: 606d cdc2 0aed 97c2 9a93 b4c2 cc6c 83c3
00000320: 6eb5 75c3 f27e 86c2 586a 64c2 25f2 8fc3
00000330: dd88 e4c2 20c6 9ec2 2145 42c2 f2a9 73c3
00000340: 6904 4ac2 a51f 56c1 7ca9 e9c2 89a0 47c3
00000350: 606a c1c2 18d5 f6c2 4e4e 9bc1 fd7d 1ac3
00000360: d72b f4c2 d3fb 1ec3 5de6 12c3 0d87 0cc3
00000370: d561 a0c2 7289 60c2 2512 b6c2 ccda 4ec3
00000380: a222 22c3 4517 95c3 8e75 25c2 a5df 6ac3
00000390: 8887 aec2 b485 34c3 ff30 04c3 4db5 87c2
000003a0: a1cf 32c2 7c03 39c3 027e 12c3 6646 a6c2
000003b0: 963f 75c3 e72a 8ac2 0347 7541 2bca 91c0
000003c0: f9f4 59c2 cb44 32c3 13fa c4c2 227d 35c2
000003d0: 20ff 6dc3 f433 a2c2 e5ad 06c3 135b ffc2
000003e0: f089 79c3 7f14 abc2 c361 85c2 851c 09c1

weight f4 [252]
1.2405454 1.143264 1.3291391 1.3587242 1.4800617 1.4556643 1.2707499 1.7001446
1.576481 1.281067 1.6001269 1.3434647 1.4933574 1.4011575 1.2841476 1.4320853
1.6016785 1.1364182 1.2286688 1.3767364 1.1272683 1.2266557 1.2665552 1.2966945
1.2825406 1.3906082 1.4918513 1.2759007 1.629196 1.6055708 1.766921 1.4052216
1.1318202 1.4255468 1.683717 1.0759783 1.4549152 1.5404577 1.4247216 1.4634656
1.3659587 1.3261775 1.2415272 1.3602648 1.5334843 1.4996864 1.5102208 1.4871714
1.2383454 1.1431806 1.2321453 1.4865068 1.1663038 1.6282364 1.6281904 1.2997679
1.2584676 1.4790442 1.526096 1.3725613 1.3264287 2.1258304 1.2669611 1.7078763
1.5221205 1.2755052 1.5397255 1.206987 1.334359 1.4399754 1.3083661 1.7655627
1.2193817 1.5603464 1.2258182 1.281764 1.3794245 1.2567724 1.1419553 1.5266113
1.6193551 1.9141792 1.1268117 1.303419 1.3578147 1.5223564 1.4988528 1.6125199
1.2978387 1.3640828 1.4984806 1.4489721 1.3809572 1.2121038 1.6383834 1.3841752
1.618127 1.2559623 1.3337076 1.3317846 1.0897299 1.3147597 1.3488996 1.4631969
1.2991009 1.2869681 1.4180257 1.3219085 1.297076 1.3105347 1.1263022 1.2288715
1.3278819 1.194171 1.2454219 1.3442523 1.2186733 1.211526 1.3587188 1.7094185
1.2878703 1.2756749 1.5568304 1.6593951 1.6705667 1.4565363 1.355289 1.3590578
1.3959033 1.1810766 1.4317688 1.4237918 1.3392681 1.3345783 1.4783121 1.2651764
1.3645211 1.2685153 1.1176177 1.8211955 1.4426963 1.7227948 1.3940756 1.5870073
1.3707521 1.2578914 1.2296711 1.2304578 1.3044589 1.2883402 1.2623299 1.3383546
1.3536509 1.2333044 1.4153876 1.3787605 1.2889261 1.3278605 1.369112 1.2436125
1.3068492 1.3520502 1.2733593 1.4307094 1.281159 1.3647218 1.2688391 1.50096
1.6031822 1.3035109 1.3239446 1.4016489 1.3378636 1.4704359 1.4677391 1.4226168
1.2969822 1.5072227 1.5425214 1.6301814 1.4420167 1.3911189 1.2483994 1.259759
1.1625073 1.4094934 1.3733233 1.278644 1.2170331 1.3647228 1.4018965 1.274901
1.146938 1.5422027 2.0257735 1.2525048 -1.179351 1.1940676 1.5256094 1.4363246
1.4439833 1.0357699 1.3453943 1.6065058 1.1443793 1.2912521 1.2563075 1.5384845
1.6695253 1.1405511 1.2000676 1.4475362 1.1868485 1.2394105 1.4841876 1.674334
1.4009316 1.2779559 1.3061235 1.3907212 1.625369 1.3002183 1.4243618 1.2942538
1.3048797 1.6482056 1.2627999 1.9378933 1.340557 1.4555609 1.4973639 1.6101027
1.1352373 1.5926566 1.4413729 1.1786897 1.5229251 1.6996241 1.2780794 1.3564181
1.271168 1.5117607 1.548216 1.278916 1.6147366 1.2857416 1.4219927 1.4484522
1.5131322 1.4398088 1.5998409 1.2718071
00000000: 31ca 9e3f 7a56 923f 3b21 aa3f adea ad3f
00000010: a972 bd3f 3553 ba3f efa7 a23f 579e d93f
00000020: 21ca c93f 01fa a33f f5d0 cc3f a7f6 ab3f
00000030: 5626 bf3f 2159 b33f f35e a43f 924e b73f
00000040: cd03 cd3f 2776 913f 0545 9d3f e638 b03f
00000050: 544a 903f 0e03 9d3f 7b1e a23f 16fa a53f
00000060: 4a2a a43f 73ff b13f fcf4 be3f b750 a33f
00000070: 7f89 d03f 5883 cd3f 782a e23f 4dde b33f
00000080: 7cdf 903f 5178 b63f 0a84 d73f a8b9 893f
00000090: a93a ba3f b82d c53f 475d b63f d752 bb3f
000000a0: bcd7 ae3f 2fc0 a93f 5dea 9e3f 281d ae3f
000000b0: 3749 c43f b9f5 bf3f ea4e c13f a25b be3f
000000c0: 1a82 9e3f be53 923f f0b6 9d3f db45 be3f
000000d0: 7149 953f 0d6a d03f 8b68 d03f cb5e a63f
000000e0: 7715 a13f 5251 bd3f 1d57 c33f 17b0 af3f
000000f0: 6ac8 a93f 9b0d 0840 c82b a23f b19b da3f
00000100: d8d4 c23f c143 a33f ba15 c53f 8d7e 9a3f
00000110: 47cc aa3f 1d51 b83f 8a78 a73f f5fd e13f
00000120: b314 9c3f 6eb9 c73f 9ce7 9c3f d810 a43f
00000130: fb90 b03f ebdd a03f 972b 923f 0068 c33f
00000140: 0747 cf3f d303 f53f 5e3b 903f 6fd6 a63f
00000150: dfcc ad3f 93dc c23f 69da bf3f 0d67 ce3f
00000160: 941f a63f 449a ae3f 36ce bf3f eb77 b93f
00000170: 35c3 b03f 3826 9b3f 8cb6 d13f a72c b13f
00000180: c91e cf3f 5fc3 a03f eeb6 aa3f eb77 aa3f
00000190: 457c 8b3f 0c4a a83f bea8 ac3f 094a bb3f
000001a0: f048 a63f 5fbb a43f de81 b53f 4c34 a93f
000001b0: 9606 a63f 9abf a73f ac2a 903f a94b 9d3f
000001c0: 09f8 a93f 98da 983f fc69 9f3f 7610 ac3f
000001d0: 7dfd 9b3f 4913 9b3f 7fea ad3f 3ace da3f
000001e0: efd8 a43f 5149 a33f 3846 c73f 0f67 d43f
000001f0: 21d5 d53f c86f ba3f 1c7a ad3f 9bf5 ad3f
00000200: f6ac b23f 852d 973f 3344 b73f cf3e b63f
00000210: 236d ab3f 76d3 aa3f 5539 bd3f 4df1 a13f
00000220: a1a8 ae3f b65e a23f 190e 8f3f ef1c e93f
00000230: 46aa b83f 8a84 dc3f 1271 b23f 0e23 cb3f
00000240: ce74 af3f 9602 a13f dd65 9d3f a47f 9d3f
00000250: 82f8 a63f 55e8 a43f 0794 a13f 344f ab3f
00000260: 6f44 ad3f ebdc 9d3f 6c2b b53f 397b b03f
00000270: 88fb a43f 55f7 a93f 103f af3f b22e 9f3f
00000280: d646 a73f fb0f ad3f 70fd a23f 7c21 b73f
00000290: 05fd a33f 34af ae3f 5269 a23f 751f c03f
000002a0: 1335 cd3f 72d9 a63f 0477 a93f 3b69 b33f
000002b0: 1d3f ab3f 3e37 bc3f e0de bb3f 4f18 b63f
000002c0: 8303 a63f acec c03f 5771 c53f c9a9 d03f
000002d0: 0194 b83f 2f10 b23f 8dcb 9f3f c83f a13f
000002e0: 0acd 943f 486a b43f 0fc9 af3f 9baa a33f
000002f0: bec7 9b3f 3daf ae3f 5871 b33f f52f a33f
00000300: ddce 923f e666 c53f 46a6 0140 1452 a03f
00000310: f9f4 96bf 35d7 983f 2b47 c33f 7cd9 b73f
00000320: 72d4 b83f 1c94 843f e135 ac3f fba1 cd3f
00000330: 057b 923f c047 a53f afce a03f 0fed c43f
00000340: 01b3 d53f 94fd 913f d19b 993f de48 b93f
00000350: a7ea 973f 01a5 9e3f dcf9 bd3f 9450 d63f
00000360: ba51 b33f 0f94 a33f 0e2f a73f 2703 b23f
00000370: 170c d03f 8e6d a63f 7d51 b63f 1caa a53f
00000380: 4c06 a73f 67f8 d23f 6da3 a13f e30c f83f
00000390: 5f97 ab3f d24f ba3f 9fa9 bf3f d817 ce3f
000003a0: 754f 913f 2cdc cb3f e87e b83f 4edf 963f
000003b0: 36ef c23f 488d d93f 1b98 a33f 1c9f ad3f
000003c0: a2b5 a23f 6081 c13f f12b c63f 85b3 a33f
000003d0: b0af ce3f 2e93 a43f db03 b63f e266 b93f
000003e0: 51ae c13f a84b b83f 96c7 cc3f 93ca a23f

bias f4 [252]
0.047518224 0.0787719 -0.3699087 0.07723873 0.22456987 0.55080533 0.18593869 -0.8850908
-0.72281224 -0.15701991 0.47068915 0.4396084 -0.84906137 -0.6388697 0.15669157 0.58324
-0.51381487 0.03148534 -0.15726455 0.31661674 -0.17640552 -0.049871914 0.122277945 0.25501078
0.2940829 0.16452602 -0.36733678 0.37858325 -0.55274504 -1.0340633 -0.409754 0.38439533
-0.026854252 -0.42629302 -0.94867104 0.1098412 -0.3474714 0.6246661 0.2741246 0.4467542
0.088444814 0.276952 0.15754016 -0.27860233 0.52776706 0.45846874 -0.64847004 0.010103496
-0.12528726 0.026393868 -0.026471563 -0.016519526 0.13009158 0.69298726 -0.17492804 0.20563187
0.20598163 -0.57510096 -0.8763876 0.091495216 0.13665366 0.8173822 0.08480251 -0.74841344
0.46591333 -0.12592146 0.60050344 0.191656 0.27459392 0.27140075 -0.04960702 0.59108794
0.1571407 -0.7491752 0.299632 0.066912904 0.3063312 -0.19329761 -0.2597062 -0.2621965
0.5817539 0.5615943 -0.29485208 0.2985169 0.16357543 0.5557032 -0.06933577 0.76678866
-0.35201436 0.18330513 0.55476296 -0.028939556 0.33877227 0.07592845 -1.0120394 0.44499215
-1.0112045 0.1301959 0.309805 -0.014904543 -0.09975113 0.10065575 0.42437723 0.3990583
0.21900205 -0.109039925 -0.03119654 0.15189783 -0.05352565 0.27462125 0.07687617 0.052065026
0.404823 -0.040851105 0.07120995 0.13310386 -0.0765332 0.11434724 0.43626216 -0.55204624
0.18014853 0.13416341 -0.68750316 -0.8909095 -0.25644124 0.45710555 0.09368156 -0.08078474
0.14558473 0.26470828 0.52241194 0.34485006 0.30640808 0.08714229 -0.10664024 0.063635804
0.20548986 -0.3527871 -0.0237001 0.6458242 0.49667284 0.76668394 0.35749707 -0.6931708
0.3495281 -0.021166727 0.088068 0.24038748 0.25686887 0.24159656 0.13521717 0.1779026
0.423928 0.3473506 0.2515905 0.18706784 0.15655693 0.3227206 -0.52754104 0.19637397
0.32192627 -0.061488174 0.2562023 0.3890429 0.16760656 0.13049988 0.21966127 0.6454427
0.57457936 0.23070209 0.18280973 0.39973035 0.17264247 0.11196496 -0.38564008 0.07269463
-0.5472208 0.31584558 0.7994762 0.5371876 0.34279263 0.23766026 0.44277066 0.14744301
0.104590796 0.096888475 0.32774842 0.2918596 0.12147887 -0.015660077 0.052066047 0.2727367
0.12313338 -0.9041554 0.61004144 0.24588445 -0.051208805 0.12332133 0.49230018 -0.043003686
0.14095713 0.1027014 0.2261272 -1.0768971 -0.0048538344 -0.20125328 0.103407405 -0.6895767
0.7055861 0.055350035 0.09109431 0.22978967 0.116499014 0.12504306 0.46586978 0.50105923
0.29922193 -0.12287956 0.338083 -0.016199078 0.5027369 0.44857243 0.3534102 -0.12590547
-0.12645295 -0.096007966 0.24387826 0.67817503 0.0046602045 0.41376203 0.2861826 0.7313889
0.100164466 -0.614436 0.36298054 0.13954993 -0.6651994 0.80846524 0.17937253 0.15711717
0.17890811 -0.47735012 0.6827993 0.14558601 -0.8962963 0.30332807 0.46051586 0.40144292
-1.065244 -0.013396887 0.69262445 0.008681406
00000000: 78a2 423d 2953 a13d ac64 bdbe 572f 9e3d
00000010: a5f5 653e 9401 0d3f b666 3e3e 5095 62bf
00000020: 390a 39bf d4c9 20be 2bfe f03e 5a14 e13e
00000030: 165c 59bf f78c 23bf c173 203e 374f 153f
00000040: 5f89 03bf c6f6 003d f509 21be 971b a23e
00000050: a6a3 34be 7e46 4cbd dc6c fa3d c690 823e
00000060: 0992 963e 8279 283e 9113 bcbe aad5 c13e
00000070: b380 0dbf 305c 84bf 47cb d1be 77cf c43e
00000080: 73fd dbbc 1443 dabe 1bdc 72bf 6cf4 e03d
00000090: c5e7 b1be 1eea 1f3f 0f5a 8c3e f7bc e43e
000000a0: 8e22 b53d a7cc 8d3e 3552 213e f7a4 8ebe
000000b0: be1b 073f 6abc ea3e 2202 26bf 2289 253c
000000c0: 4e4b 00be f437 d83c e4da d8bc f553 87bc
000000d0: ba36 053e 9d67 313f 5620 33be 2991 523e
000000e0: d9ec 523e d139 13bf f05a 60bf d861 bb3d
000000f0: f0ee 0b3e f63f 513f f0ac ad3d 0698 3fbf
00000100: 318c ee3e 8ef1 00be 98ba 193f 7841 443e
00000110: 9397 8c3e 0af5 8a3e bb30 4bbd 8a51 173f
00000120: 7ee9 203e f2c9 3fbf 5e69 993e a209 893d
00000130: 71d7 9c3e cfef 45be 36f8 84be 9f3e 86be
00000140: d3ed 143f a5c4 0f3f daf6 96be 35d7 983e
00000150: 5180 273e 9142 0e3f eaff 8dbd 434c 443f
00000160: 3a3b b4be 57b4 3b3e f204 0e3f a612 edbc
00000170: 8f73 ad3e 6080 9b3d 828a 81bf 03d6 e33e
00000180: 266f 81bf 1352 053e c39e 9e3e 2f32 74bc
00000190: 524a ccbd 9a24 ce3d f947 d93e 5f51 cc3e
000001a0: 1342 603e 5350 dfbd e38f ffbc 1b8b 1b3e
000001b0: b63d 5bbd 289b 8c3e 4171 9d3d 2342 553d
000001c0: f644 cf3e 7d53 27bd 86d6 913d 614c 083e
000001d0: 70bd 9cbd e32e ea3d c15d df3e e752 0dbf
000001e0: db78 383e 2262 093e 3500 30bf a512 64bf
000001f0: 444c 83be bd09 ea3e 1edc bf3d 7872 a5bd
00000200: 2a14 153e d887 873e cabc 053f 3090 b03e
00000210: 85e1 9c3e a877 b23d 3366 dabd 7d53 823d
00000220: ef6b 523e 83a0 b4be b626 c2bc bc54 253f
00000230: e74b fe3e 6645 443f db09 b73e a473 31bf
00000240: 59f5 b23e d865 adbc ff5c b43d 2328 763e
00000250: 5184 833e 1765 773e 5f76 0a3e 192c 363e
00000260: 170d d93e f0d7 b13e 78d0 803e b68e 3f3e
00000270: 7650 203e a23b a53e ee0c 07bf 4216 493e
00000280: 85d3 a43e 06db 7bbd f32c 833e a230 c73e
00000290: 0ea1 2b3e c3a1 053e e2ee 603e bc3b 253f
000002a0: a217 133f 2b3d 6c3e 7932 3b3e 75a9 cc3e
000002b0: 30c9 303e e34d e53d 9e72 c5be ece0 943d
000002c0: aa16 0cbf 83b6 a13e 79aa 4c3f 2085 093f
000002d0: 8482 af3e 365d 733e d6b2 e23e 4dfb 163e
000002e0: b333 d63d 776d c63d a4ce a73e 9f6e 953e
000002f0: eac9 f83d 9049 80bc 3543 553d 25a4 8b3e
00000300: 5b2d fc3d ba76 67bf ad2b 1c3f 22c9 7b3e
00000310: 53c0 51bd e58f fc3d c50e fc3e a224 30bd
00000320: 1157 103e 1d55 d23d e48d 673e c4d7 89bf
00000330: ea0c 9fbb 5715 4ebe 43c7 d33d 1988 30bf
00000340: 4aa1 343f b8b6 623d a78f ba3d fc4d 6b3e
00000350: 0997 ee3d 4a0b 003e 7c86 ee3e 6b45 003f
00000360: 9e33 993e 47a8 fbbd 3719 ad3e eeb3 84bc
00000370: 5eb3 003f 49ab e53e 2ff2 b43e 5ded 00be
00000380: e27c 01be d39f c4bd 39bb 793e e19c 2d3f
00000390: a1b4 983b 9ed8 d33e 8786 923e 4e3c 3b3f
000003a0: 0723 cd3d ad4b 1dbf 96d8 b93e 2de6 0e3e
000003b0: 824a 2abf 94f7 4e3f 6fad 373e 53e3 203e
000003c0: b033 373e 3c67 f4be efcb 2e3f 8014 153e
000003d0: ad73 65bf d14d 9b3e bcc8 eb3e ed89 cd3e
000003e0: ea59 88bf 9e7e 5bbc d64f 313f 753c 0e3c

running_mean f4 [252]
18820.559 16006.191 53622.215 27438.668 17317.568 28711.979 23696.857 25588.027
31068.115 13972.764 37909.656 12523.623 71672.78 26215.467 30059.049 28009.783
12213.637 11761.051 17962.553 20683.217 15459.924 26077.488 10512.145 27643.887
19801.018 12227.931 55848.17 17006.205 29406.225 60761.184 18333.53 12687.026
9558.721 51844.18 43346.71 11042.586 41486.87 19502.748 22219.148 15588.651
37164.605 17472.629 18229.28 15001.254 20009.352 17488.248 21247.125 8169.1436
9993.857 16533.531 6144.259 7030.4863 15955.643 30461.225 14198.874 14742.616
13085.901 51378.633 68290.016 7284.2065 26156.64 18400.436 16385.209 89028.11
10414.734 11777.419 30730.318 10661.21 13494.085 16393.244 30169.629 12691.697
14269.65 84602.97 19036.938 22028.686 29826.793 19179.662 7916.2656 33623.574
27219.83 24590.959 12874.647 17374.863 16543.979 16280.728 21017.398 23931.777
9216.117 24705.266 23384.834 35898.59 27418.033 14640.773 54117.723 17751.906
68904.14 20216.781 19087.967 42913.76 18381.295 30685.271 13763.305 13262.513
25400.816 11361.268 44739.7 16071.126 36704.035 9049.153 19854.254 18368.809
19571.434 10586.231 27028.814 32687.559 14820.407 17900.855 18041.56 10676.297
17299.969 19872.355 62321.85 89329.63 12061.438 19149.613 30084.504 15913.306
34154.75 11832.066 16565.748 24079.982 15483.182 15524.506 46633.72 34509.312
24479.395 21475.424 13910.114 13665.948 10034.19 24030.377 24349.922 71848.055
26680.094 28341.127 26463.467 17786.764 15823.039 25488.986 18657.678 27542.979
22117.314 16658.9 29019.912 18473.186 26514.18 27085.375 52351.344 18655.639
21286.621 13487.642 21690.45 20579.873 25531.707 36535.035 13365.954 17828.178
18336.053 9231.097 11756.102 28771.686 22216.863 19221.986 11624.389 31529.379
15252.984 33058.48 19335.758 26915.088 24958.312 17094.084 10400.444 17630.28
19105.3 20543.639 11934.308 21571.785 15193.609 9521.28 29587.344 17253.768
18188.69 48648.707 18352.75 17452.068 15081.378 13338.966 27845.154 10283.253
26337.582 13347.211 18991.33 65445.87 8637.825 12648.177 16883.518 58161.94
15994.384 11374.557 20036.428 11328.236 19947.398 29120.209 14196.156 14524.004
23737.455 11005.172 22520.78 38767.812 29707.95 14811.539 22267.555 45649.316
32748.639 10158.893 12866.634 22382.734 38976.22 8078.804 21039.574 34254.57
11331.646 86157.06 16263.123 22063.836 71383.42 21492.662 12535.062 31277.715
18595.13 71351.016 20131.416 18664.576 87555.37 27152.59 23917.012 34288.7
71922.17 23427.623 26856.18 16678.24
00000000: 1e09 9346 c418 7a46 3776 5147 565d d646
00000010: 234b 8746 f54f e046 b721 b946 0ee8 c746
00000020: 3bb8 f246 0e53 5a46 a815 1447 7eae 4346
00000030: 64fc 8b47 efce cc46 19d6 ea46 91d3 da46
00000040: 8cd6 3e46 34c4 3746 1b55 8c46 6f96 a146
00000050: b28f 7146 faba cb46 9440 2446 c6f7 d746
00000060: 09b2 9a46 b90f 3f46 2c28 5a47 69dc 8446
00000070: 73bc e546 2f59 6d47 0f3b 8f46 1b3c 4646
00000080: e25a 1546 2e84 4a47 b652 2947 588a 2c46
00000090: df0e 2247 7f5d 9846 4c96 ad46 9b92 7346
000000a0: 9b2c 1147 4281 8846 8f6a 8e46 0465 6a46
000000b0: b452 9c46 7fa0 8846 40fe a546 2649 ff45
000000c0: 6e27 1c46 102b 8146 1202 c045 e4b3 db45
000000d0: 924e 7946 73fa ed46 7fdb 5d46 775a 6646
000000e0: 9b77 4c46 a2b2 4847 0261 8547 a7a1 e345
000000f0: 4859 cc46 dfc0 8f46 6b02 8046 0ee2 ad47
00000100: f0ba 2246 ad05 3846 a314 f046 d794 2646
00000110: 57d8 5246 7d12 8046 42b3 eb46 ca4e 4646
00000120: 9af6 5e46 7c3d a547 e0b9 9446 5f19 ac46
00000130: 9605 e946 53d7 9546 2062 f745 9357 0347
00000140: a9a7 d446 eb1d c046 972a 4946 babd 8746
00000150: f53f 8146 e962 7e46 cc32 a446 8ef7 ba46
00000160: 7800 1046 8802 c146 abb1 b646 973a 0c47
00000170: 1134 d646 18c3 6446 b965 5347 d0af 8a46
00000180: 1294 8647 90f1 9d46 ef1f 9546 c3a1 2747
00000190: 979a 8f46 8bba ef46 380d 5746 0d3a 4f46
000001a0: a271 c646 1285 3146 b3c3 2e47 811c 7b46
000001b0: 0960 0f47 9d64 0d46 821c 9b46 9e81 8f46
000001c0: dee6 9846 ed68 2546 a129 d346 1e5f ff46
000001d0: a191 6746 b6d9 8b46 1ff3 8c46 30d1 2646
000001e0: f027 8746 b640 9b46 da71 7347 d178 ae47
000001f0: c175 3c46 3a9b 9546 0209 eb46 39a5 7846
00000200: c06a 0547 44e0 3846 7f6b 8146 f71f bc46
00000210: baec 7146 0692 7246 b829 3647 50cd 0647
00000220: ca3e bf46 d9c6 a746 7558 5946 cb87 5546
00000230: c3c8 1c46 c1bc bb46 d83b be46 0754 8c47
00000240: 3070 d046 416a dd46 efbe ce46 87f5 8a46
00000250: 283c 7746 f921 c746 5bc3 9146 f52d d746
00000260: a1ca ac46 cd25 8246 d3b7 e246 5f52 9046
00000270: 5c24 cf46 c09a d346 587f 4c47 47bf 9146
00000280: 3e4d a646 91be 5246 e674 a946 bfc7 a046
00000290: 6a77 c746 09b7 0e47 d1d7 5046 5b48 8b46
000002a0: 1b40 8f46 633c 1046 68b0 3746 5fc7 e046
000002b0: ba91 ad46 f92b 9646 8ea1 3546 c252 f646
000002c0: f053 6e46 7b22 0147 840f 9746 2d46 d246
000002d0: a0fc c246 2b8c 8546 c781 2246 8fbc 8946
000002e0: 9a42 9546 477f a046 3b79 3a46 9287 a846
000002f0: 7066 6d46 1fc5 1446 b026 e746 89cb 8646
00000300: 6119 8e46 b508 3e47 8061 8f46 2358 8846
00000310: 83a5 6b46 dd6b 5046 4f8a d946 03ad 2046
00000320: 2ac3 cd46 d88c 5046 a95e 9446 dfa5 7f47
00000330: 4df7 0646 b5a0 4546 09e7 8346 f131 6347
00000340: 89e9 7946 3aba 3146 db88 9c46 f200 3146
00000350: ccd6 9b46 6b80 e346 a0d0 5d46 04f0 6246
00000360: e972 b946 b0f4 2b46 8ff1 af46 d06f 1747
00000370: e617 e846 286e 6746 1cf7 ad46 5151 3247
00000380: 47d9 ff46 92bb 1e46 890a 4946 78dd ae46
00000390: 3840 1847 6f76 fc45 265f a446 92ce 0547
000003a0: 960e 3146 8846 a847 7e1c 7e46 ac5f ac46
000003b0: b66b 8b47 53e9 a746 3fdc 4346 6e5b f446
000003c0: 4346 9146 825b 8b47 d546 9d46 27d1 9146
000003d0: af01 ab47 2e21 d446 06da ba46 b3f0 0547
000003e0: 1679 8c47 3f07 b746 5cd0 d146 7b4c 8246

running_var f4 [252]
3.0799443e+08 2.7912826e+08 1.1373743e+09 4.194854e+08 2.409701e+08 6.470783e+08 6.003692e+08 2.717296e+08
5.1003475e+08 2.4671206e+08 9.4151744e+08 3.3165213e+08 2.227299e+09 3.1749155e+08 6.813005e+08 1.1481066e+09
7.421032e+07 1.4374291e+08 2.5268413e+08 5.370015e+08 3.9616685e+08 3.4779315e+08 1.5752947e+08 9.3127866e+08
5.0690694e+08 1.221456e+08 1.2500051e+09 5.2293926e+08 4.0100512e+08 1.6917748e+09 1.9425803e+08 3.792968e+08
8.490098e+07 9.894846e+08 8.99911e+08 2.076963e+08 8.37333e+08 5.9549504e+08 3.8084774e+08 3.7437e+08
8.210829e+08 3.6898467e+08 4.3183072e+08 1.3609277e+08 7.342772e+08 1.7444672e+09 2.2535765e+08 2.9611824e+07
6.485002e+07 2.265564e+08 3.3985532e+07 1.894578e+07 2.7138384e+08 1.4244379e+09 1.0996725e+08 2.8573114e+08
2.959344e+08 1.0745626e+09 1.963181e+09 2.4465666e+07 6.319532e+08 1.8212905e+09 4.3417885e+08 2.7370565e+09
4.996164e+08 9.9643176e+07 1.00311475e+09 1.6931422e+08 2.8497987e+08 2.5109018e+08 4.6841136e+08 7.656488e+08
3.1716323e+08 2.6709727e+09 5.44881e+08 3.7311866e+08 5.992191e+08 4.1644573e+08 4.0713756e+07 4.1092093e+08
7.988615e+08 3.2199992e+09 1.7006365e+08 4.9621738e+08 4.1110886e+08 3.7906314e+08 3.1426515e+08 1.356342e+09
6.155361e+07 4.8289664e+08 7.593324e+08 8.169594e+08 9.409459e+08 1.6769266e+08 1.3051438e+09 4.36324e+08
2.108877e+09 5.154737e+08 6.4189664e+08 7.774773e+08 3.016765e+08 5.0817053e+08 3.6168915e+08 7.844235e+08
7.0699104e+08 9.302987e+07 8.589622e+08 2.6164392e+08 6.7611104e+08 2.981812e+08 3.633662e+08 2.4177613e+08
6.974588e+08 8.9888056e+07 3.8929654e+08 6.8741005e+08 2.8554477e+08 3.1058035e+08 7.258134e+08 4.996175e+07
3.163848e+08 5.417992e+08 1.6797257e+09 3.229885e+09 7.394945e+07 6.918941e+08 6.1101645e+08 1.9083106e+08
5.1202394e+08 2.0196418e+08 6.696649e+08 8.445531e+08 3.9649843e+08 1.8780926e+08 1.0139109e+09 7.2853555e+08
6.46319e+08 3.9416234e+08 1.7082408e+08 9.509608e+08 2.3103336e+08 9.463249e+08 9.120267e+08 1.6204114e+09
5.9791885e+08 5.4694624e+08 6.767393e+08 3.858827e+08 4.1379606e+08 5.476919e+08 5.446875e+08 6.902126e+08
8.43536e+08 4.6688448e+08 7.4946035e+08 3.2797062e+08 5.7748966e+08 8.928852e+08 9.4069894e+08 3.9361965e+08
4.807176e+08 2.2352514e+08 5.942503e+08 5.78727e+08 4.0375008e+08 7.9909555e+08 3.0200717e+08 5.807824e+08
4.884343e+08 2.8239875e+08 2.5245701e+08 9.449917e+08 4.7382083e+08 2.6851827e+08 8.252421e+07 7.5844256e+08
1.9559803e+08 9.191144e+08 8.371844e+08 7.978685e+08 6.028866e+08 2.769119e+08 2.2142467e+08 2.8809302e+08
3.9454096e+08 3.9960067e+08 1.3634451e+08 7.094361e+08 2.925252e+08 4.3878484e+07 5.2166333e+08 4.9031e+08
3.5313494e+08 1.0133604e+09 1.8818793e+09 4.4092125e+08 2.3226502e+08 2.0753662e+08 1.3471754e+09 5.828873e+07
4.356101e+08 2.750877e+08 4.3309802e+08 1.9157425e+09 7.8461064e+07 1.4415586e+08 5.5398483e+08 1.5450324e+09
5.5557754e+08 1.4238322e+08 6.1080314e+08 1.2999217e+08 3.1191203e+08 6.288451e+08 5.3183613e+08 1.1498994e+09
6.4718317e+08 6.82902e+07 5.52523e+08 6.144714e+08 1.0275324e+09 4.9055062e+08 8.789594e+08 8.5974816e+08
4.6720147e+08 4.9399736e+07 3.1652304e+08 2.482844e+09 6.628641e+08 2.0163694e+08 1.2240948e+09 1.3028169e+09
1.4858365e+08 2.5325192e+09 5.490204e+08 6.9270816e+08 2.1248607e+09 8.439723e+08 2.3724293e+08 8.326256e+08
4.6988486e+08 1.7882665e+09 8.322317e+08 4.5194586e+08 2.7224527e+09 7.6178656e+08 8.156578e+08 1.05296864e+09
2.3523116e+09 3.7780877e+08 9.210422e+08 2.2951614e+08
00000000: fadc 924d 4619 854d e995 874e b706 c84d
00000010: 97ce 654d 8646 1a4e a123 0f4e 1e92 814d
00000020: 1a34 f34d 7048 6b4d aa79 604e e124 9e4d
00000030: e3c1 044f 4b64 974d 486f 224e 6fdd 884e
00000040: 828b 8d4c 7c15 094d 76fa 704d f807 004e
00000050: 36e8 bc4d 38d7 a54d 583b 164d bd08 5e4e
00000060: 4ab6 f14d 68f9 e84c 2103 954e 5c5b f94d
00000070: d236 bf4d dfac c94e 4742 394d e1dc b44d
00000080: 8eef a14c 59e9 6b4e 358e 564e 1b13 464d
00000090: c0a2 474e 22fa 0d4e 349a b54d 7683 b24d
000000a0: ecc2 434e 13f2 af4d b6e9 cd4d c6c9 014d
000000b0: b910 2f4e eaf4 cf4e f5ea 564d 98eb e14b
000000c0: 1962 774c 9f0f 584d ffa4 014c 7a8b 904b
000000d0: e967 814d 65ce a94e f2be d14c 4a3f 884d
000000e0: ce1c 8d4d 0c19 804e 8807 ea4e 81a8 ba4b
000000f0: 5dab 164e 601d d94e 5908 cf4d 2b24 234f
00000100: 543c ee4d e50d be4c 4429 6f4e 7b78 214d
00000110: 95e3 874d 5075 6f4d 1f5b df4d 7e8b 364e
00000120: 373c 974d cf33 1f4f e6e8 014e b6ea b14d
00000130: 6edd 0e4e a993 c64d 874f 1b4c 3ff1 c34d
00000140: a376 3e4e 4aed 3f4f 722f 224d 699d ec4d
00000150: 3008 c44d 5bc0 b44d 72da 954d 46b0 a14e
00000160: f2ce 6a4c 5843 e64d f909 354e 3fc7 424e
00000170: c856 604e 97ec 1f4d d495 9b4e 350e d04d
00000180: d265 fb4e 09cc f54d 430a 194e 735d 394e
00000190: bfd9 8f4d 8950 f24d 8277 ac4d 6905 3b4e
000001a0: 4f8f 284e be70 b14c e4ca 4c4e e985 794d
000001b0: 8b32 214e 122f 8e4d 3a44 ad4d 6093 664d
000001c0: 8249 264e a772 ab4c 8da1 b94d 2ee4 234e
000001d0: 8a28 884d a418 944d 220c 2d4e c696 3e4c
000001e0: 31dd 964d cc2c 014e 293d c84e 2284 404f
000001f0: 210c 8d4c ddf5 244e 7cad 114e 9dfd 354d
00000200: ec26 f44d a99b 404d 1aa9 1f4e 6e5b 494e
00000210: b010 bd4d df1b 334d 36bc 714e 48b2 2d4e
00000220: 2e18 1a4e 85f3 bb4d 19e9 224d 0aba 624e
00000230: a154 5c4d 179f 614e b171 594e 082b c14e
00000240: 128e 0e4e f366 024e e458 214e d200 b84d
00000250: 3750 c54d 7694 024e 16dd 014e 3c8f 244e
00000260: 5a1d 494e bca0 de4d 6eaf 324e 7a63 9c4d
00000270: 2caf 094e 63e1 544e b547 604e 46b1 bb4d
00000280: 5939 e54d 912b 554d 29ae 0d4e b1fa 094e
00000290: e685 c04d ec84 3e4e 1c02 904d 2578 0a4e
000002a0: 54e7 e84d 81a8 864d 03c3 704d b74d 614e
000002b0: 75ef e14d 1c0a 804d 0667 9d4c a9d3 344e
000002c0: 6d89 3a4d 4a22 5b4e ae99 474e 073a 3e4e
000002d0: 47bd 0f4e b90a 844d c22a 534d 9b5f 894d
000002e0: bd21 bc4d 618b be4d 3c07 024d 8b24 294e
000002f0: a47c 8b4d 1562 274c 9bbf f84d 4ccc e94d
00000300: 4b63 a84d 9c9a 714e 6656 e04e 653f d24d
00000310: 5481 5d4d 1fec 454d 8898 a04e 965a 5e4c
00000320: 10b7 cf4d 0b2c 834d 6984 ce4d d25f e44e
00000330: 11a7 954c 4d7a 094d 8d14 044e a62e b84e
00000340: c375 044e 87c9 074d 77a0 114e bdf0 f74c
00000350: 33bb 944d a9ed 154e 6799 fd4d 2514 894e
00000360: ed4c 1a4e d340 824c 54bb 034e 5c80 124e
00000370: 9afb 744e abe9 e94d 6d8f 514e ddfa 4c4e
00000380: 6ec7 de4d ee71 3c4c 11ee 964d 31fd 134f
00000390: 040a 1e4e c54b 404d 69ec 914e d14e 9b4e
000003a0: 4eb3 0d4d 2df3 164f 8ce5 024e 8d27 254e
000003b0: 9a4d fd4e fb37 494e a340 624d 6f83 464e
000003c0: fe0e e04d 902d d54e 646b 464e 2c81 d74d
000003d0: 5545 224f c39f 354e cd77 424e 1b0c 7b4e
000003e0: 6d35 0c4f 3c27 b44d f497 5b4e 37e2 5a4d

weight f4 [252, 252]
-0.73697835 -0.14817399 -0.24351516 -2.2303286 1.4734542 0.15124671 -0.8198931 0.80712193
0.7882718 1.9241099 -0.2424307 1.7441195 -1.2181436 0.37754866 -2.6631968 1.8204788
0.10266051 2.3353808 0.73912376 -1.1742256 -1.8433044 -2.7875004 0.5353925 0.6570719
-1.55519 -0.6230398 -0.10022772 0.88814855 -0.2539671 1.0900726 0.7469592 1.5638198
-0.73157406 -0.6827408 -2.0637996 0.20121802 0.0583069 -0.3443105 -1.0563077 -0.45105988
4.0431232 0.613102 0.5736749 -0.6819001 -1.0554459 -0.28025788 -0.12549381 -0.38267243
1.4151733 4.879981 0.07466505 -1.477319 -0.8965129 -1.7614353 0.26224765 0.5942985
-1.145421 -0.5624861 1.0213621 1.899135 0.011231059 -0.3727609 0.1408659 1.2260414
-0.67319334 -0.40569288 0.7327002 -0.5353574 0.16975227 0.088055655 0.35815027 -0.77966356
0.34072754 0.51901853 -0.6685079 1.2435117 3.8113184 -1.034013 -0.4354519 -0.48031384
1.1200818 -1.9084809 -2.1145353 -0.33301193 0.21846502 -0.9304335 -1.7975788 2.4854217
-0.49814957 -3.0564704 0.7956405 1.7852163 0.9189464 -1.5619884 -0.39393625 -0.16450681
1.4060746 1.2225679 -0.863771 0.31684214 7.6126842 -0.268193 -1.1275556 0.6695198
0.46223632 -0.44042826 0.80949634 -0.23280199 0.29851267 0.16799684 0.6023921 0.93356496
1.1474167 -0.706296 0.004118137 2.3217576 0.10273881 2.4357355 0.05507295 0.8545055
-0.2987423 -1.3362372 0.17023309 0.5666145 -0.055403464 -1.464606 -0.5130553 -0.12672332
-1.7590231 -0.4354602 0.27155307 -0.0844052 -1.0589651 -0.20763853 0.11057204 0.5900709
-0.967318 0.042651985 -1.0942708 -1.3839431 0.5575744 1.7290013 0.15399352 0.807823
-1.0674582 -2.536678 -2.244814 -0.20020351 -0.5818129 -1.3253709 3.6033316 -0.6001226
-0.81997514 0.63613343 1.8824694 2.3258293 -0.6673789 1.4250106 0.80233294 -0.62470657
2.5554166 -0.014835546 -1.0713134 0.91920424 -2.530052 1.1163173 0.09107644 0.012057327
1.3347023 -0.028577909 -0.49115908 -0.19517994 -2.4045784 0.6327115 -0.7515548 0.8373171
-0.2632733 -2.3970442 2.1806147 0.46287376 0.69179136 -1.3103154 -2.4169946 0.11667155
0.8653234 8.626502 -0.47982064 0.7393108 -0.38815603 1.2794873 2.2898872 1.740471
1.0700935 0.038761392 -1.9478842 7.5552278 -0.43171474 1.355204 0.22266427 0.051176198
0.6274131 -1.4237417 -1.15413 0.4880282 -1.7923279 -0.5848787 0.05098416 0.07127166
1.3958397 1.3638903 -2.347445 -2.442138 -0.49722028 -1.0397795 1.584705 -1.847586
1.6749957 -0.55799544 0.48566663 -0.1660695 -0.8042264 -0.032149453 -0.5171175 0.25823975
0.4572077 0.003998333 -0.97680753 -1.04396 0.2511471 -0.16010335 0.20250675 -1.6459068
-0.011323793 0.9349642 -1.0908743 -1.2751528 -0.15692477 -0.90409875 -1.8947219 0.6505448
2.6484964 -0.16167109 1.0024235 2.2195327 0.86818063 2.221785 -0.08586763 0.8744544
0.105925955 1.2606475 -0.8304169 -0.6305071 -0.48358837 -0.054624222 -2.0938582 -0.92481023
00000000: 9daa 3cbf ecba 17be 0a5c 79be b4bd 0ec0
00000010: 269a bc3f 6be0 1a3e 84e4 51bf 8b9f 4e3f
00000020: 2ecc 493f 3c49 f63f c13f 78be 4f3f df3f
00000030: 21ec 9bbf 0f4e c13e d171 2ac0 7305 e93f
00000040: ac3f d23d e176 1540 3737 3d3f 064d 96bf
00000050: 66f1 ebbf 6866 32c0 7c0f 093f dd35 283f
00000060: 7710 c7bf 897f 1fbf 3144 cdbd b45d 633f
00000070: fa07 82be 8087 8b3f b838 3f3f 3f2b c83f
00000080: 7048 3bbf 1ac8 2ebf 4b15 04c0 190c 4e3e
00000090: 37d3 6e3d 7749 b0be 1735 87bf 52f1 e6be
000000a0: 4461 8140 41f4 1c3f 5cdc 123f 0191 2ebf
000000b0: da18 87bf f67d 8fbe 7381 00be a4ed c3be
000000c0: 6624 b53f ce28 9c40 fde9 983d ca18 bdbf
000000d0: df81 65bf b676 e1bf 5345 863e f223 183f
000000e0: 289d 92bf 17ff 0fbf febb 823f db16 f33f
000000f0: 7a02 383c 84da bebe 273f 103e edee 9c3f
00000100: 6656 2cbf fab6 cfbe 3e92 3b3f 2f0d 09bf
00000110: 8ad3 2d3e 8656 b43d 795f b73e 0898 47bf
00000120: d773 ae3e 66de 043f 5523 2bbf 642b 9f3f
00000130: a4ec 7340 8a5a 84bf 8df3 debe b2eb f5be
00000140: d75e 8f3f 1a49 f4bf 8c54 07c0 8a80 aabe
00000150: 4bb5 5f3e e430 6ebf 1017 e6bf 2611 1f40
00000160: 760d ffbe 369d 43c0 19af 4b3f f881 e43f
00000170: 1240 6b3f 3cef c7bf 03b2 c9be 7974 28be
00000180: 41fa b33f 1b7d 9c3f 1920 5dbf 2239 a23e
00000190: 1c9b f340 9850 89be be53 90bf a665 2b3f
000001a0: 3daa ec3e d07f e1be 273b 4f3f a563 6ebe
000001b0: a7d6 983e 5d07 2c3e 5e36 1a3f 1dfe 6e3f
000001c0: 8dde 923f d1cf 34bf 70f1 863b ad97 1440
000001d0: ba68 d23d 17e3 1b40 2c94 613d dfc0 5a3f
000001e0: c0f4 98be d209 abbf 9551 2e3e a60d 113f
000001f0: beee 62bd 3678 bbbf 9857 03bf c2c3 01be
00000200: ab27 e1bf a4f4 debe 0109 8b3e a2dc acbd
00000210: 2b8c 87bf 329f 54be 9873 e23d e30e 173f
00000220: 27a2 77bf d9b3 2e3d 1111 8cbf 0c25 b1bf
00000230: 32bd 0e3f ea4f dd3f 7ab0 1d3e 7dcd 4e3f
00000240: 78a2 88bf ef58 22c0 08ab 0fc0 2602 4dbe
00000250: b1f1 14bf c1a5 a9bf fc9c 6640 a2a1 19bf
00000260: e4e9 51bf a4d9 223f c2f4 f03f 63da 1440
00000270: 58d9 2abf bf66 b63f b165 4d3f c5ec 1fbf
00000280: f28b 2340 ca10 73bc cc20 89bf f850 6b3f
00000290: 5fec 21c0 7ce3 8e3f 4986 ba3d 188c 453c
000002a0: 86d7 aa3f 381c eabc 3479 fbbe 40dd 47be
000002b0: 9de4 19c0 62f9 213f e565 40bf 6a5a 563f
000002c0: c2cb 86be 2c69 19c0 318f 0b40 cafd ec3e
000002d0: 3d19 313f 6ab8 a7bf 0ab0 1ac0 7ef1 ee3d
000002e0: d685 5d3f 2706 0a41 0dab f5be 7943 3d3f
000002f0: 63bc c6be 3dc6 a33f 838d 1240 c1c7 de3f
00000300: d3f8 883f 44c4 1e3d 4554 f9bf 6dc4 f140
00000310: b709 ddbe 5377 ad3f 1a02 643e 229e 513d
00000320: 259e 203f 2b3d b6bf 88ba 93bf d5de f93e
00000330: 006b e5bf 9cba 15bf c4d4 503d e0f6 913d
00000340: e0aa b23f f593 ae3f 8a3c 16c0 fd4b 1cc0
00000350: a893 febe 7f17 85bf 9dd7 ca3f b37d ecbf
00000360: 4266 d63f cad8 0ebf 4ca9 f83e 1f0e 2abe
00000370: c8e1 4dbf 25af 03bd d061 04bf 0038 843e
00000380: 2117 ea3e 7304 833b 0f10 7abf 7ba0 85bf
00000390: 5a96 803e 22f2 23be ee5d 4f3e 13ad d2bf
000003a0: 6e87 39bc d059 6f3f c5a1 8bbf 3538 a3bf
000003b0: e3b0 20be 0473 67bf 3f86 f2bf 1b8a 263f
000003c0: f780 2940 1b8d 25be 6a4f 803f d30c 0e40
000003d0: 1641 5e3f ba31 0e40 5edb afbd 3edc 5f3f
000003e0: b5ef d83d e65c a13f 3496 54bf ea68 21bf
000003f0: e598 f7be a6bd 5fbd c601 06c0 5dc0 6cbf

bias f4 [252]
11.034307 13.349326 10.51756 11.356142 8.539605 11.061748 2.338323 14.763044
14.245852 7.86634 2.481241 9.346382 11.138428 -0.14931586 4.859769 7.5333633
5.094043 2.306505 12.18082 -2.0466108 12.137693 -2.2229483 2.6977026 14.686332
1.5310948 11.795407 14.703261 12.745032 12.992338 1.2634735 3.662336 12.098619
9.145462 1.7383384 10.563277 14.82288 7.767831 -4.0058103 10.599617 -5.991375
13.85259 -9.709732 -6.441526 10.008205 5.0886817 5.5817 2.750064 9.714026
3.7774937 0.72107244 8.309866 8.529524 10.944672 9.271714 17.058384 -0.76275754
-5.7034087 10.656252 13.3386135 2.0194461 9.528828 4.9293575 11.352828 10.732052
12.424101 1.3962066 5.5246825 -8.3797245 13.555005 16.128345 7.944188 -4.117424
17.561552 11.998413 2.6880457 -1.0275626 9.95871 -9.575448 5.2534986 15.167405
-8.051318 -10.435972 13.014551 -10.885747 8.507502 13.905514 7.7586627 -4.865886
14.490724 10.521236 2.5615747 8.213344 8.6874895 9.321765 6.1148825 4.7442837
16.434069 -0.1532526 2.5545106 12.056213 14.762452 0.5191945 9.584514 4.1862025
4.376691 14.464655 15.415078 12.476171 11.870943 -15.435611 3.9926758 3.9562855
9.088532 -11.203884 4.896925 13.567556 16.88031 5.470796 11.420065 2.8659155
4.465763 16.025324 0.6405034 7.9823804 -2.0470002 12.537047 10.086472 9.03893
-3.081264 -14.991381 2.3800974 11.404107 6.6425495 -13.926279 6.259551 13.786699
5.156674 9.442235 3.5988653 5.9812107 4.623889 0.4480611 4.3289824 9.502839
7.8372526 1.5277337 14.232852 6.430765 1.3454541 -13.611631 1.622693 -6.244685
2.344035 3.6271193 2.580038 5.452338 11.846943 5.466105 14.688513 7.1546135
15.144368 17.266914 -11.866541 -0.004208605 5.955571 7.0072575 11.415111 11.292474
12.702814 11.3434305 8.770037 12.491309 13.689176 3.1186728 4.880888 9.388441
4.3491936 7.120329 11.05333 8.548656 14.430362 -9.594129 -9.338953 6.5848227
-0.29162225 19.514479 -11.182119 9.159706 10.3989935 -5.466028 -9.057075 10.200028
0.26935765 -11.751409 -10.316143 8.911927 -13.245963 11.330286 13.14617 15.134054
4.222936 0.7537796 12.310633 12.302584 13.080134 12.93739 6.1146064 4.9887886
12.047743 6.0880013 12.98931 -9.827019 12.42482 5.243769 11.763879 7.846942
11.309483 6.8263435 -10.412667 12.95506 9.159924 -10.258228 7.1492605 4.4389257
6.1939282 -8.568114 14.946968 18.702122 0.8819502 10.17527 10.095514 -11.696886
4.1404963 4.497761 18.077927 5.876352 15.704332 8.980875 5.49432 5.362008
9.795615 11.352736 7.2692347 11.0407095 5.481693 8.763005 4.137587 10.733617
10.312719 11.667618 11.214604 3.385488
00000000: 858c 3041 d796 5541 ed47 2841 c2b2 3541
00000010: 39a2 0841 ebfc 3041 16a7 1540 6e35 6c41
00000020: 03ef 6341 0fb9 fb40 a7cc 1e40 c88a 1541
00000030: 0037 3241 42e6 18be 3a83 9b40 5011 f140
00000040: 6602 a340 c79d 1340 a4e4 4241 acfb 02c0
00000050: fe33 4241 c944 0ec0 29a7 2c40 37fb 6a41
00000060: eafa c33f fdb9 3c41 8f40 6b41 a7eb 4b41
00000070: 9ee0 4f41 80b9 a13f b763 6a40 f293 4141
00000080: d053 1241 df81 de3f 2f03 2941 842a 6d41
00000090: 1292 f840 992f 80c0 0898 2941 58b9 bfc0
000000a0: 35a4 5d41 105b 1bc1 fb20 cec0 9c21 2041
000000b0: 7bd6 a240 499d b240 0c01 3040 a76c 1b41
000000c0: 75c2 7140 3498 383f 36f5 0441 ee78 0841
000000d0: 601d 2f41 f158 1441 9277 8841 1444 43bf
000000e0: 5382 b6c0 0280 2a41 f66a 5541 9b3e 0140
000000f0: 1476 1841 4cbd 9d40 2fa5 3541 7cb6 2b41
00000100: 1ec9 4641 e6b6 b23f 33ca b040 5a13 06c1
00000110: 4de1 5841 da06 8141 ca36 fe40 f0c1 83c0
00000120: 0f7e 8c41 80f9 3f41 f108 2c40 2c87 83bf
00000130: e056 1f41 0935 19c1 a91c a840 b1ad 7241
00000140: 33d2 00c1 bef9 26c1 9a3b 5041 052c 2ec1
00000150: ba1e 0841 fc7c 5e41 f746 f840 57b5 9bc0
00000160: 01da 6741 fc56 2841 d7f0 2340 db69 0341
00000170: f5ff 0a41 f325 1541 1ead c340 2cd1 9740
00000180: f978 8341 40ee 1cbe 1a7d 2340 40e6 4041
00000190: 0133 6c41 eee9 043f 2b5a 1941 5ff5 8540
000001a0: da0d 8c40 3a6f 6741 29a4 7641 659e 4741
000001b0: 62ef 3d41 43f8 76c1 0088 7f40 c833 7d40
000001c0: a16a 1141 1c43 33c1 9cb3 9c40 b614 5941
000001d0: e00a 8741 c310 af40 96b8 3641 296b 3740
000001e0: 88e7 8e40 dd33 8041 08f8 233f a96f ff40
000001f0: 0d02 03c0 bf97 4841 3062 2141 759f 1041
00000200: 6e33 45c0 b2dc 6fc1 8453 1840 3977 3641
00000210: c48f d440 0ad2 5ec1 3e4e c840 5296 5c41
00000220: 7903 a540 6513 1741 cf53 6640 1466 bf40
00000230: e6f6 9340 4468 e53e 0687 8a40 a10b 1841
00000240: c6ca fa40 c78c c33f c3b9 6341 d4c8 cd40
00000250: d737 ac3f 3ec9 59c1 67b4 cf3f 76d4 c7c0
00000260: ab04 1640 b922 6840 581f 2540 8e79 ae40
00000270: 148d 3d41 55ea ae40 2604 6b41 98f2 e440
00000280: 554f 7241 a422 8a41 5add 3dc1 56e8 89bb
00000290: 0a94 be40 743b e040 4ba4 3641 f9ad 3441
000002a0: ba3e 4b41 b17e 3541 1252 0c41 67dc 4741
000002b0: dd06 5b41 5698 4740 3c30 9c40 0e37 1641
000002c0: 982c 8b40 bcd9 e340 71da 3041 4cc7 0841
000002d0: c3e2 6641 8d81 19c1 5a6c 15c1 deb6 d240
000002e0: 834f 95be a71d 9c41 f6e9 32c1 288e 1241
000002f0: 4762 2641 b4e9 aec0 c7e9 10c1 5133 2341
00000300: 3fe9 893e c505 3cc1 ec0e 25c1 4197 0e41
00000310: 77ef 53c1 da48 3541 b656 5241 1625 7241
00000320: 4b22 8740 b3f7 403f 5af8 4441 62d7 4441
00000330: 3b48 5141 8dff 4e41 dbaa c340 28a4 9f40
00000340: 8ec3 4041 e8d0 c240 37d4 4f41 783b 1dc1
00000350: 10cc 4641 f5cc a740 d938 3c41 261a fb40
00000360: a4f3 3441 6871 da40 499a 26c1 ed47 4f41
00000370: 0c8f 1241 b421 24c1 bec6 e440 ae0b 8e40
00000380: a934 c640 ff16 09c1 c826 6f41 f29d 9541
00000390: 7dc7 613f e8cd 2241 3a87 2141 7226 3bc1
000003a0: f27e 8440 a8ed 8f40 989f 9041 130b bc40
000003b0: f244 7b41 aab1 0f41 78d1 af40 9295 ab40
000003c0: d7ba 1c41 cfa4 3541 929d e840 bfa6 3041
000003d0: 076a af40 4535 0c41 1d67 8440 e5bc 2b41
000003e0: e600 2541 90ae 3a41 056f 3341 d6ab 5840
