public_models/Dnn3Layers/100.pth (torch_old, 616467 bytes, 14 tensors)

weight f4 [252, 252]
0	0xc09ec80e	-4.9619207
1	0x40ee13fe	7.4399405
2	0xc0043a83	-2.0660713
3	0x40c5f4e0	6.186142
4	0x4158f6a9	13.56022
5	0x3f8d133f	1.1021498
6	0xbf60a633	-0.877536
7	0x418ddcfe	17.732906
8	0x40c4b1f3	6.1467223
9	0xbf373409	-0.71563774
10	0xbf9b8bea	-1.2152073
11	0x3f4e5e87	0.8061299
12	0xc018dff1	-2.3886683
13	0x3f0f4c85	0.55976135
14	0x40bbfd42	5.8746653
15	0xc0b38929	-5.610493
16	0xc05aafbb	-3.4169757
17	0xbfce21ff	-1.6104125
18	0x413f4a84	11.955692
19	0xc11b37b8	-9.701103
20	0xbf9df0ea	-1.2339146
21	0xbf997ea9	-1.1991779
22	0xbf487a86	-0.78311956
23	0xbe1005cc	-0.14064711
24	0xc003c734	-2.0590334
25	0x41064957	8.392905
26	0xbe5ec873	-0.21756153
27	0xc0e9c482	-7.305238
28	0xc07a31bc	-3.9092855
29	0xbfaf23d0	-1.3682804
30	0x3f91de60	1.1395988
31	0xc00399e2	-2.0562673
32	0x3faa96f6	1.332732
33	0x3f526ddc	0.8219888
34	0x4080aa79	4.0208097
35	0xbf8fa220	-1.1221352
36	0xbf5719a4	-0.840235
37	0x3f12582d	0.57165796
38	0xbfe26168	-1.7685976
39	0x3fb1b7eb	1.3884252
40	0xbf8b6a5d	-1.0891834
41	0x409bf87f	4.874084
42	0x3fa56e42	1.2924273
43	0xc0434ca8	-3.0515537
44	0x3f7766ff	0.96641535
45	0x3e096ccb	0.13420407
46	0xbfc34a3c	-1.525703
47	0x3e833a6c	0.2563051
48	0x3ee3368e	0.4437756
49	0xbd22a165	-0.0397047
50	0xbcfebe55	-0.031096617
51	0x3ed43ad9	0.41451147
52	0xbf8b659e	-1.0890386
53	0x3f29204e	0.6606492
54	0xbeb3b2e9	-0.35097435
55	0xbf9990ad	-1.1997277
56	0x3ef8d1e8	0.48597646
57	0xbf280b2d	-0.6564205
58	0x3ea01ffa	0.31274396
59	0x3f6d9945	0.92811996
60	0xbf587c62	-0.84564793
61	0x3f8b1299	1.086505
62	0xc0c72cb7	-6.2242084
63	0xc1676124	-14.461216
64	0xc043f23d	-3.06166
65	0x409e642f	4.9497294
66	0xc042a5aa	-3.0413613
67	0x3fffae4b	1.9975065
68	0x3f0e501f	0.55591005
69	0xbeafaf78	-0.3431356
70	0x3f2aba6e	0.6669072
71	0x3ee5e806	0.44903582
72	0x3e979207	0.29603598
73	0xbcbcc078	-0.023040995
74	0x3fd6e5cb	1.6788877
75	0xbf522ea5	-0.82102424
76	0xbf80d5c9	-1.0065242
77	0x3f895068	1.0727663
78	0xbed392be	-0.41322893
79	0xbd097c47	-0.033565786
80	0x3f9df816	1.2341335
81	0xbf2a50ac	-0.66529346
82	0x3fa0ba58	1.2556868
83	0xbd240a34	-0.040048793
84	0x3df6aab2	0.12044276
85	0xbe0ad886	-0.1355916
86	0x3e52bf47	0.20580779
87	0xbdd56086	-0.10418801
88	0xbf574981	-0.84096533
89	0x3f419733	0.75621337
90	0xbe9f87f4	-0.31158412
91	0x3ddb1ee8	0.10699254
92	0x3e659054	0.22418338
93	0x3d503bb5	0.05083819
94	0xbe3175f5	-0.17330153
95	0xbec14a3e	-0.37751955
96	0x3f03092a	0.5118586
97	0xbf7c85db	-0.9864175
98	0x3ea92a51	0.33040097
99	0x3f7a89f3	0.97866744
100	0xbffc7309	-1.9722606
101	0xbe82c5af	-0.25541446
102	0x3f048022	0.51758015
103	0xbe632cec	-0.22185105
104	0x3ef38e02	0.4756928
105	0x3e7e00b7	0.2480496
106	0x3f9ad8ac	1.2097373
107	0xbec12a31	-0.37727502
108	0x3ea88cbf	0.3291988
109	0x3ccc0393	0.024904048
110	0x3d67ca66	0.056589507
111	0x3fc6e745	1.5539328
112	0xbf9beced	-1.2181679
113	0x3ebf9c7e	0.37424082
114	0x3dcd54b4	0.100259215
115	0xbf2265be	-0.63436496
116	0x3fd89e36	1.6923282
117	0xbf91c73d	-1.1388928
118	0xbe83da1b	-0.2575234
119	0x3dee2ac3	0.1162925
120	0x3eea9359	0.45815542
121	0xbf124be2	-0.5714704
122	0xbf0b1782	-0.54332745
123	0x3f4bb4e5	0.795729
124	0xbe30ef3f	-0.17278765
125	0x3f27d652	0.655614
126	0x3eba1670	0.36345243
127	0xbe66bf31	-0.22533871
128	0x400cd7fe	2.200683
129	0xbf4bc794	-0.7960141
130	0x3ebef213	0.37294063
131	0x3f8118e8	1.0085726
132	0x3daa3ffb	0.083129846
133	0xbf256944	-0.6461375
134	0xbc874b35	-0.016515354
135	0x3e2fdbbf	0.1717367
136	0xbee46210	-0.44606066
137	0xbe8600b7	-0.2617242
138	0xbe4043dc	-0.18775886
139	0x3edd791c	0.43256462
140	0x3e0de5ea	0.13857237
141	0xbdfc73c8	-0.12326771
142	0x3ee78643	0.4521962
143	0xbda74a4e	-0.08168469
144	0x3fd39a0b	1.6531385
145	0x3f35a9d5	0.7096227
146	0xbebdd953	-0.37079868
147	0x3f6f55d9	0.9349037
148	0x3daac8fd	0.08339117
149	0xbf0a98d6	-0.5413946
150	0x3f76a1dc	0.9634073
151	0xbf59e977	-0.85121864
152	0xbf591b2b	-0.8480708
153	0x3fbdb47d	1.4820706
154	0xbfd7eec9	-1.6869746
155	0xbf9386ea	-1.1525548
156	0xbf4f1b7a	-0.809013
157	0x3ff07900	1.8786926
158	0xbf8d8663	-1.1056637
159	0x3f2ab2f6	0.6667932
160	0x3eaf1ec0	0.34203148
161	0x3f33a97e	0.701805
162	0x3f3e3689	0.74301964
163	0xc01d707c	-2.4599905
164	0xbf205b1a	-0.6263901
165	0x3fa622a9	1.2979327
166	0xbf7dc2b9	-0.9912525
167	0x402f1dfe	2.7362056
168	0xbfaa7296	-1.3316219
169	0x3f3ac2f8	0.7295375
170	0xc000508f	-2.004917
171	0xbfc58a21	-1.5432779
172	0x40232b81	2.5495303
173	0xbf20ac02	-0.62762463
174	0x3f656ecc	0.8962219
175	0x3f84e357	1.0381879
176	0x3f5d7d15	0.86518985
177	0xbf96a838	-1.1770086
178	0x3f4076f4	0.7518151
179	0x3dfe62f7	0.1242122
180	0x3efa1118	0.48841166
181	0xbea80dbb	-0.32822976
182	0x3fa404f3	1.281401
183	0xbf3c9de8	-0.73678446
184	0x3f7e100a	0.99243224
185	0x400b3749	2.1752493
186	0x3e9d88c8	0.30768418
187	0x3fac334e	1.3453157
188	0xc11490ca	-9.285349
189	0xc081ce9c	-4.056471
190	0x3f7ee1d0	0.9956331
191	0x40b74e1d	5.7282853
192	0xc04d11ed	-3.204219
193	0x4037af8e	2.87009
194	0x406b28cc	3.674365
195	0xc01bf6b2	-2.436932
196	0x40763771	3.8471339
197	0xc138f18a	-11.5589695
198	0xc15d04bd	-13.813657
199	0x40e5ac87	7.1773105
200	0xbf15c63e	-0.5850562
201	0x3fb24fbd	1.3930584
202	0x3f451b0c	0.76994395
203	0x40043cdc	2.0662146
204	0xc0609075	-3.508817
205	0xbfe4c52f	-1.7872676
206	0x4161f99b	14.123439
207	0xc0db284c	-6.848669
208	0xbf33c971	-0.7022925
209	0x404d4f66	3.207971
210	0xc01fc088	-2.4961262
211	0x407eb11a	3.9795594
212	0x40c4ff1e	6.156142
213	0xc0c2e4cc	-6.0904293
214	0xc0b1be98	-5.554516
215	0x4067feac	3.624919
216	0x3f480e8b	0.7814719
217	0x3f3b8c9a	0.73261416
218	0xc0d86e79	-6.7634854
219	0x3fffe15d	1.999065
220	0xbee4fa4c	-0.4472221
221	0xc08aef58	-4.341717
222	0x3f81c074	1.0136857
223	0x407c9eec	3.9471998
224	0x41e15b88	28.169693
225	0xc1837f8c	-16.437279
226	0xc1d35617	-26.417036
227	0x4071cdc3	3.7781837
228	0x41422b0d	12.13551
229	0xc1161004	-9.37891
230	0x418c0925	17.504465
231	0x40dbed94	6.872751
232	0xc058061f	-3.3753736
233	0x4074e615	3.826543
234	0xc26f15ab	-59.77116
235	0xc2160818	-37.507904
236	0x412d5efa	10.835688
237	0xc09a9411	-4.8305745
238	0x40e20f3e	7.0643606
239	0x3feaa0ce	1.8330324
240	0xc046698d	-3.1001923
241	0x4105dc21	8.366242
242	0xc189484a	-17.160297
243	0xc1837119	-16.430223
244	0x40d34960	6.602707
245	0x412e93d7	10.911094
246	0x4085a199	4.1759763
247	0xc0e74814	-7.2275486
248	0x40b297fa	5.581052
249	0x3fa1e92d	1.2649285
250	0xc1689110	-14.535416
251	0xc187787f	-16.933836
252	0x40c52408	6.1606483
253	0xc102912a	-8.16044
254	0x40d6ca4a	6.7121935
255	0x40ab09c3	5.3449416

bias f4 [252]
0	0x4230c5d5	44.193195
1	0xc2bdf00f	-94.968864
2	0xc3d89156	-433.13544
3	0xc37c8ec4	-252.55768
4	0xc39d9158	-315.1355
5	0xc3312979	-177.162
6	0xc319e0cd	-153.87813
7	0xc3e52291	-458.27005
8	0xc3a2781c	-324.93835
9	0xc2b587e8	-90.76544
10	0xc383b05c	-263.3778
11	0xc29a648b	-77.19637
12	0xc3ead8b8	-469.6931
13	0xc3c234d1	-388.41263
14	0xc34032f3	-192.19902
15	0xc3a9c447	-339.53342
16	0xc3b39cfe	-359.2265
17	0xc3016732	-129.4031
18	0xc38b97c4	-279.18567
19	0xc37104e3	-241.01909
20	0xc2ea2e8f	-117.090935
21	0xc3be28b7	-380.31808
22	0xc2d51ad6	-106.552414
23	0xc375bad0	-245.72974
24	0xc356af96	-214.68588
25	0xc3b2d13e	-357.6347
26	0xc3c2a0fd	-389.25772
27	0xc32bfe70	-171.9939
28	0xc3bc0612	-376.04742
29	0xc4037348	-525.8013
30	0xc3d0f130	-417.88428
31	0xc27c9dd6	-63.154137
32	0xc2d15c13	-104.67983
33	0xc3ed046b	-474.03452
34	0xc3c832fe	-400.39838
35	0xc2bf829c	-95.7551
36	0xc3a63e59	-332.4871
37	0xc34697f0	-198.5935
38	0xc3804735	-256.5563
39	0xc32814b2	-168.08084
40	0xc3a5e4fc	-331.78894
41	0xc344937a	-196.57608
42	0xc31df192	-157.94363
43	0xc3a363f1	-326.7808
44	0xc34dc636	-205.77426
45	0xc1d8a7f7	-27.082014
46	0xc3afc883	-351.5665
47	0xc3e6d875	-461.69107
48	0xc3a02a4e	-320.3305
49	0xc34acabb	-202.79192
50	0xc3c2ac1f	-389.3447
51	0xc3d65d0f	-428.72702
52	0xc276b73a	-61.678932
53	0xc335c846	-181.78232
54	0xc3d1b6a0	-419.42676
55	0xc336e743	-182.90337
56	0xc337bcea	-183.73795
57	0xc3bd662b	-378.7982
58	0xc3be7919	-380.94608
59	0xc34c9a98	-204.60388
60	0xc31051f8	-144.32019
61	0xc3c31e35	-390.236
62	0xc30a2c22	-138.1724
63	0xc3eae440	-469.7832
64	0xc35d97a2	-221.59232
65	0xc3a933d2	-338.40485
66	0xc35958e2	-217.3472
67	0xc2eb9215	-117.78532
68	0xc3478e6f	-199.55638
69	0xc3b489b2	-361.07574
70	0xc3f0b616	-481.42255
71	0xc2ae4d20	-87.150635
72	0xc2f5af7c	-122.84274
73	0xc3c81834	-400.1891
74	0xc326d6ee	-166.83957
75	0xc3189c9b	-152.61174
76	0xc31631a6	-150.19394
77	0xc395a26a	-299.26886
78	0xc3f4b2d2	-489.39703
79	0xc3be0794	-380.0592
80	0xc33b86d8	-187.52673
81	0xc403cd50	-527.208
82	0xc3809bbf	-257.21677
83	0xc306a054	-134.62628
84	0xc368a2fa	-232.63663
85	0xc2dd7a1d	-110.7385
86	0xc3bd62c5	-378.77164
87	0xc2f48bf4	-122.273346
88	0xc401f261	-519.7872
89	0xc35fdbe1	-223.8589
90	0xc300c4c3	-128.7686
91	0xc399fd20	-307.97754
92	0xc3366e45	-182.43074
93	0xc3594ca7	-217.29942
94	0xc3fea6e8	-509.30396
95	0xc2220339	-40.503147
96	0xc3fb775b	-502.93246
97	0xc2a122bd	-80.56785
98	0xc2dd4540	-110.635254
99	0xc35a5418	-218.32849
100	0xc2f47311	-122.22474
101	0xc3aadd39	-341.7283
102	0xc35af8bf	-218.97166
103	0xc33e63c5	-190.38972
104	0xc353dfd9	-211.8744
105	0xc3d56d91	-426.856
106	0xc40a57dc	-553.3728
107	0xc35f8489	-223.51772
108	0xc36fbf1e	-239.74655
109	0xc2e7d64b	-115.91854
110	0x424713c2	49.769295
111	0xc3af8c64	-351.0968
112	0xc3155e11	-149.36745
113	0xc389dba9	-275.7161
114	0xc35148a5	-209.28377
115	0xc35fed71	-223.9275
116	0xc2f3dc1b	-121.92989
117	0xc244df92	-49.21833
118	0xc33f98cb	-191.59685
119	0xc3eb40f8	-470.50757
120	0xc30a97f2	-138.59354
121	0xc341add6	-193.67905
122	0xc3c97550	-402.9165
123	0xc3e28093	-453.0045
124	0xc3c1440d	-386.53165
125	0xc2d49ee5	-106.31034
126	0xc35294f5	-210.58186
127	0xc3b27067	-356.87814
128	0xc3719b28	-241.60608
129	0xc2e05612	-112.168106
130	0xc2a4faec	-82.49008
131	0xc304d15c	-132.81781
132	0xc24460b3	-49.094433
133	0xc38405c5	-264.04507
134	0xc38f83d8	-287.03003
135	0xc3871ade	-270.2099
136	0xc39543c6	-298.52948
137	0xc3cc579e	-408.6845
138	0xc215d6ce	-37.45977
139	0xc35154d8	-209.33142
140	0xc3a8ccb9	-337.5994
141	0xc315974c	-149.591
142	0xc30b1144	-139.06744
143	0xc3c739df	-398.45212
144	0xc2bca9cb	-94.33163
145	0xc328ba9c	-168.72894
146	0xc3898c55	-275.09634
147	0x4205ccc1	33.449955
148	0xc2dbf133	-109.97109
149	0xc2e5433f	-114.63134
150	0xc37f5eda	-255.37051
151	0xc3220162	-162.0054
152	0xc296290f	-75.08019
153	0xc32046e1	-160.27687
154	0xc2beee88	-95.46588
155	0xc33283a7	-178.51427
156	0xc345de3c	-197.8681
157	0xc39a5de4	-308.73352
158	0xc3ca6aac	-404.83337
159	0xc2ec3d43	-118.11965
160	0xc2d8101a	-108.03145
161	0xc35543ac	-213.26434
162	0xc3778b9d	-247.54536
163	0xc37085a6	-240.52206
164	0xc33840a6	-184.25253
165	0xc33be817	-187.9066
166	0xc26789a5	-57.88442
167	0xc31f5b8e	-159.35764
168	0xc32c8e1b	-172.5551
169	0xc348c134	-200.7547
170	0xc3777d2e	-247.48898
171	0xc34dbb7c	-205.73236
172	0xc35ad6d9	-218.83925
173	0xc3f1b86c	-483.4408
174	0xc3abbb3d	-343.4628
175	0xc2d2f038	-105.46918
176	0xc3b2f623	-357.92294
177	0xc36343d8	-227.26501
178	0xc285818c	-66.75302
179	0xc312809e	-146.50241
180	0xc35f4d82	-223.30276
181	0xc399ffc3	-307.99814
182	0xc307ef7b	-135.93547
183	0xc31a76e4	-154.46442
184	0xc3346832	-180.40701
185	0xc3b0796b	-352.94858
186	0xc3a2864d	-325.04922
187	0xc2cdaa4a	-102.832596
188	0xc26f9740	-59.897705
189	0xc400c69d	-515.10333
190	0xc3b5b9d1	-363.4517
191	0xc257709f	-53.85998
192	0xc3309296	-176.5726
193	0xc3e0fb04	-449.96106
194	0xc407f24f	-543.7861
195	0xc3399638	-185.58679
196	0xc33f7a73	-191.47832
197	0xc31829d8	-152.16345
198	0xc31c58e3	-156.34721
199	0xc4089f81	-546.49225
200	0xc3dd8e42	-443.1114
201	0xc31d0eaf	-157.05736
202	0xc2e78bce	-115.773056
203	0xc4051c45	-532.4417
204	0xc387bb1d	-271.46182
205	0xc2ee9489	-119.29011
206	0xc2b8cb78	-92.3974
207	0xc3e55fe3	-458.7491
208	0xc2ba4b60	-93.14722
209	0xc20d3e10	-35.310608
210	0xc34ed78d	-206.842
211	0xc39d291b	-314.32114
212	0xc31fd31d	-159.82466
213	0xc368c32c	-232.76239
214	0xc1b6a1b2	-22.828953
215	0xc382075a	-260.05743
216	0xc36c0c13	-236.04716
217	0xc39fbfc5	-319.4982
218	0xc386fe3b	-269.98618
219	0xc38dac63	-283.34677
220	0xc32f3dde	-175.24167
221	0xc2dcd626	-110.41826
222	0xc31b9c6d	-155.61104
223	0xc3c53fbe	-394.498
224	0xc3a0d90a	-321.69562
225	0xc4054807	-533.1254
226	0xc2697f52	-58.374336
227	0xc3d734f5	-430.41373
228	0xc3338bd9	-179.54628
229	0xc3b16a29	-354.82938
230	0xc3803318	-256.39917
231	0xc2fec8c1	-127.3921
232	0xc2c69e91	-99.3097
233	0xc3adec88	-347.8479
234	0xc38bbc61	-279.4717
235	0xc31b702f	-155.43822
236	0xc3faa8d7	-501.31906
237	0xc30266f0	-130.4021
238	0xc00482c2	-2.0704808
239	0xc13cac98	-11.792137
240	0xc2a1c6d4	-80.888336
241	0xc3aa3ac4	-340.4591
242	0xc33adb78	-186.8573
243	0xc2865f4e	-67.18614
244	0xc3eace75	-469.61295
245	0xc32779ed	-167.47627
246	0xc3811e30	-258.23584
247	0xc3724a38	-242.28992
248	0xc3f2a25a	-485.26837
249	0xc33a162f	-186.08665
250	0xc2ececb3	-118.4623
251	0x4057fd24	3.3748255

weight f4 [252]
0	0x3fc34d42	1.5257952
1	0x3fbcaa97	1.473956
2	0x3fd52cec	1.6654334
3	0x3fce33a7	1.6109513
4	0x3fe74aca	1.8069699
5	0x3fe99379	1.824813
6	0x3fc641e2	1.5488856
7	0x4000eb14	2.014348
8	0x3ffca6e6	1.9738433
9	0x3fcd916b	1.6060003
10	0x3ff8da1b	1.944156
11	0x3fd96449	1.698373
12	0x3feb58c7	1.8386468
13	0x3fee4b34	1.86167
14	0x3fd1ac51	1.6380712
15	0x3fe32c8e	1.7747972
16	0x4000973d	2.0092309
17	0x3fb61b55	1.4227091
18	0x3fc4416c	1.5332465
19	0x3fe96b01	1.823578
20	0x3fb1b40a	1.3883069
21	0x3fc76b95	1.5579706
22	0x3fcb21b7	1.5869664
23	0x3fcac048	1.583993
24	0x3fce0660	1.6095695
25	0x3fe4150f	1.7818927
26	0x3ff67d50	1.9256992
27	0x3fcd0f17	1.602023
28	0x4002c644	2.0433512
29	0x3ff32337	1.8995122
30	0x40123596	2.2845206
31	0x3fddd41e	1.7330358
32	0x3fa9b665	1.3258787
33	0x3fe9bf03	1.8261417
34	0x400540c4	2.082078
35	0x3fafc4d2	1.373194
36	0x3fe5a11d	1.7939793
37	0x40038475	2.0549595
38	0x3fec2a1a	1.8450348
39	0x3fdd7ee7	1.7304353
40	0x3fe55e72	1.7919447
41	0x3fcd6ab3	1.6048187
42	0x3fcd6401	1.6046144
43	0x3fe70206	1.8047493
44	0x4003be50	2.0584908
45	0x3fe9431c	1.8223605
46	0x3ff2a9c6	1.8958061
47	0x3fff0c05	1.9925543
48	0x3fc3d2a3	1.5298656
49	0x3fba1343	1.4537128
50	0x3fc9b350	1.5757847
51	0x3ff1b103	1.8882145
52	0x3fb42d74	1.4076371
53	0x4002e4ba	2.0452104
54	0x3ff536c2	1.9157336
55	0x3fc9585d	1.5730091
56	0x3fbccdeb	1.4750341
57	0x3fefaa69	1.872388
58	0x3ffbaa75	1.9661394
59	0x3fdd6efd	1.7299496
60	0x3fcfe1d9	1.6240798
61	0x40496d86	3.1473098
62	0x3fc8128b	1.5630659
63	0x40054b2a	2.0827127
64	0x3ff0d1d6	1.8814037
65	0x3fcc1390	1.594347
66	0x3ff17aac	1.8865561
67	0x3fbee050	1.4912205
68	0x3fd4fba0	1.663929
69	0x3fe0f2ee	1.7574136
70	0x3fd0ef2f	1.6322993
71	0x4021bef6	2.5272803
72	0x3fcae826	1.5852096
73	0x3fefe911	1.8743001
74	0x3fc08659	1.5041
75	0x3fc8e6ec	1.5695472
76	0x3fd505ef	1.6642436
77	0x3fc4a639	1.5363227
78	0x3fac93b0	1.3482571
79	0x3fe66531	1.7999631
80	0x3fee987c	1.8640285
81	0x4021353e	2.5188746
82	0x3fad6584	1.3546605
83	0x3fc977ad	1.5739647
84	0x3fd7634a	1.6827176
85	0x3ffa82d1	1.9571172
86	0x3ffed9ec	1.9910254
87	0x3ffe5ea8	1.9872637
88	0x3fc3113d	1.5239636
89	0x3fd3966b	1.6530279
90	0x3fe88300	1.8164978
91	0x3fe8a6ac	1.8175864
92	0x3fe3f529	1.7809192
93	0x3fc2f9d8	1.5232496
94	0x40028d3a	2.0398698
95	0x3fdc94d8	1.7232924
96	0x40079fe0	2.119133
97	0x3fcbbc2c	1.59168
98	0x3fc5ff93	1.546862
99	0x3fd27a11	1.6443502
100	0x3fb1312a	1.3843129
101	0x3fcf046f	1.6173228
102	0x3fd6dedf	1.6786765
103	0x3fdede7a	1.7411644
104	0x3fc98551	1.574381
105	0x3fc97b23	1.5740703
106	0x3fdd6f20	1.7299538
107	0x3fd239bb	1.6423868
108	0x3fd2547d	1.6432034
109	0x3fde8879	1.7385398
110	0x3fb8c879	1.4436179
111	0x3fbd2f1f	1.4780005
112	0x3fd76490	1.6827564
113	0x3fc31edf	1.5243796
114	0x3fc50670	1.539259
115	0x3fdfe235	1.7490908
116	0x3fb98707	1.4494332
117	0x3fb98764	1.4494443
118	0x3fdcb854	1.7243752
119	0x400d6604	2.2093515
120	0x3fbf4909	1.4944164
121	0x3fcd55b1	1.6041776
122	0x4003df84	2.0605173
123	0x3ffc91f5	1.9732043
124	0x4007ac5a	2.1198945
125	0x3fed0524	1.8517194
126	0x3fd64a32	1.6741393
127	0x3fd45932	1.658972
128	0x3fd690bd	1.6762921
129	0x3fc1eb22	1.5149882
130	0x3fed5521	1.8541604
131	0x3fe1b0e7	1.7632111
132	0x3fdaf651	1.710642
133	0x3fd54a63	1.6663326
134	0x3fe20995	1.7659174
135	0x3fc70158	1.5547285
136	0x3fd65eb0	1.6747646
137	0x3fbdd28c	1.4829879
138	0x3fab150d	1.3365799
139	0x401be6a2	2.4359517
140	0x3ff0d9bb	1.8816446
141	0x400bf725	2.1869595
142	0x3fd537f1	1.6657697
143	0x3fff4f41	1.9946061
144	0x3fdc5f86	1.7216651
145	0x3fc383b3	1.5274566
146	0x3fcd6c89	1.6048747
147	0x3fc556bf	1.5417098
148	0x3fd617db	1.672603
149	0x3fcd5f56	1.6044719
150	0x3fcab1b1	1.5835477
151	0x3fdc4dba	1.721122
152	0x3fd46ecf	1.6596316
153	0x3fae6f2f	1.362768
154	0x3fdccc77	1.7249898
155	0x3fd72d1d	1.6810642
156	0x3fc78331	1.5586911
157	0x3fd3fb95	1.6561152
158	0x3fdd4468	1.7286501
159	0x3fc6e876	1.5539691
160	0x3fcf290e	1.6184404
161	0x3fd4b45c	1.6617541
162	0x3fd2cd7e	1.6468961
163	0x3fd9ebb1	1.7025052
164	0x3fc68fa4	1.5512586
165	0x3fcf0381	1.6172944
166	0x3fc4fd2d	1.5389763
167	0x3ff2d653	1.8971657
168	0x3ff9d362	1.9517634
169	0x3fdc41f5	1.7207628
170	0x3fd7e143	1.686562
171	0x3fec767d	1.847366
172	0x3fcdb74e	1.6071565
173	0x3fef3bfd	1.8690182
174	0x3fe4726f	1.7847422
175	0x3fdaa6a0	1.70821
176	0x3fda9102	1.7075503
177	0x3feada86	1.8347938
178	0x40017ceb	2.0232494
179	0x3ffd7164	1.9800229
180	0x3fe5f316	1.7964809
181	0x3fcdabcc	1.6068053
182	0x3fc10ef3	1.5082687
183	0x3fc6fe1c	1.5546298
184	0x3fc40673	1.5314468
185	0x3fe25fa7	1.7685441
186	0x3fd29726	1.6452377
187	0x3fd83874	1.6892228
188	0x3fc05717	1.5026578
189	0x3fd563d5	1.6671091
190	0x3fd24f23	1.6430401
191	0x3fc5f5b9	1.5465614
192	0x3fbd3d25	1.4784285
193	0x3ff99862	1.9499629
194	0x4035a00c	2.8378935
195	0x3fc5c0ec	1.54495
196	0xbfbc3576	-1.4703815
197	0x3fc22b7b	1.5169519
198	0x3fec0f2f	1.8442134
199	0x3fd75405	1.6822516
200	0x3fe4d491	1.787737
201	0x3fafdece	1.373987
202	0x3fcf68a5	1.620381
203	0x40005981	2.005463
204	0x3fb05550	1.3776035
205	0x3fc4ac2c	1.5365043
206	0x3fcc6f94	1.5971551
207	0x3fef5198	1.8696775
208	0x400ac616	2.1683402
209	0x3fb47bbb	1.410026
210	0x3fbfb288	1.4976358
211	0x3ffe3dd3	1.9862617
212	0x3fc34b5e	1.5257375
213	0x3fc32025	1.5244185
214	0x3feaabcd	1.833368
215	0x40064454	2.0979204
216	0x3fde070e	1.7345903
217	0x3fec84d4	1.8478036
218	0x3fce794f	1.613077
219	0x3fd7ff72	1.6874831
220	0x3ff0542d	1.8775688
221	0x3fd6e37f	1.6788176
222	0x3fd9b2a0	1.7007637
223	0x3fc7a2a0	1.5596504
224	0x3fcd04b7	1.6017064
225	0x40160f2b	2.3446758
226	0x3fc86e24	1.5658612
227	0x40338e2e	2.805553
228	0x3fd51289	1.6646281
229	0x3ff58bd8	1.9183302
230	0x3fed7755	1.8552042
231	0x40039655	2.0560505
232	0x3fbc453d	1.470863
233	0x4003743b	2.0539691
234	0x3fede6a5	1.8586012
235	0x3fb76aa9	1.4329425
236	0x3fe67925	1.800572
237	0x400d338a	2.2062707
238	0x3fd39ef1	1.653288
239	0x3fd745a4	1.6818128
240	0x3fcf42c3	1.6192249
241	0x3ff99b5e	1.9500539
242	0x3fefe2bc	1.8741069
243	0x3fc28c4c	1.5199065
244	0x3ffcc333	1.974707
245	0x3fcd4a7b	1.6038355
246	0x3fdd7049	1.7299892
247	0x3fed21ab	1.85259
248	0x3fe9eb71	1.8274976
249	0x3fe1a480	1.7628326
250	0x4006ecd2	2.1082044
251	0x3fd313cf	1.649042

bias f4 [252]
0	0x3db47e4f	0.08813154
1	0x3db7339e	0.08945392
2	0xbebb1de9	-0.36546257
3	0x3e1fea2b	0.15616672
4	0x3e46fe6b	0.1943299
5	0x3f25204c	0.64502406
6	0x3ea3cad1	0.31990674
7	0xbf87f751	-1.062235
8	0xbf71c771	-0.9444495
9	0xbe161438	-0.1465615
10	0x3f039929	0.5140558
11	0x3f1f755b	0.62288445
12	0xbf811e03	-1.0087284
13	0xbf82ecad	-1.0228478
14	0x3e622060	0.22082663
15	0x3f2bbb3c	0.6708257
16	0xbf34baf7	-0.70597786
17	0xbc9ef4cb	-0.019403836
18	0xbe6870bd	-0.22699256
19	0x3edaa49a	0.42703706
20	0xbe6a3af9	-0.22874059
21	0xbd848156	-0.06469981
22	0x3e619ad1	0.22031714
23	0x3ea72d3d	0.32651702
24	0x3e902827	0.28155634
25	0x3e4aa54f	0.19789623
26	0xbef34802	-0.47515875
27	0x3ec329bb	0.38117775
28	0xbf548346	-0.8301281
29	0xbf9db35c	-1.2320361
30	0xbf29e5e5	-0.66366416
31	0x3efcef04	0.49401104
32	0xbdae02fc	-0.08496663
33	0xbf251f6c	-0.6450107
34	0xbf944aee	-1.1585367
35	0x3d8ca266	0.068669125
36	0xbf388a44	-0.72085977
37	0x3f4c2814	0.79748654
38	0x3eaa5f69	0.33275917
39	0x3f12afa9	0.57299286
40	0x3e57b9f7	0.21067034
41	0x3ed18f60	0.409297
42	0x3e8f786e	0.28021568
43	0xbf06a096	-0.52588785
44	0x3f445dc2	0.76705563
45	0x3f089de9	0.5336595
46	0xbf5ab2f6	-0.8542932
47	0xbd1a1b4e	-0.037623696
48	0xbdaaf824	-0.0834811
49	0xbcca2244	-0.024674542
50	0xbeae918b	-0.34095415
51	0xbdaa8148	-0.0832544
52	0x3de774cd	0.11301575
53	0x3f65a440	0.8970375
54	0xbece26e0	-0.40264034
55	0x3e8fdfaf	0.28100345
56	0x3e9b4645	0.3032705
57	0xbf1cf776	-0.61315095
58	0xbf915edb	-1.1357073
59	0xbcf09958	-0.029369995
60	0x3e61b889	0.22043051
61	0x3f9a067d	1.203323
62	0x3ddb3840	0.10704088
63	0xbf71929c	-0.94364333
64	0x3f0f3121	0.5593434
65	0xbe21259b	-0.15737002
66	0x3f34169b	0.70346993
67	0x3e8baf49	0.2728217
68	0x3ec2a2d4	0.38014853
69	0x3edd4589	0.43217114
70	0xbd6b8579	-0.057500336
71	0x3f572c70	0.8405218
72	0x3e51f92f	0.20505212
73	0xbf74bfee	-0.9560536
74	0x3ead84f6	0.33890504
75	0x3d6e341f	0.058155175
76	0x3ec10092	0.37695748
77	0xbde25689	-0.110516615
78	0xbe5ad4d6	-0.21370253
79	0xbe7aa28b	-0.24476068
80	0x3f0ed893	0.55799216
81	0x3f4aa77f	0.7916183
82	0xbef35630	-0.47526693
83	0x3e92c5dd	0.28666583
84	0x3e9e0dbc	0.30869853
85	0x3f2fd14f	0.68678755
86	0xbdede210	-0.116153836
87	0x3f709a1d	0.9398516
88	0xbea69315	-0.3253409
89	0x3e28d2bb	0.16486637
90	0x3f32524b	0.6965682
91	0x3e6e43de	0.23268077
92	0x3efce245	0.4939138
93	0x3df39d02	0.11895181
94	0xbfa6c330	-1.3028316
95	0x3ef1e3b8	0.47244048
96	0xbfa3ab68	-1.2786684
97	0x3e79cbf2	0.24394205
98	0x3ea9a098	0.33130336
99	0xbc1d9787	-0.009618646
100	0xbe13879a	-0.14407197
101	0x3e24cfb9	0.16094865
102	0x3f126ead	0.5720013
103	0x3ef7d8d4	0.48407614
104	0x3e98e473	0.29861793
105	0xbdf98e71	-0.12185372
106	0x3cd15e44	0.025557645
107	0xbc5fe2e5	-0.013664936
108	0x3da11bd4	0.07866636
109	0x3ed91bf7	0.42404148
110	0x3d88acf3	0.066736124
111	0x3d894470	0.067025065
112	0x3ecfadb5	0.40562215
113	0x3b20ee4e	0.0024556103
114	0x3dd0e027	0.10199004
115	0x3e9034ab	0.28165182
116	0xbd59bccf	-0.053158578
117	0x3df93f31	0.12170256
118	0x3f061ee4	0.52390885
119	0xbf594150	-0.84865284
120	0x3e5520f8	0.20813358
121	0x3dc8d2fa	0.098058656
122	0xbf8190e9	-1.0122348
123	0xbf8c1de0	-1.0946617
124	0xbf0a1b07	-0.5394749
125	0x3ec766b6	0.3894555
126	0x3d791d20	0.06081879
127	0xbe37b687	-0.17940722
128	0x3e65931c	0.22419399
129	0x3ebebacc	0.3725189
130	0x3f11a953	0.56898993
131	0x3ed9f4a6	0.42569464
132	0x3e950546	0.29105586
133	0x3d0fe673	0.035131883
134	0xbdeac708	-0.114637434
135	0x3e03c79a	0.1286911
136	0x3e8aaf4b	0.27086863
137	0xbed45a58	-0.41475177
138	0xbc917d74	-0.017760016
139	0x3f5a294e	0.85219276
140	0x3f1bd2e6	0.6086868
141	0x3f7c3e2e	0.9853238
142	0x3ed5b864	0.4174224
143	0xbf55f5cf	-0.835782
144	0x3ebf13c5	0.3731977
145	0xbda237fa	-0.07920833
146	0x3e2b9bf3	0.16758709
147	0x3e8a7bff	0.27047727
148	0x3ebad60a	0.36491424
149	0x3ec72ddd	0.38902178
150	0x3e0c7bcf	0.13719104
151	0x3e3ae7d3	0.18252496
152	0x3ed08330	0.40725088
153	0x3ea33fcc	0.3188461
154	0x3e922456	0.28543347
155	0x3e29ce40	0.16582584
156	0x3da7c503	0.08191874
157	0x3ec3dcc9	0.38254383
158	0xbf31e968	-0.69496775
159	0x3e5c4f0f	0.21514533
160	0x3ea4e987	0.32209417
161	0xbcfe51a8	-0.031044796
162	0x3e8b0dec	0.2715906
163	0x3ed938bc	0.42426097
164	0x3e3ad258	0.18244302
165	0x3e361a34	0.17783433
166	0x3ecc261c	0.39872825
167	0x3f4be66c	0.7964847
168	0x3f319fc6	0.6938442
169	0x3e999ece	0.3000397
170	0x3e80b00f	0.25134322
171	0x3f0f3a85	0.5594867
172	0x3e1b8406	0.15187082
173	0x3e805258	0.25062823
174	0xbe982ddb	-0.29722485
175	0x3d079204	0.033098236
176	0xbf580e9e	-0.84397304
177	0x3e9c5821	0.30535987
178	0x3f82731c	1.0191379
179	0x3f2d816e	0.6777562
180	0x3eab3d55	0.3344523
181	0x3ea1d7f5	0.31610075
182	0x3f1ede47	0.6205792
183	0x3e033359	0.12812556
184	0x3e623d82	0.22093776
185	0x3cc37cfe	0.023863312
186	0x3ec7cdc0	0.39024162
187	0x3ec2ef36	0.38073128
188	0x3e108055	0.14111455
189	0xbc383bd3	-0.011244732
190	0xbc22a441	-0.0099268565
191	0x3ea52830	0.32257223
192	0x3e157ac3	0.14597611
193	0xbf901de9	-1.1259128
194	0x3f61baa8	0.8817544
195	0x3e9ed8d3	0.310248
196	0xbdca14fe	-0.09867285
197	0x3df4f4b2	0.119607344
198	0x3f0f4cb6	0.55976427
199	0x3d2a155f	0.041524287
200	0x3e2a431c	0.16627163
201	0x3db1ee31	0.086880095
202	0x3e74a69e	0.23891684
203	0xbfb0cde3	-1.3812832
204	0xbd6b55b6	-0.057454787
205	0xbe5de5ee	-0.21669742
206	0x3e11b132	0.14227751
207	0xbf61692a	-0.8805109
208	0x3f82f5bb	1.0231241
209	0x3d6203cc	0.055179402
210	0x3d9868eb	0.074418865
211	0x3f0f6bc2	0.560238
212	0x3d43ec26	0.04783263
213	0x3da77429	0.08176453
214	0x3f06a8dc	0.5260141
215	0x3f22b169	0.63551956
216	0x3edbe8b9	0.4295099
217	0xbf47dbb2	-0.78069603
218	0x3ef7d2da	0.48403054
219	0xbd43911c	-0.04774581
220	0x3f163687	0.5867695
221	0x3f122d35	0.5710023
222	0x3ef59321	0.47963813
223	0xbe12390c	-0.14279574
224	0xbdc2ef50	-0.095183015
225	0xbf838648	-1.0275354
226	0x3e9181fa	0.28419477
227	0x3f7bc3ee	0.9834584
228	0x3d37cdbb	0.044873934
229	0x3f015af8	0.5052943
230	0x3ea874a2	0.32901484
231	0x3f6654e5	0.8997329
232	0x3d938751	0.07203544
233	0xbf3df23f	-0.74197763
234	0x3ed74d3a	0.42051107
235	0x3e388dc3	0.18022828
236	0xbf6118b6	-0.8792833
237	0x3f83a1ed	1.0283791
238	0x3e99fa3d	0.3007373
239	0x3e3b1e24	0.18273216
240	0x3e437282	0.1908665
241	0xbf1506e8	-0.58213663
242	0x3f4fafcb	0.81127614
243	0x3dc7b181	0.09750653
244	0xbf8c6f4c	-1.0971465
245	0x3ec957d5	0.39324823
246	0x3f10fb2b	0.5663325
247	0x3f1362bb	0.57572526
248	0xbfa502d4	-1.2891488
249	0x3cbc645e	0.022997078
250	0x3f6504dd	0.89460546
251	0x3d2c6157	0.042085018

running_mean f4 [252]
0	0x46d16270	26801.219
1	0x46a2df5d	20847.682
2	0x478462ff	67781.99
3	0x470f41bd	36673.74
4	0x46b0e6b4	22643.352
5	0x47146ff2	37999.945
6	0x46f15506	30890.512
7	0x470d8ae4	36234.89
8	0x47268b61	42635.38
9	0x468e757a	18234.738
10	0x47445a91	50266.566
11	0x46782880	15882.125
12	0x47c8ffef	102911.87
13	0x4717def3	38878.95
14	0x472a636c	43619.42
15	0x471af505	39669.02
16	0x4686bd67	17246.701
17	0x465342eb	13520.7295
18	0x46c7d6ce	25579.402
19	0x46e29243	29001.13
20	0x468d9b12	18125.535
21	0x46fdfa08	32509.016
22	0x466521b6	14664.428
23	0x470ca1ba	36001.727
24	0x46bc6035	24112.104
25	0x4678dec0	15927.6875
26	0x479301ec	75267.84
27	0x469e16f5	20235.479
28	0x472514d0	42260.812
29	0x47a8bedd	86397.73
30	0x46cfa5d3	26578.912
31	0x4693180f	18828.03
32	0x46426d20	12443.281
33	0x47852652	68172.64
34	0x4770ac8a	61612.54
35	0x4649adcd	12907.45
36	0x478b258e	71243.11
37	0x46d43fa8	27167.828
38	0x46eccf63	30311.693
39	0x46a51258	21129.172
40	0x474bec6e	52204.43
41	0x46b21187	22792.764
42	0x46cb72ac	26041.336
43	0x46a2bf8e	20831.777
44	0x46e6c180	29536.75
45	0x469f098d	20356.775
46	0x46ec640c	30258.023
47	0x463341bf	11472.437
48	0x464884e1	12833.22
49	0x469efd65	20350.697
50	0x45fe9ed3	8147.853
51	0x4615474d	9553.825
52	0x469a0f91	19719.783
53	0x472b0218	43778.094
54	0x46a2c505	20834.51
55	0x469b1f0d	19855.525
56	0x467209b7	15490.429
57	0x47823f30	66686.375
58	0x47b7c6ae	94093.36
59	0x46205c4c	10263.074
60	0x4708ae4b	34990.293
61	0x46c06c58	24630.172
62	0x46b02a79	22549.236
63	0x47f4907e	125216.984
64	0x464cd9ca	13110.447
65	0x468918dd	17548.432
66	0x47257a79	42362.473
67	0x465f19d8	14278.461
68	0x468bff46	17919.637
69	0x46a5cc70	21222.219
70	0x4720d26c	41170.42
71	0x4689bdc7	17630.889
72	0x46872a30	17301.094
73	0x47e1ba79	115572.945
74	0x46c5496f	25252.717
75	0x46f8035e	31745.684
76	0x471fe5e5	40933.895
77	0x46d59077	27336.232
78	0x46234473	10449.112
79	0x47336a09	45930.035
80	0x47111751	37143.316
81	0x46f7ece7	31734.451
82	0x468e6e64	18231.195
83	0x46b3561a	22955.05
84	0x46adcfd6	22247.918
85	0x46ae8c92	22342.285
86	0x46cfbb5c	26589.68
87	0x46e72bc5	29589.885
88	0x462b3c10	10959.016
89	0x4712b476	37556.46
90	0x46ff54ef	32682.467
91	0x473843dd	47171.863
92	0x470a15b1	35349.69
93	0x46a1af28	20695.578
94	0x479936ff	78445.99
95	0x46bb6b26	23989.574
96	0x47baaae7	95573.805
97	0x46d78a8a	27589.27
98	0x46bca28f	24145.28
99	0x475dbcd7	56764.84
100	0x46d05b59	26669.674
101	0x471c0611	39942.066
102	0x46930d1a	18822.55
103	0x46893a17	17565.045
104	0x46fa63aa	32049.832
105	0x4683d28e	16873.277
106	0x4768039b	59395.605
107	0x46a88cf3	21574.475
108	0x4742be53	49854.324
109	0x464aa90b	12970.261
110	0x46ce0bed	26373.963
111	0x46b8c882	23652.254
112	0x46bbdd97	24046.795
113	0x465d3b63	14158.847
114	0x4715af85	38319.52
115	0x473a299b	47657.605
116	0x46959643	19147.13
117	0x46a331f9	20888.986
118	0x46d73cbb	27550.365
119	0x467433b5	15628.927
120	0x46ba399a	23836.8
121	0x46d05163	26664.693
122	0x47b4393a	92274.45
123	0x47f9c2d5	127877.664
124	0x4683aa33	16853.1
125	0x46de1f1b	28431.553
126	0x4714a4e3	38052.887
127	0x46abca0a	21989.02
128	0x47369b0f	46747.06
129	0x467b87a1	16097.907
130	0x469b7a53	19901.162
131	0x46e1ca49	28901.143
132	0x469eb942	20316.629
133	0x46aa6579	21810.736
134	0x477a25c6	64037.773
135	0x47302bca	45099.79
136	0x46f36a9e	31157.309
137	0x46de6fcf	28471.904
138	0x468910e7	17544.451
139	0x4689f8a2	17660.316
140	0x4661ebb0	14458.922
141	0x4702a04b	33440.293
142	0x46e34414	29090.04
143	0x47c55d29	101050.32
144	0x470fbd9a	36797.6
145	0x47075301	34643.004
146	0x470f6fc5	36719.77
147	0x46bb5eed	23983.463
148	0x46a55da2	21166.816
149	0x470495d5	33941.832
150	0x46d03377	26649.732
151	0x471dd807	40408.027
152	0x46e1d34c	28905.648
153	0x469ec101	20320.502
154	0x4708ca3a	35018.227
155	0x46c239ec	24860.96
156	0x47095811	35160.066
157	0x47163845	38456.27
158	0x47859b3c	68406.47
159	0x46d74a53	27557.162
160	0x47038b5b	33675.355
161	0x4681b283	16601.256
162	0x46ed188f	30348.28
163	0x46d0b4cd	26714.4
164	0x4705f145	34289.27
165	0x473d2333	48419.2
166	0x46973b38	19357.61
167	0x46c8a32a	25681.582
168	0x46c66606	25395.012
169	0x46352628	11593.539
170	0x4689ade3	17622.943
171	0x4712e5c3	37605.76
172	0x46e8a5f7	29778.982
173	0x46d050e9	26664.455
174	0x465702b9	13760.681
175	0x472ad325	43731.145
176	0x46a2f72a	20859.582
177	0x472be5be	44005.742
178	0x46bcf260	24185.188
179	0x470633a1	34355.63
180	0x470af6bd	35574.74
181	0x46b47e7d	23103.244
182	0x465308a3	13506.159
183	0x46b0dbba	22637.863
184	0x46b15aa9	22701.33
185	0x46e637e1	29467.94
186	0x4677c5af	15857.421
187	0x470357d7	33623.84
188	0x46a6e94c	21364.648
189	0x464de245	13176.567
190	0x4716246b	38436.418
191	0x46b4765b	23099.178
192	0x46c5abaf	25301.842
193	0x47885a36	69812.42
194	0x46b89d28	23630.578
195	0x46ba4041	23840.127
196	0x46957862	19132.191
197	0x46916e7e	18615.246
198	0x471a7fdf	39551.87
199	0x4656b93c	13742.309
200	0x470f6987	36713.527
201	0x469cc5a7	20066.826
202	0x46b786b6	23491.355
203	0x47aa7cb7	87289.43
204	0x462b2e2b	10955.542
205	0x468ce2b8	18033.36
206	0x46c50e91	25223.283
207	0x47a37fb5	83711.414
208	0x46adb157	22232.67
209	0x4658fbeb	13886.9795
210	0x46c1a041	24784.127
211	0x46618ea7	14435.663
212	0x46dd2f5a	28311.676
213	0x470f152a	36629.164
214	0x468716a5	17291.322
215	0x468998c5	17612.385
216	0x46f97b62	31933.691
217	0x46803fce	16415.902
218	0x46f534bc	31386.367
219	0x474efedc	52990.86
220	0x4720af6e	41135.43
221	0x469f7754	20411.664
222	0x46ea629f	30001.31
223	0x4779972a	63895.164
224	0x473714f2	46868.945
225	0x466783b9	14816.931
226	0x468dcd6b	18150.709
227	0x46e9cdc6	29926.887
228	0x47514bb2	53579.695
229	0x4627fad6	10750.709
230	0x46e0bb63	28765.693
231	0x4740ec50	49388.312
232	0x4659305b	13900.089
233	0x47e06352	114886.64
234	0x46a9e2b0	21745.344
235	0x46def353	28537.662
236	0x47c81962	102450.766
237	0x46dffb54	28669.664
238	0x4687cfe5	17383.947
239	0x4732794b	45689.293
240	0x46be98af	24396.342
241	0x47ba9e5a	95548.7
242	0x46e280ed	28992.463
243	0x46b938ff	23708.498
244	0x47fb60d7	128705.68
245	0x470fea6b	36842.418
246	0x46f38156	31168.668
247	0x473d43cb	48451.793
248	0x47bb84b3	96009.4
249	0x46f99bfa	31949.988
250	0x470c0be4	35851.89
251	0x46af635d	22449.682

running_var f4 [252]
0	0x4e190477	6.4180166e+08
1	0x4dee9787	5.003635e+08
2	0x4f0084e0	2.1561917e+09
3	0x4e2cd875	7.249667e+08
4	0x4dc7c59c	4.1895206e+08
5	0x4ea7567c	1.4037315e+09
6	0x4e69bbef	9.8035194e+08
7	0x4e0f13a7	6.0010746e+08
8	0x4e7a7378	1.05046784e+09
9	0x4dcd29bf	4.3025814e+08
10	0x4eddf94e	1.8620516e+09
11	0x4e1b145b	6.504506e+08
12	0x4f83d141	4.423058e+09
13	0x4e3c6c1a	7.903003e+08
14	0x4ea13907	1.3524346e+09
15	0x4ec31d01	1.636729e+09
16	0x4d0b171d	1.4584674e+08
17	0x4d0c4ce0	1.4711552e+08
18	0x4de5ca71	4.819062e+08
19	0x4e8857f3	1.1437326e+09
20	0x4e2357f7	6.8511277e+08
21	0x4e11a11f	6.108139e+08
22	0x4da3ff5b	3.4392765e+08
23	0x4ebbcbcc	1.5753477e+09
24	0x4e379462	7.6998874e+08
25	0x4d33265c	1.8785222e+08
26	0x4f07029c	2.2650952e+09
27	0x4e1c7888	6.562862e+08
28	0x4e4d4525	8.609652e+08
29	0x4f5afb2b	3.6738936e+09
30	0x4dbb6c98	3.9305702e+08
31	0x4e2b575f	7.186575e+08
32	0x4ce18ea5	1.18256936e+08
33	0x4ee0a5eb	1.884485e+09
34	0x4ecc8458	1.7156127e+09
35	0x4d98fce4	3.208388e+08
36	0x4f0a9e7c	2.3256422e+09
37	0x4e805d61	1.0768017e+09
38	0x4e429e36	8.162871e+08
39	0x4e2f5335	7.3536646e+08
40	0x4ebb137c	1.5693082e+09
41	0x4e17f92c	6.3742234e+08
42	0x4e4da307	8.6250336e+08
43	0x4d620408	2.3699469e+08
44	0x4eb12621	1.486033e+09
45	0x4edb2f0c	1.8386468e+09
46	0x4de72d27	4.84812e+08
47	0x4c6473aa	5.988727e+07
48	0x4cc69eb9	1.0413409e+08
49	0x4dae3d19	3.6540496e+08
50	0x4c201bdc	4.197157e+07
51	0x4c0c245c	3.673739e+07
52	0x4dce1b62	4.3223763e+08
53	0x4f1e7c93	2.6589642e+09
54	0x4d5c4021	2.3094939e+08
55	0x4e15c31e	6.281481e+08
56	0x4dc0ae8a	4.04083e+08
57	0x4edbe7a9	1.8446962e+09
58	0x4f5e5a7a	3.7304714e+09
59	0x4c49e005	5.292034e+07
60	0x4e91e6db	1.2239128e+09
61	0x4f32af06	2.9978148e+09
62	0x4e1cb1db	6.572254e+08
63	0x4f992e75	5.1399173e+09
64	0x4e08c481	5.7364486e+08
65	0x4d48c250	2.105111e+08
66	0x4ec66b4b	1.6644602e+09
67	0x4d867508	2.819771e+08
68	0x4db8a8b8	3.872581e+08
69	0x4dc56f04	4.140484e+08
70	0x4e4ce81b	8.5944083e+08
71	0x4eaddf16	1.4585393e+09
72	0x4dca2041	4.2388893e+08
73	0x4f983371	5.107016e+09
74	0x4e60ea89	9.433667e+08
75	0x4e30f2c1	7.421748e+08
76	0x4e89c485	1.1556788e+09
77	0x4e5fbdf4	9.38442e+08
78	0x4c9634be	7.875122e+07
79	0x4e4d7ba8	8.618583e+08
80	0x4e9abf03	1.2981047e+09
81	0x4f85b4d1	4.4864394e+09
82	0x4da771dc	3.5115712e+08
83	0x4e4951d1	8.443956e+08
84	0x4e4d166a	8.6019955e+08
85	0x4e4b6e47	8.532505e+08
86	0x4dd8a6ec	4.5435226e+08
87	0x4f024942	2.185839e+09
88	0x4ce614fd	1.20629224e+08
89	0x4e7f2cca	1.07028134e+09
90	0x4eb0f049	1.4842687e+09
91	0x4edc8b33	1.850055e+09
92	0x4ece0e9d	1.7285321e+09
93	0x4dbf1b56	4.0077997e+08
94	0x4f28a60d	2.8294546e+09
95	0x4e4989b4	8.453112e+08
96	0x4f6b6e7a	3.949886e+09
97	0x4e51858e	8.787977e+08
98	0x4e52ffef	8.8499706e+08
99	0x4eaa0369	1.4261751e+09
100	0x4e0f77a5	6.017457e+08
101	0x4e623022	9.487013e+08
102	0x4e191c79	6.42195e+08
103	0x4ec064f1	1.6139204e+09
104	0x4e924aba	1.2271854e+09
105	0x4d3810f2	1.930074e+08
106	0x4eb783b0	1.5394304e+09
107	0x4dadc91b	3.6445475e+08
108	0x4ead8ba4	1.4558049e+09
109	0x4e3764d1	7.692094e+08
110	0x4e381d10	7.722281e+08
111	0x4de0f9f1	4.7180957e+08
112	0x4e9a527a	1.2945482e+09
113	0x4d1560c8	1.5663424e+08
114	0x4e471611	8.3502803e+08
115	0x4eac1e6d	1.4438376e+09
116	0x4e0a755c	5.807368e+08
117	0x4e06cfef	5.654435e+08
118	0x4eaa105a	1.4265992e+09
119	0x4cd320c8	1.106919e+08
120	0x4e23c876	6.869559e+08
121	0x4e7ccdee	1.06033856e+09
122	0x4f56cbe9	3.6036877e+09
123	0x4fb9a15c	6.2287196e+09
124	0x4d0606c6	1.4053693e+08
125	0x4eaf3cbc	1.4699965e+09
126	0x4e7bb9c3	1.0558138e+09
127	0x4dab5258	3.5928755e+08
128	0x4e7570f8	1.02945536e+09
129	0x4dc51bd4	4.133669e+08
130	0x4e6e394c	9.991831e+08
131	0x4e8d6cc9	1.1863584e+09
132	0x4e374619	7.687061e+08
133	0x4da2c0b5	3.4131728e+08
134	0x4ee6c940	1.9359744e+09
135	0x4eb65fa3	1.5298605e+09
136	0x4e4dec10	8.637e+08
137	0x4e25c091	6.9521517e+08
138	0x4d878e31	2.8428035e+08
139	0x4ea244cc	1.3612088e+09
140	0x4de81204	4.8668685e+08
141	0x4ee106f2	1.8876644e+09
142	0x4eb4eca8	1.5177042e+09
143	0x4f458b08	3.314223e+09
144	0x4e5f33a2	9.3617574e+08
145	0x4e59c4b9	9.133871e+08
146	0x4e929570	1.2296335e+09
147	0x4e252628	6.926853e+08
148	0x4e26cfe2	6.996604e+08
149	0x4e66cf2b	9.6808416e+08
150	0x4e837b06	1.1029389e+09
151	0x4eb7857b	1.5394892e+09
152	0x4ea3d09f	1.3741792e+09
153	0x4e198edc	6.440691e+08
154	0x4e87ef12	1.140296e+09
155	0x4e0e4cbb	5.968483e+08
156	0x4e43cf5e	8.212868e+08
157	0x4ec5ddbe	1.6598218e+09
158	0x4ee89f45	1.951376e+09
159	0x4e47debc	8.383158e+08
160	0x4e773138	1.0367995e+09
161	0x4ddbd250	4.6099917e+08
162	0x4e97be17	1.2729087e+09
163	0x4e5eab17	9.339386e+08
164	0x4e684315	9.741776e+08
165	0x4e9d4a35	1.3194431e+09
166	0x4e16ff1f	6.333255e+08
167	0x4e908952	1.2124593e+09
168	0x4e6a6803	9.8317126e+08
169	0x4dd1f7ab	4.4033366e+08
170	0x4e074608	5.673784e+08
171	0x4edcac0d	1.8511315e+09
172	0x4e3bdd04	7.87956e+08
173	0x4dff6b94	5.3565504e+08
174	0x4cea14db	1.22726104e+08
175	0x4eb4ddca	1.517217e+09
176	0x4db388d3	3.7651107e+08
177	0x4ea5f591	1.392167e+09
178	0x4eb29322	1.4979935e+09
179	0x4ea1ba2e	1.3566666e+09
180	0x4e8b07f6	1.1662774e+09
181	0x4df489b7	5.1283325e+08
182	0x4dae2fc6	3.652958e+08
183	0x4deafa9d	4.927866e+08
184	0x4e2cddbe	7.250533e+08
185	0x4e2f5ac3	7.3549024e+08
186	0x4d6bf5f7	2.4742283e+08
187	0x4eb03781	1.4782138e+09
188	0x4df930fb	5.225921e+08
189	0x4c9fc26b	8.375996e+07
190	0x4e5d01cd	9.269707e+08
191	0x4e70ea95	1.01047635e+09
192	0x4e520b0c	8.809848e+08
193	0x4f010b59	2.1650045e+09
194	0x4f19cca2	2.5803249e+09
195	0x4e300904	7.383452e+08
196	0x4dbc795f	3.9525885e+08
197	0x4dc3ae65	4.1037328e+08
198	0x4f357c9f	3.0448433e+09
199	0x4ccda137	1.0780921e+08
200	0x4e57bd0a	9.048726e+08
201	0x4df57ebd	5.1484048e+08
202	0x4e186a64	6.392773e+08
203	0x4f6140cc	3.77912e+09
204	0x4ceb4344	1.2334544e+08
205	0x4d987c57	3.197857e+08
206	0x4e61138a	9.440385e+08
207	0x4f44524d	3.293728e+09
208	0x4e518f66	8.78959e+08
209	0x4d61844a	2.3647146e+08
210	0x4e5b84a6	9.207259e+08
211	0x4d8b452f	2.9207088e+08
212	0x4e29df6b	7.1249786e+08
213	0x4e5c0b0d	9.2292794e+08
214	0x4e2dadc6	7.284617e+08
215	0x4ebb2c9c	1.5701315e+09
216	0x4eb5b65c	1.5243136e+09
217	0x4cdfd1f8	1.1734624e+08
218	0x4e8e3bbe	1.19314e+09
219	0x4e9ab915	1.2979104e+09
220	0x4ef04e4b	2.0158314e+09
221	0x4e3d37b9	7.936364e+08
222	0x4e9a9259	1.2966412e+09
223	0x4edd4172	1.8560269e+09
224	0x4e4c5fca	8.572074e+08
225	0x4cbb8bcd	9.832817e+07
226	0x4e1792d1	6.3574534e+08
227	0x4f81940c	4.3479265e+09
228	0x4ea42f1d	1.3772755e+09
229	0x4d9761a9	3.1746998e+08
230	0x4ed14e77	1.7557902e+09
231	0x4f22b80e	2.7299712e+09
232	0x4d20ca3f	1.6860056e+08
233	0x4f887ee9	4.580037e+09
234	0x4e6834cc	9.7394355e+08
235	0x4e6d2803	9.947056e+08
236	0x4f854796	4.4721224e+09
237	0x4eaadbff	1.4332722e+09
238	0x4dbcb938	3.957819e+08
239	0x4eba4c90	1.5627899e+09
240	0x4e6af6be	9.8550976e+08
241	0x4f5b81a9	3.6827077e+09
242	0x4eb7690b	1.5385573e+09
243	0x4e28c90d	7.079371e+08
244	0x4fac2052	5.7755986e+09
245	0x4eafc844	1.4745687e+09
246	0x4ec0570b	1.613465e+09
247	0x4f05a801	2.24238e+09
248	0x4f87c499	4.555617e+09
249	0x4e42efd1	8.176241e+08
250	0x4eca3cfe	1.6964974e+09
251	0x4dfa2211	5.2456707e+08

weight f4 [252, 252]
0	0x3dd3ce9e	0.103421435
1	0xbf7cb9b1	-0.9872084
2	0xbf85d179	-1.0454551
3	0xc08dc16a	-4.42986
4	0x400e1b25	2.2204068
5	0xbf1436b3	-0.57895964
6	0xbf9470fd	-1.1596981
7	0x3fabb8a1	1.3415719
8	0x3e48f3a0	0.19624186
9	0x4003548b	2.052035
10	0xbb9896e7	-0.004656661
11	0x4017e0d3	2.3730972
12	0xbf4d8427	-0.80279773
13	0xbc3a3451	-0.011365012
14	0xc065107a	-3.5791306
15	0x3f727660	0.94711876
16	0xbe271e0c	-0.16320056
17	0x4030dbb1	2.763409
18	0x3f65ec74	0.89813924
19	0xc0047434	-2.0695925
20	0xbff79941	-1.9343644
21	0xbfc2d472	-1.5221083
22	0xbf334f05	-0.7004245
23	0x3dc2001a	0.094726756
24	0xbe4ed2e8	-0.20197642
25	0xbf6f641b	-0.93512124
26	0xbec3419a	-0.38135988
27	0x3f84c563	1.0372738
28	0xbed40507	-0.41410086
29	0x3ffdd263	1.982983
30	0x3f6f6dd7	0.9352698
31	0x3fd6a3da	1.6768754
32	0x3e606bbc	0.21916097
33	0xbf7e77b8	-0.99401426
34	0xc053a522	-3.306954
35	0x3f8b8e7e	1.090286
36	0x3e6225da	0.22084752
37	0x3d9bf844	0.07615712
38	0xbfe4523c	-1.7837596
39	0xbf8ae836	-1.0852115
40	0x40a1c4be	5.0552664
41	0x3eaa98ef	0.33319804
42	0x3efff8d6	0.49994534
43	0x3ebc7ba9	0.36813095
44	0xbf9a7f3f	-1.2070082
45	0xbf6e6ce5	-0.9313491
46	0xbf034c23	-0.5128805
47	0x3f67257d	0.9029158
48	0x401f7950	2.4917793
49	0x40e5ce19	7.1814084
50	0x3ef19fac	0.47192132
51	0xbfbd6914	-1.4797692
52	0xbfec369b	-1.8454164
53	0xc02e74b8	-2.725874
54	0x3e8a9d51	0.27073148
55	0x3f72441b	0.9463517
56	0xbf54f958	-0.8319297
57	0xbed072f8	-0.40712714
58	0x3e89d2ba	0.26918584
59	0x3fe3b9b3	1.7791046
60	0x3db0662d	0.086132385
61	0xbee1df48	-0.44115663
62	0x3e3dcdf0	0.1853559
63	0x3fbbdc6d	1.4676644
64	0xbf1e0491	-0.6172572
65	0x3f386827	0.72033924
66	0x3f5abc7a	0.8544384
67	0xbcf51857	-0.029918833
68	0x3f03bef8	0.5146327
69	0xbd354943	-0.04425932
70	0xbe2ac11a	-0.16675225
71	0xbee0bd68	-0.43894506
72	0x3e537155	0.20648701
73	0x3f0314fa	0.5120388
74	0xbf8861d0	-1.065485
75	0x3fec38f2	1.8454878
76	0x40996c77	4.7944903
77	0xbe53f68f	-0.20699523
78	0xbe871656	-0.26384228
79	0xbfc3bcd1	-1.5291997
80	0x3fda5f09	1.7060252
81	0xbff4fa6e	-1.9138925
82	0xc064681c	-3.5688543
83	0xbf52b124	-0.82301545
84	0xbee67a87	-0.45015356
85	0xbe610b88	-0.21977055
86	0xc01f14fc	-2.4856558
87	0x4053c25e	3.3087382
88	0xbee11bcd	-0.43966523
89	0xc08d0e04	-4.407961
90	0x3fb364ac	1.4015098
91	0x3ff783c9	1.9337093
92	0x3ebecb23	0.37264356
93	0xc047b640	-3.1204987
94	0xbeb8c8d0	-0.36090708
95	0xbef1877e	-0.47173685
96	0x3fc4d1e9	1.537656
97	0x3fa7f845	1.3122641
98	0xbfac6fe4	-1.3471646
99	0x3fa6bf28	1.3027086
100	0x4127556e	10.458357
101	0x3ee5436b	0.44777998
102	0xbfbc275b	-1.469951
103	0x3f9a3106	1.2046211
104	0x3f2f8ccf	0.6857423
105	0x3da07386	0.07834534
106	0x3f5c6a59	0.86099774
107	0xbe3cbec1	-0.18432142
108	0xbd9007e3	-0.07032754
109	0xbe46ed87	-0.19426547
110	0x3f241ca0	0.6410618
111	0x3f858af7	1.0433034
112	0x3f7da560	0.9908047
113	0xbfa5ed05	-1.2962958
114	0xbf206594	-0.62654996
115	0x406800b0	3.625042
116	0x3d689e82	0.05679179
117	0x4055f901	3.343323
118	0x3ec806a2	0.3906756
119	0x3f8997f8	1.0749502
120	0xbe154cf4	-0.14580137
121	0xbf53cfb4	-0.82738805
122	0x3f0da5e5	0.5533126
123	0x3ea6f8ea	0.3261178
124	0xbe84e4f9	-0.25955942
125	0xc0895bfe	-4.2924795
126	0xbec57236	-0.385637
127	0xbf5449f6	-0.82925355
128	0xc02d7055	-2.7099812
129	0xbf57db67	-0.84319156
130	0x3f4da19b	0.80324715
131	0x3ecd88d6	0.4014346
132	0xbfb33e59	-1.4003402
133	0xbe6fac9a	-0.23405686
134	0x3f3b56df	0.7317943
135	0x3f4c0048	0.7968793
136	0xbf466068	-0.77490854
137	0x3f57cad6	0.8429388
138	0xbfd89211	-1.6919576
139	0xbf8b1724	-1.0866437
140	0x3d861559	0.065470405
141	0x40297691	2.6478617
142	0xbe53f71a	-0.2069973
143	0x3f578de7	0.842009
144	0xbf9761fc	-1.1826777
145	0xc06e43dd	-3.722892
146	0xc073ee74	-3.811429
147	0xbf065212	-0.5246898
148	0xbfdfda35	-1.7488467
149	0xbfa6f422	-1.3043253
150	0x40d5c80e	6.6806707
151	0xbf4f834e	-0.8105973
152	0x3dff8e6d	0.124783374
153	0x3f1e9f8c	0.619622
154	0x40104645	2.254289
155	0x40373f5f	2.8632429
156	0xbfb929d0	-1.4465885
157	0x3ff08abc	1.8792338
158	0x3d1f571d	0.038901437
159	0xbe8c2bbe	-0.27377123
160	0x406e094c	3.7193174
161	0xbf1489ef	-0.5802297
162	0xbfb020b7	-1.3759984
163	0x3e0e9bbe	0.13926598
164	0xc084a4fc	-4.1451397
165	0x3f02ddc1	0.5111962
166	0x3ee8e046	0.45483607
167	0x3e96a151	0.2941995
168	0x3fbd5d8a	1.4794171
169	0xbe9aa845	-0.30206504
170	0xbfac8d4e	-1.3480623
171	0xbf1e5a78	-0.61856794
172	0xc09bddf9	-4.8708463
173	0x3ebe5339	0.3717287
174	0xbf7787cc	-0.96691585
175	0x3fb55bda	1.4168656
176	0xbf6bc1c3	-0.9209253
177	0xc0673214	-3.6124315
178	0x4050b98f	3.2613256
179	0xbd7fbc17	-0.062435236
180	0x3f689320	0.90849495
181	0xbee215e3	-0.44157323
182	0xc077891c	-3.8677435
183	0x3f185e03	0.5951845
184	0x3ff8bd46	1.9432762
185	0x4153581e	13.209013
186	0xbf6199ac	-0.8812511
187	0xbd8b4ff9	-0.06802363
188	0xbd4d5cf4	-0.050137475
189	0x400019a2	2.0015645
190	0x405a4ea6	3.4110503
191	0x3fda5fca	1.7060483
192	0x3f45a26c	0.7720096
193	0x3e99ba2a	0.30024844
194	0xc0024a4f	-2.0357854
195	0x41338bcc	11.22163
196	0x3e5666d8	0.2093767
197	0x3fed15e8	1.852231
198	0x3f3e4663	0.7432615
199	0xbf0336dd	-0.5125559
200	0x3f76a423	0.963442
201	0xbf6ebcac	-0.9325664
202	0xbf9ea7d0	-1.2394962
203	0x3efb9b0d	0.49141732
204	0xc005e4bf	-2.0920866
205	0xbf525de6	-0.8217453
206	0x3eeb7e57	0.45994827
207	0xbe0639d7	-0.13108002
208	0x3faccc7c	1.3499904
209	0x400077fd	2.0073235
210	0xc015f3ec	-2.3430128
211	0xc043dfac	-3.0605268
212	0xbffa8304	-1.9571233
213	0xbf9fdc5d	-1.2489125
214	0x3f97251e	1.1808202
215	0xbf5a9eec	-0.85398746
216	0x3f77fd45	0.96870834
217	0x3e5a3c43	0.2131205
218	0x3eb9e624	0.36308396
219	0xbec8ecc4	-0.39243138
220	0x3f9dc918	1.2326994
221	0xbcf98ac3	-0.030461675
222	0xbee055ce	-0.43815464
223	0x3fa5f7b6	1.296622
224	0x3f946ca4	1.1595654
225	0xbe2f8335	-0.17139895
226	0xbf123f62	-0.57127964
227	0xbfa3a999	-1.2786132
228	0x3f4cfe11	0.80075175
229	0xbd7b6bb5	-0.061382014
230	0x3da27718	0.079328716
231	0xc057384e	-3.3628116
232	0xbecdab05	-0.4016954
233	0x3f8603e0	1.0469933
234	0xc018f5a7	-2.3899934
235	0xbf624c5c	-0.88397765
236	0xbf2476fa	-0.64244044
237	0xc0180e9c	-2.3758917
238	0xc0412f0b	-3.0184963
239	0x3ef73d7a	0.4828909
240	0x406252d3	3.5363052
241	0xbea3c4b8	-0.31986022
242	0x40053402	2.0812993
243	0x3fd4ec00	1.6634521
244	0x3fbe1676	1.4850605
245	0x404dec9e	3.217567
246	0x3eabe2d2	0.33571488
247	0x3fd9c4f4	1.701323
248	0x3eb84195	0.35987535
249	0x3fee4873	1.861586
250	0xbf822abc	-1.0169291
251	0xbf6befe5	-0.92162925
252	0xbec1a469	-0.37820747
253	0xbf7802ad	-0.9687908
254	0xc01c0c5a	-2.4382539
255	0xbf4baa15	-0.795564
