public_models/Dnn3Layers/150.pth (torch_old, 616467 bytes, 14 tensors)

weight f4 [252, 252]
000000 26 5a 85 c0 59 e7 26 41 93 98 37 c0 60 1d 23 41
       -4.1672544 10.431481 -2.8686874 10.194672
000010 7c 10 8c 41 5e 60 d7 be 9c f7 bf 3f c8 bc bd 41
       17.508049 -0.4206571 1.4997439 23.717178
000020 8e 1d 96 40 7b db 64 c0 ee 3b 8c c0 3d 73 bb 3f
       4.6911077 -3.575896 -4.3823156 1.4644543
000030 38 ca 3f c0 62 c2 b3 3f f7 96 ff 40 0f 60 c0 c0
       -2.9967175 1.4043696 7.9871783 -6.011726
000040 c0 54 0f c0 1e 07 00 c0 c7 fa 79 41 ab a5 77 c1
       -2.2395477 -2.0004344 15.623725 -15.477946
000050 5e ba 05 c0 03 69 b0 bf c0 f4 fc 3e 19 75 5f bf
       -2.0895 -1.3782047 0.4940548 -0.8728805
000060 6c fb 50 c0 11 8a 6a 41 37 5c 7b 40 7c 79 ca c0
       -3.2653456 14.658708 3.9275033 -6.3273296
000070 21 77 cb bf 71 03 03 c0 0f bb 5b bf e7 9d 0a c0
       -1.589573 -2.047085 -0.85832304 -2.1658876
000080 ed 13 d9 3f 04 22 bd 3e f6 73 d8 40 09 1e 08 bf
       1.6959206 0.36940014 6.7641554 -0.5317083
000090 8b 53 c3 bf 97 a1 6d 3f 0b ef 1d c0 38 c1 24 40
       -1.525987 0.9282469 -2.467715 2.5742931
0000a0 94 3f 24 c0 ce cb cf 40 06 79 f0 3f eb 32 75 c0
       -2.5663805 6.4936285 1.8786933 -3.8312328
0000b0 04 a7 9a 3f 0f f5 24 3e fa d7 d2 bf e8 14 16 3f
       1.2082219 0.16109107 -1.6472161 0.5862565
0000c0 f0 95 e2 3e be 04 ae be 1c 5d 4b be 68 46 2a 3f
       0.44255018 -0.33987993 -0.19859737 0.6651368
0000d0 45 7b d5 bf ec 77 1b 3f 98 24 06 bf cc d3 d2 bf
       -1.6678244 0.6072986 -0.5239959 -1.6470885
0000e0 21 32 23 3f 3f 6f 1c bf 08 d9 44 3e e8 2e 8d 3f
       0.63748366 -0.6110725 0.19223416 1.102994
0000f0 43 c7 10 bf 87 da 33 3f e7 27 ea c0 83 1c 97 c1
       -0.5655405 0.7025532 -7.317371 -18.888922
000100 65 ef 83 c0 89 49 be 40 e2 93 73 c0 38 d3 39 40
       -4.122973 5.9464765 -3.805901 2.9035168
000110 ef ea 47 3e 35 06 94 bd 44 38 0b 3e 96 c0 85 3f
       0.19523214 -0.072277464 0.13595682 1.0449398
000120 25 99 dd 3e c7 57 79 bd 7e 95 0c 40 44 69 8c bf
       0.43280903 -0.060874727 2.1966243 -1.0969625
000130 ca 9e 2a bf 62 a7 a0 3f 18 e0 66 bf 25 f0 13 3e
       -0.6664854 1.2551081 -0.9018569 0.14447077
000140 c8 8c a1 3f 46 52 88 bf 52 7a c9 3f 6d c8 80 3e
       1.2621088 -1.0650108 1.5740454 0.25152913
000150 0d 98 46 3e b1 62 b8 3d 99 54 b6 bd 90 b8 6a 3e
       0.1939394 0.09003199 -0.089028545 0.22921968
000160 53 f3 28 bf 44 1f 96 3f 74 1c 16 bf 24 39 84 3e
       -0.65996283 1.1728292 -0.58637166 0.25824845
000170 15 af d7 3e cc 47 a3 bd 2b 4f a7 be bc de e4 be
       0.42125764 -0.079726785 -0.32677588 -0.44701183
000180 f1 12 01 3f f0 92 b3 bf 81 55 c4 3e 52 39 87 3f
       0.5041953 -1.4029217 0.38346484 1.0564368
000190 d7 0a f5 bf 36 c7 77 be d2 3c 0e 3f 63 66 25 bf
       -1.9143933 -0.24197087 0.55561554 -0.64609355
0001a0 19 9d de 3c c3 b8 31 3e c9 4f 99 3f 7c 70 8b be
       0.02717452 0.17355637 1.1977473 -0.27234256
0001b0 14 ab 21 3e 58 8a c8 bd c8 01 eb 3d c0 50 cc 3f
       0.15787917 -0.09792012 0.11474949 1.5962143
0001c0 18 50 a5 bf 23 db a8 3e e5 9c b0 bd 9b e8 35 bf
       -1.2915068 0.32979688 -0.08623675 -0.7105805
0001d0 db 7b f6 3f 15 91 cb bf 39 17 10 be c4 60 63 bd
       1.9256548 -1.590365 -0.14071359 -0.055512205
0001e0 c0 7c 15 3f 08 39 bb be 65 b9 21 bf bb ea 7b 3f
       0.5839348 -0.3656695 -0.63173515 0.98405045
0001f0 a9 10 d8 be 93 08 53 3f 1b e0 0d 3f 9a ac 2b bf
       -0.4220021 0.8243496 0.5542008 -0.67060244
000200 fd 21 26 40 3e 7b 5a bf 52 e4 f6 3e 8c 20 93 3f
       2.5958245 -0.853443 0.4822107 1.1494308
000210 67 15 1a 3e d7 d8 3f bf 20 c6 36 3f e6 f6 a9 3d
       0.15047227 -0.74940246 0.71396065 0.08299045
000220 6a e2 4b bf f2 22 2d 3e d2 92 e1 be 2c 1b 28 3f
       -0.79642355 0.16907862 -0.44057328 0.6566646
000230 a5 fa a7 3e 0a 48 4a bf 94 dc 78 3f 41 47 3e 3b
       0.32808414 -0.7901617 0.97211576 0.002903417
000240 fc 60 d8 3f ae c3 61 3f be 3a d1 be c8 0f 91 3f
       1.6904597 0.8818921 -0.4086513 1.1332941
000250 68 44 cd bd ac be 16 bf 59 38 01 40 7d d7 f0 bf
       -0.10022813 -0.5888469 2.0190642 -1.8815762
000260 bf 47 d7 be 69 d0 1a 40 76 f8 24 c0 46 f3 b7 bf
       -0.42046925 2.4189703 -2.5776649 -1.4371116
000270 2e 8c 3f bf f4 5e cc 3f b5 8c e4 bf 97 5d 36 3f
       -0.7482327 1.5966477 -1.785544 0.71236557
000280 9b ba b1 3e c8 bc da be e9 02 fc 3f f8 9e 03 c0
       0.3471268 -0.42722154 1.9688388 -2.0565777
000290 c2 3b bb bf 11 77 e1 3f d7 11 73 bf e6 77 53 40
       -1.4627612 1.7614461 -0.94949096 3.304193
0002a0 9a 7f d1 bf fa 77 ec 3e be ee b0 bf fc 86 e3 bf
       -1.6367066 0.46185285 -1.3822858 -1.7775569
0002b0 a4 63 49 40 92 7e 92 bf 6d 8a 9a 3f dc 9e 98 3f
       3.1467066 -1.1444876 1.2073494 1.192348
0002c0 ca ac 7d 3f 6e 35 0d c0 c7 e3 05 40 2d 52 9e be
       0.9909178 -2.206386 2.0920274 -0.3092207
0002d0 ec dd 38 3f 1c 66 1b bf d0 6c b4 3f 6d b2 8f bf
       0.72213626 -0.6070268 1.4095707 -1.1226326
0002e0 84 57 c9 3f 75 66 2d 40 4d 3e 88 3e 74 3e c8 3f
       1.5729833 2.7093785 0.26610032 1.5644059
0002f0 5d 93 50 c1 8c c5 97 c0 cb 87 54 40 43 d0 dd 40
       -13.035977 -4.7428646 3.3207881 6.9316726
000300 6f 90 99 c0 ab 1f 8c 40 cc d7 b0 40 ab 61 11 c0
       -4.798881 4.3788657 5.5263424 -2.2715862
000310 11 09 87 40 70 d8 89 c1 48 85 8d c1 65 ea 2a 41
       4.2198567 -17.230682 -17.690079 10.682225
000320 89 b5 ad bf 41 d1 a5 3f 12 08 b9 3e a8 31 b3 3f
       -1.3571025 1.2954484 0.3613897 1.3999529
000330 ce 0f 04 c0 e3 4c 98 bf 31 4e 83 41 0d 28 f5 c0
       -2.0634646 -1.1898464 16.41318 -7.661139
000340 7c 1e 30 3d ea 4f 9b 40 2e 75 54 c0 7c 45 8b 40
       0.042997822 4.853505 -3.319652 4.352232
000350 c8 38 1f 41 17 95 e8 c0 35 fe de c0 00 7d 55 40
       9.951363 -7.2681994 -6.968531 3.3357544
000360 4d 53 96 3f 0d 70 dc 3f ae 9f 4a c1 1f 35 35 3f
       1.1744171 1.7221695 -12.663984 0.7078418
000370 e7 5d 5b bf e7 c8 df c0 e6 c5 4c 40 8f 7e 2f 40
       -0.8569016 -6.993274 3.1995788 2.7420995
000380 79 26 0b 42 d0 48 a5 c1 8f 2c 07 c2 af 71 5c 40
       34.78757 -20.660553 -33.793514 3.4444387
000390 fd 99 87 41 57 91 55 c1 c7 3b ac 41 22 fe fd 40
       16.95019 -13.347983 21.529188 7.937272
0003a0 82 3d d2 c0 da 96 b7 3f 5e e3 33 c2 88 71 c4 c1
       -6.5700083 1.4342911 -44.97204 -24.555435
0003b0 46 c9 fa 40 3a 37 48 c1 10 ab 3f 41 b4 fc 14 3f
       7.8370695 -12.513483 11.979263 0.58198094
0003c0 bd 2d 96 c0 e0 c4 4f 41 08 b7 17 c2 4f f2 05 c2
       -4.6930833 12.985565 -37.92874 -33.48663
0003d0 45 c7 d6 40 b0 c9 e2 40 ba 8d ec 40 5a f2 09 c1
       6.711825 7.08712 7.3923006 -8.621668
0003e0 24 91 ba 40 aa c7 21 41 37 60 d8 c1 b3 75 34 c2
       5.8302174 10.111246 -27.04698 -45.11494
0003f0 5e 1b bf 40 7f 8c 07 c1 46 6e ff 40 31 4b ec 40
       5.9720907 -8.471801 7.982211 7.3841786

bias f4 [252]
000000 d0 43 95 42 9d 4d 16 c3 7c 7a 18 c4 33 42 bb c3
       74.63245 -150.30318 -609.9138 -374.51718
000010 1c e9 df c3 49 15 8f c3 f3 f6 58 c3 c0 2a 2c c4
       -447.82117 -286.1663 -216.96465 -688.66797
000020 22 3f e4 c3 b5 57 dd c2 d7 4c c2 c3 45 de 05 c3
       -456.49323 -110.6713 -388.6003 -133.86824
000030 91 41 2d c4 b6 80 15 c4 be 12 89 c3 6c 91 00 c4
       -693.0245 -598.0111 -274.14642 -514.2722
000040 8b 71 09 c4 8e 4a 63 c3 8f 3a db c3 76 61 b1 c3
       -549.7741 -227.29123 -438.4575 -354.7614
000050 cb 9a 36 c3 f0 10 13 c4 8a 99 38 c3 28 09 b8 c3
       -182.60466 -588.26465 -184.59976 -368.07153
000060 e6 6a a8 c3 5f 73 0d c4 80 a3 12 c4 51 86 78 c3
       -336.83514 -565.8027 -586.5547 -248.52467
000070 af ee 0a c4 39 fb 43 c4 67 d3 1d c4 df fb a4 c2
       -555.72943 -783.92535 -631.30316 -82.491936
000080 48 4a 44 c3 fd e9 2b c4 8d bf 12 c4 04 bf 0c c3
       -196.29016 -687.65607 -586.993 -140.74615
000090 52 54 fc c3 2a 46 99 c3 d5 41 be c3 b2 01 7f c3
       -504.65875 -306.54816 -380.5143 -255.00662
0000a0 1c c9 fc c3 01 86 86 c3 98 24 54 c3 58 2c 02 c4
       -505.57117 -269.0469 -212.14294 -520.6929
0000b0 9b 19 9e c3 a7 ce be c2 fb 84 05 c4 ef cb 37 c4
       -316.20004 -95.40362 -534.0778 -735.18646
0000c0 90 26 de c3 1e fd a3 c3 9d b2 26 c4 3d a4 24 c4
       -444.30127 -327.97748 -666.79083 -658.5662
0000d0 7e 93 8b c2 f9 71 8c c3 3b a2 15 c4 44 53 83 c3
       -69.78807 -280.8904 -598.53485 -262.6505
0000e0 89 d8 8d c3 9f ad 0a c4 a6 e9 0c c4 e6 d8 af c3
       -283.69168 -554.7128 -563.65076 -351.69452
0000f0 80 6c 3a c3 9d b0 0d c4 e5 44 3a c3 ed 04 2b c4
       -186.42383 -566.7596 -186.26912 -684.07697
000100 93 d5 b3 c3 04 6e 00 c4 93 a7 a5 c3 db 11 29 c3
       -359.66855 -513.719 -331.30917 -169.06975
000110 67 1f 93 c3 6f 46 fc c3 7c 97 2b c4 cc 94 d9 c2
       -294.24533 -504.55026 -686.36694 -108.79062
000120 9f 3c 1b c3 d5 7a 15 c4 3a bd 68 c3 97 5b 74 c3
       -155.2368 -597.91925 -232.73917 -244.35777
000130 88 da 48 c3 79 43 d6 c3 13 04 42 c4 c7 9d 0d c4
       -200.85364 -428.52713 -776.06366 -566.4653
000140 ec 86 92 c3 34 40 40 c4 54 b9 cc c3 d8 f4 4d c3
       -293.05408 -769.0032 -409.44788 -205.95642
000150 88 13 b5 c3 b1 ea 2c c3 2d 4a fe c3 91 6a 4d c3
       -362.1526 -172.91676 -508.5795 -205.41628
000160 b2 2b 49 c4 0c ad a1 c3 15 2a 54 c3 52 01 da c3
       -804.68274 -323.35193 -212.16438 -436.0103
000170 41 5b 7e c3 20 5a 9e c3 bf e7 3e c4 8e b6 68 c2
       -254.35646 -316.7041 -763.62103 -58.178276
000180 06 56 3a c4 41 7c d4 c2 c2 97 1d c3 a5 f1 a7 c3
       -745.3441 -106.24268 -157.5928 -335.88785
000190 93 2b 42 c3 3a c5 f8 c3 61 61 a3 c3 3e d7 91 c3
       -194.17021 -497.54083 -326.76077 -291.68158
0001a0 ff 15 9c c3 3d 18 27 c4 a3 67 4a c4 68 bb ac c3
       -312.17184 -668.3787 -809.6193 -345.4641
0001b0 e9 ff ac c3 26 dd 40 c3 29 04 64 42 3e 16 03 c4
       -345.9993 -192.86386 57.004063 -524.34753
0001c0 c0 80 70 c3 d9 75 cf c3 b3 ca 98 c3 0b 8c 99 c3
       -240.50293 -414.9207 -305.5836 -307.0941
0001d0 9e b3 25 c3 78 34 75 c2 b0 b4 8b c3 81 90 30 c4
       -165.70163 -61.30124 -279.41162 -706.2579
0001e0 6c 97 4c c3 5e 11 88 c3 36 3a 15 c4 68 c6 2b c4
       -204.59149 -272.13568 -596.90955 -687.1001
0001f0 e1 78 0a c4 32 0d 25 c3 96 b8 98 c3 7c dc 04 c4
       -553.88873 -165.05154 -305.44208 -531.44507
000200 82 6a aa c3 5b 9b 30 c3 a8 60 11 c3 66 84 3a c3
       -340.8321 -176.60686 -145.37756 -186.51718
000210 11 99 ac c2 c6 70 c2 c3 15 84 ca c3 9f 83 c7 c3
       -86.29896 -388.88104 -405.0319 -399.0283
000220 bb eb ec c3 03 60 13 c4 62 3f 8c c2 f8 d2 96 c3
       -473.84164 -589.5002 -70.123795 -301.6482
000230 78 a0 f8 c3 53 35 66 c3 75 77 50 c3 fc 79 0f c4
       -497.25366 -230.2083 -208.46663 -573.906
000240 b3 ce 04 c3 88 d1 81 c3 a2 bc c2 c3 b7 50 63 42
       -132.80742 -259.63696 -389.4737 56.828823
000250 a4 0c 25 c3 c9 0b 30 c3 41 da b9 c3 f4 0e 83 c3
       -165.04938 -176.04604 -371.7051 -262.11682
000260 31 c4 bf c2 1c 85 7a c3 72 84 13 c3 57 04 86 c3
       -95.88319 -250.51996 -147.51736 -268.0339
000270 8b 4e 8e c3 ec 94 e3 c3 bb 75 12 c4 63 f6 1f c3
       -284.61362 -455.16345 -585.83954 -159.96245
000280 2a 3e 29 c3 93 f7 9f c3 87 7a b4 c3 19 c9 b0 c3
       -169.24283 -319.93417 -360.95724 -353.57108
000290 fe 71 7d c3 66 9e 97 c3 1d 2e ae c2 89 d3 72 c3
       -253.44528 -303.2375 -87.090065 -242.82631
0002a0 34 4e 7a c3 bf e0 a0 c3 b3 a6 bf c3 79 d0 90 c3
       -250.30548 -321.75583 -383.30234 -289.6287
0002b0 72 28 a2 c3 2e e9 31 c4 97 0e eb c3 6c 17 1c c3
       -324.31598 -711.64343 -470.11398 -156.09149
0002c0 a4 e2 14 c4 5e 27 a8 c3 47 14 c9 c2 ae b6 68 c3
       -595.54126 -336.30756 -100.539604 -232.7136
0002d0 fe 83 a7 c3 71 cf d9 c3 f5 cf 5c c3 b1 16 86 c3
       -335.0312 -435.62064 -220.81233 -268.17728
0002e0 17 14 92 c3 ab 88 06 c4 b2 c2 d0 c3 c4 3a 0e c3
       -292.15695 -538.13544 -417.52106 -142.22955
0002f0 55 df 9b c2 8b 25 49 c4 04 e0 05 c4 04 93 aa c2
       -77.936195 -804.5866 -535.50024 -85.28714
000300 19 30 78 c3 ee cc 22 c4 b8 8f 45 c4 11 6b 83 c3
       -248.18788 -651.202 -790.2456 -262.83646
000310 ad 2d 88 c3 9d c8 84 c3 3d 49 6f c3 3a dc 4c c4
       -272.35684 -265.5673 -239.28609 -819.44104
000320 4b ed 23 c4 6b 77 73 c3 b9 2c 37 c3 8c 07 37 c4
       -655.7077 -243.46648 -183.1747 -732.1179
000330 6f 0e de c3 5d 56 17 c3 fb 47 0c c3 42 07 29 c4
       -444.11276 -151.33736 -140.28117 -676.1134
000340 07 ab 0d c3 40 3c 5e c2 07 8c 94 c3 53 23 d1 c3
       -141.66808 -55.558838 -297.09396 -418.27597
000350 23 9a 64 c3 5e 42 a7 c3 98 f5 57 c2 1c 06 a2 c3
       -228.6021 -334.5185 -53.989838 -324.04773
000360 18 ce aa c3 c4 c3 df c3 20 17 c5 c3 3a df d2 c3
       -341.6101 -447.52942 -394.18066 -421.74396
000370 aa 3f 8b c3 15 49 23 c3 e9 1e 5c c3 56 d7 11 c4
       -278.49738 -163.28548 -220.12074 -583.3646
000380 e2 c0 e3 c3 e3 47 36 c4 d8 ce a1 c2 d1 e7 0f c4
       -455.5069 -729.1232 -80.90399 -575.62213
000390 3e c9 87 c3 ce 3d 03 c4 08 e1 bc c3 78 f7 40 c3
       -271.5722 -524.9657 -377.75806 -192.96667
0003a0 63 2b 23 c3 da 98 fd c3 85 f2 c9 c3 03 01 6a c3
       -163.16948 -507.19415 -403.89468 -234.00395
0003b0 09 52 3a c4 3e ba 45 c3 7f 2c a5 c1 69 22 97 c1
       -745.2818 -197.72751 -20.646727 -18.891802
0003c0 c3 65 f7 c2 f3 05 fa c3 97 22 8d c3 ff 3a c8 c2
       -123.69875 -500.04648 -282.27023 -100.11523
0003d0 cd 39 2c c4 6a 6c 82 c3 80 95 b9 c3 33 59 b3 c3
       -688.90314 -260.847 -371.16797 -358.69687
0003e0 f8 14 30 c4 39 20 92 c3 86 76 36 c3 fb 3e f2 c0
       -704.32764 -292.25174 -182.46298 -7.570188

weight f4 [252]
000000 eb e1 d0 3f fd 4a c8 3f 56 20 e6 3f 4c 88 ec 3f
       1.6318945 1.5647885 1.7978618 1.8479095
000010 34 ea fe 3f 6b c0 fc 3f 77 ac d4 3f 9b 3b 12 40
       1.9915223 1.9746221 1.6615132 2.284888
000020 18 c1 01 40 1f ce e8 3f 7d a6 05 40 b7 56 fc 3f
       2.0274105 1.8187903 2.0882866 1.9713963
000030 0d 11 fd 3f 60 71 01 40 69 9f db 3f 39 6a fc 3f
       1.9770828 2.0225449 1.7158023 1.9719917
000040 40 64 0e 40 85 f2 d1 3f a0 c0 da 3f 4f 24 f5 3f
       2.2248688 1.6402136 1.7090034 1.9151706
000050 45 50 c0 3f 00 9b df 3f 70 69 e2 3f 2d 62 db 3f
       1.5024496 1.7469177 1.7688427 1.7139336
000060 ff 52 df 3f 55 cb eb 3f 8f ae fc 3f 8a 81 d3 3f
       1.7447203 1.8421427 1.9740771 1.6523907
000070 69 75 0d 40 c7 06 07 40 ab fc 18 40 bb 9a f1 3f
       2.2102911 2.1097887 2.3904216 1.8875345
000080 9e ce c1 3f 5b 37 04 40 9d 0d 15 40 f0 0b b8 3f
       1.514118 2.0658786 2.328956 1.4378643
000090 33 93 ff 3f 6a e9 06 40 ca 95 fd 3f 7d ff f8 3f
       1.9966797 2.1079965 1.9811337 1.9452969
0000a0 90 a0 ff 3f 08 49 e5 3f d7 a6 db 3f 38 3e 01 40
       1.9970875 1.7912912 1.716029 2.0194225
0000b0 12 9f 11 40 1e c3 fa 3f eb 02 0b 40 63 aa 04 40
       2.275334 1.9590795 2.172053 2.0728996
0000c0 03 9a d2 3f c0 15 c9 3f 57 8c e0 3f de d0 03 40
       1.6453251 1.5709763 1.7542828 2.0596232
0000d0 16 fa c5 3f e4 9e 0f 40 a2 48 08 40 20 b0 e3 3f
       1.5466945 2.244073 2.1294332 1.7788124
0000e0 10 7e c2 3f 46 b5 08 40 3f e2 0c 40 80 49 ee 3f
       1.5194721 2.136064 2.201309 1.861618
0000f0 71 3c e1 3f 24 24 77 40 10 14 de 3f a5 5f 16 40
       1.759657 3.8615808 1.7349873 2.3495877
000100 a5 68 00 40 6a 87 e6 3f 0b af 07 40 c5 fe d5 3f
       2.006387 1.8010075 2.1200588 1.6718374
000110 7b b7 e1 3f eb d2 f3 3f 8d 2c d8 3f e7 10 2d 40
       1.7634119 1.9048742 1.6888596 2.7041566
000120 91 1e e6 3f 8b 3f 0b 40 2e 84 e0 3f 82 a8 d7 3f
       1.7978078 2.1757534 1.7540338 1.68483
000130 24 99 f2 3f 98 6b d4 3f c9 cf c7 3f d0 80 02 40
       1.8952985 1.6595335 1.5610286 2.039112
000140 1d 0a 00 40 ab a6 3c 40 58 c1 c2 3f c5 cc dc 3f
       2.0006173 2.9476726 1.5215254 1.7249991
000150 fd 91 ed 3f e5 7e 05 40 0d ea 11 40 ce ba 0f 40
       1.8560177 2.08587 2.2799103 2.2457767
000160 16 ab d5 3f b0 da f1 3f 79 48 ff 3f 38 b0 00 40
       1.6692836 1.8894863 1.9943992 2.0107555
000170 06 8c fc 3f 23 06 d3 3f 9b 31 14 40 44 69 e8 3f
       1.9730232 1.6486248 2.3155277 1.8157125
000180 5e dd 13 40 c4 e1 dc 3f f9 51 de 3f 7d 5e eb 3f
       2.3103862 1.7256398 1.7368766 1.838821
000190 cb cf c9 3f 85 5e e7 3f 9b 55 f3 3f 4d 16 fd 3f
       1.5766538 1.807572 1.90105 1.9772431
0001a0 2f 0b e3 3f a0 6e db 3f 42 31 e8 3f 20 60 da 3f
       1.7737788 1.7143135 1.8140032 1.7060585
0001b0 b4 2a e5 3f 81 49 fc 3f 3f 32 cc 3f 5f 15 c9 3f
       1.7903657 1.9709932 1.5952834 1.5709647
0001c0 43 9c dc 3f 0f 5b ce 3f 03 bd cf 3f 2e 9e ed 3f
       1.7235187 1.6121539 1.6229557 1.8563898
0001d0 29 fe cb 3f 36 cb cd 3f c6 28 ea 3f 54 75 1a 40
       1.5936939 1.607764 1.8293693 2.4134111
0001e0 4d c7 d1 3f 43 fd dc 3f 42 a4 0c 40 9e f5 0d 40
       1.6388947 1.7264789 2.1975255 2.2181163
0001f0 b2 2d 0c 40 8a 57 fa 3f a2 8c eb 3f 49 b1 eb 3f
       2.190289 1.9557965 1.8402293 1.8413478
000200 fb fb f2 3f 96 2b dc 3f fd 14 00 40 b8 e4 01 40
       1.8983148 1.7200801 2.001281 2.029585
000210 44 ec f5 3f 0b e2 e7 3f f5 49 ff 3f b5 1b dc 3f
       1.9212728 1.8115858 1.9944445 1.7195956
000220 9e 9a f4 3f 5d 7f d0 3f 4d 43 b5 3f 5b 42 3b 40
       1.9109685 1.6288868 1.4161164 2.925925
000230 98 f3 0a 40 90 fd 13 40 eb 7d f1 3f 02 d0 07 40
       2.1711178 2.3123512 1.8866552 2.1220708
000240 35 e8 f6 3f c9 8e d6 3f 38 b2 e5 3f 0e e0 dd 3f
       1.9289614 1.6762325 1.7945013 1.7334001
000250 e1 28 e7 3f 00 e2 f8 3f f6 8e df 3f b1 4b e2 3f
       1.805935 1.944397 1.7465503 1.7679349
000260 d4 f1 ec 3f 6d 6a c4 3f 62 44 f0 3f fc 72 df 3f
       1.85113 1.5344979 1.8770869 1.7456965
000270 74 ad df 3f b0 4d eb 3f 05 4c f1 3f 70 b5 d9 3f
       1.7474809 1.8383083 1.8851324 1.7008495
000280 43 85 e0 3f 1e 93 f1 3f 72 59 e9 3f a1 eb ee 3f
       1.7540668 1.8873022 1.8230422 1.8665658
000290 38 d6 d5 3f 30 07 e3 3f 1a c0 e3 3f b0 87 03 40
       1.6705999 1.7736568 1.7793 2.0551567
0002a0 ba 05 0d 40 96 70 f6 3f db 78 e9 3f 99 6a 02 40
       2.2034745 1.9253109 1.8240007 2.0377562
0002b0 3e b8 e6 3f 8b be f5 3f 9b d2 ef 3f 0f 6b ed 3f
       1.8024976 1.9198774 1.8736147 1.8548297
0002c0 c8 30 f5 3f 67 3e f2 3f 50 3c 19 40 34 ad 03 40
       1.9155512 1.8925294 2.3943062 2.0574465
0002d0 14 c8 fb 3f 73 25 e6 3f 66 97 e3 3f 9e 08 e0 3f
       1.9670434 1.7980179 1.7780578 1.750263
0002e0 e5 f1 da 3f 7c 1e fa 3f d9 e4 f4 3f 5d ad ef 3f
       1.710507 1.9540553 1.9132339 1.8724781
0002f0 32 8d d7 3f 13 72 e9 3f bb 77 ee 3f da f7 d2 3f
       1.6839964 1.8237938 1.8630289 1.6481888
000300 53 6b d5 3f 35 6d 09 40 c4 78 58 40 ef db dd 3f
       1.6673378 2.1472905 3.382371 1.7332743
000310 2f 1f cd bf 27 06 da 3f c5 a4 05 40 15 c1 f3 3f
       -1.6025141 1.7033128 2.0881817 1.9043299
000320 45 04 f1 3f f3 36 d3 3f a8 43 ed 3f 89 00 0f 40
       1.8829428 1.6501144 1.8536272 2.2344077
000330 94 dc cd 3f 4d 2f e9 3f 89 2d e2 3f 4c ec 07 40
       1.608294 1.821756 1.7670146 2.1237974
000340 9f e6 18 40 86 be ce 3f 83 9c c9 3f b0 dd 0e 40
       2.389076 1.6151893 1.5750889 2.2322807
000350 bf 03 d6 3f b7 8e d6 3f 9c 9c 00 40 1b 9d 15 40
       1.6719893 1.6762303 2.0095587 2.337714
000360 7c 2b f2 3f 12 c5 11 40 f8 f2 e8 3f 10 c0 ec 3f
       1.891952 2.2776532 1.8199148 1.8496113
000370 2a 09 07 40 26 33 f6 3f 23 c4 e8 3f c5 01 dc 3f
       2.1099343 1.9234359 1.8184856 1.718804
000380 50 a2 d9 3f 45 e8 25 40 ae 9a e1 3f ba 8d 50 40
       1.7002659 2.5923016 1.762533 3.2586503
000390 6a 0d f3 3f c0 ed 0c 40 ba 59 02 40 25 ae 0c 40
       1.8988469 2.202011 2.0367265 2.198129
0003a0 83 86 cb 3f 11 52 16 40 0d e4 03 40 57 33 c3 3f
       1.5900425 2.348759 2.060794 1.5250043
0003b0 b4 b0 04 40 76 63 23 40 f4 aa f8 3f 49 0a ef 3f
       2.073285 2.5529456 1.9427171 1.8675014
0003c0 31 17 e4 3f 2e 76 04 40 bb f4 02 40 44 d9 d0 3f
       1.7819577 2.069713 2.0461872 1.6316304
0003d0 56 65 10 40 b3 03 e3 3f 14 5b fb 3f 55 37 01 40
       2.256185 1.7735504 1.963717 2.0190022
0003e0 c2 45 fa 3f 9e ab f7 3f 3b 80 0e 40 bb f2 d8 3f
       1.9552538 1.9349248 2.2265766 1.6949075

bias f4 [252]
000000 63 35 92 3d ab 90 38 3e e4 df 9a be 48 eb 59 3e
       0.07139089 0.18023936 -0.3024894 0.21281159
000010 f8 9c 1d 3e 32 f1 3c 3f e4 59 c2 3e 20 d7 a4 bf
       0.1539191 0.73805535 0.37959206 -1.2878151
000020 17 79 76 bf 67 09 08 be a6 69 14 3f 6b 66 3d 3f
       -0.9627852 -0.13284837 0.57973707 0.739844
000030 3f 4b 8c bf 3b ae 96 bf 91 3f 52 3e a4 14 48 3f
       -1.0960463 -1.1771921 0.20532061 0.78156495
000040 be cb 34 bf 11 b3 71 ba f4 46 8e be 3d 20 00 3f
       -0.70623386 -0.00092201034 -0.27788508 0.5004919
000050 2b 87 2b be 78 69 8d 3c d1 5b 73 3e de 6e 97 3e
       -0.16750781 0.017262205 0.23765494 0.29576772
000060 7b 51 7c 3e 0e 1d d1 3d cf cc f2 be 1d 72 b9 3e
       0.24640457 0.1021062 -0.47421882 0.36219874
000070 c9 18 80 bf b6 70 ad bf 72 e7 2f bf 05 77 f5 3e
       -1.0007564 -1.3550022 -0.6871253 0.47942367
000080 9c 33 01 be 73 96 3b bf 10 9f a9 bf 3e 7b 9a 3d
       -0.12617344 -0.7327644 -1.3251667 0.07543038
000090 8b 71 69 bf 63 df 5d 3f 06 b4 b5 3e 37 1f 23 3f
       -0.9118888 0.86668986 0.3548891 0.63719505
0000a0 21 33 5e 3e e7 3b e4 3e d5 99 9d 3e e0 be 44 bf
       0.21699192 0.44576952 0.30781427 -0.7685375
0000b0 97 97 6e 3f 5c 71 1e 3f 39 c7 7c bf 1a 24 fe bd
       0.9320006 0.6189172 -0.9874149 -0.124092296
0000c0 34 84 47 be d0 e1 57 bd 5b 30 f0 be 5d 20 1c be
       -0.19484025 -0.052705586 -0.46911892 -0.1524672
0000d0 bc c1 4e 3e 4d 29 7a 3f 29 d7 17 bf 90 17 c4 3e
       0.20191091 0.9771927 -0.59312683 0.38299227
0000e0 bd 0e 42 3e c3 69 17 bf ec e9 a8 bf 95 6f d9 bc
       0.18950935 -0.59145755 -1.3196387 -0.026542464
0000f0 2a 53 77 3e 25 8a b7 3f 97 ea 11 3e c4 6d 8c bf
       0.24152818 1.4339033 0.14249645 -1.0970998
000100 2d 6a 23 3f 77 b4 39 be c0 5e 42 3f 31 df ad 3e
       0.63833886 -0.18135248 0.7592583 0.33959344
000110 18 a5 eb 3e ed cd 05 3f da 4c d2 bd 0c 90 67 3f
       0.46024394 0.5226734 -0.102685645 0.90454173
000120 9e 92 81 3e a7 18 8b bf 2b 85 bb 3e 08 13 4d 3d
       0.25307173 -1.0866898 0.36625037 0.050066978
000130 07 81 e0 3e aa 17 d3 bd 4a e3 92 be e0 dd 2a be
       0.4384844 -0.10307248 -0.28689033 -0.16686201
000140 3b de 06 3f 32 63 6d 3f 29 b7 0c bf 49 56 b5 3e
       0.52682847 0.92729485 -0.5496698 0.35417393
000150 21 b6 ea 3e a8 27 4e 3f ca a2 94 be 49 e3 89 3f
       0.45842078 0.8052926 -0.29030448 1.0772487
000160 e8 b4 96 be 05 0f 58 3e 69 6b 56 3f 0a 69 5b 3e
       -0.29434896 0.2109948 0.83757645 0.21426788
000170 a7 15 15 3f 15 2d 69 3e c5 43 ba bf 9c 46 fb 3e
       0.58236164 0.22771104 -1.4551932 0.49077308
000180 d7 90 c2 bf 65 5f a0 3e c6 4e ae 3e 89 ab f4 bc
       -1.5200452 0.3132278 0.34044474 -0.02986695
000190 ed fd f7 bd 7e e3 48 3e 2d d1 09 3f 30 27 02 3f
       -0.121089794 0.19618031 0.538348 0.50841045
0001a0 78 87 9c 3e eb 0c 99 bd 2c 5c a1 3c e1 35 91 3d
       0.30572104 -0.07473167 0.019697271 0.07090355
0001b0 11 fe 24 3e eb 84 fb 3e 78 3c 8f 3d a7 8f e7 3c
       0.16112544 0.49124846 0.069939554 0.028266741
0001c0 fb e4 bf 3e 37 66 03 be 86 4e 0a 3e aa 66 7e 3e
       0.37479386 -0.1283196 0.13506517 0.2484385
0001d0 96 71 4c 3a 79 39 5f 3e 25 0e 0f 3f 03 a7 69 bf
       0.0007798908 0.21799268 0.5588096 -0.91270465
0001e0 22 54 84 3e 8a d1 e2 3d 73 64 8f bf 92 64 a2 bf
       0.25845438 0.11075123 -1.120253 -1.2686942
0001f0 10 9c 09 bf 65 fa c5 3e a8 a6 1e 3e bb 8a 5a be
       -0.5375376 0.38667598 0.15493262 -0.21341984
000200 11 45 4f 3e cd 15 b7 3e 5c 82 1f 3f 76 4d 11 3f
       0.2024119 0.3575882 0.6230829 0.5675882
000210 e8 d3 cb 3e cb 2a 73 3b 2d 63 e8 bd 77 78 fe 3d
       0.3981011 0.0037104364 -0.11347041 0.124253206
000220 c2 77 96 3e f9 9c bf be 2f a5 78 bd cd e2 87 3f
       0.29388243 -0.37424448 -0.060704406 1.0616089
000230 db 7c 27 3f 6e a7 81 3f 2a 69 e6 3e 61 b4 6d bf
       0.6542489 1.012922 0.4500211 -0.9285336
000240 f1 80 e9 3e 9a 0f 86 bd 59 1e 68 3e 76 6b 8d 3e
       0.45606187 -0.065459445 0.22667827 0.2762105
000250 87 2f da 3e 7b ab 0a 3f 15 71 4c 3e be 72 47 3e
       0.42614385 0.5416791 0.19965012 0.19477364
000260 12 fe e1 3e 69 7f a1 3e e8 f8 ca 3e 9a 33 19 3e
       0.44139153 0.3154252 0.39643025 0.1496109
000270 7e c6 d8 3d a9 62 e7 3e fd d5 47 bf 88 dd 89 3e
       0.105847344 0.4519246 -0.78060895 0.26926827
000280 ff b9 83 3e 98 95 8d bd 48 cd c1 3e 00 ae be 3e
       0.2572784 -0.06913298 0.3785193 0.37242126
000290 dc 64 34 3e f8 83 60 3e 11 e8 f2 3e 09 3a 62 3f
       0.176166 0.21925342 0.47442678 0.88369805
0002a0 a1 20 4c 3f e2 81 c4 3e 6c 56 79 3e b5 51 1f 3f
       0.7973729 0.38380343 0.24349374 0.6223405
0002b0 ee 72 65 3e 17 fc 80 3e 51 2b 7c be 37 e3 ce 3d
       0.22407123 0.2519233 -0.24625899 0.101019315
0002c0 bb b6 63 bf 2e 4b 63 3e d8 3b 98 3f ed 0f 33 3f
       -0.889507 0.22196648 1.1893263 0.69946176
0002d0 8a 7a aa 3e 1e 33 c0 3e 6d 1b 2f 3f 90 33 30 3e
       0.33296615 0.37539 0.68401223 0.1720717
0002e0 0c d0 97 3e ce 03 1d 3d 4e 40 04 3f b6 97 e7 3e
       0.29650915 0.038333707 0.5166062 0.45232934
0002f0 3c e9 45 3e ac 5c 1d bd 3d 98 73 bc 75 d3 ba 3e
       0.19327253 -0.038418457 -0.014867839 0.36489454
000300 85 16 63 3e c1 dc a6 bf b7 99 8b 3f 5a b4 d6 3e
       0.2217656 -1.3036119 1.0906285 0.41934472
000310 98 4e c8 bd 47 71 6d 3e b9 11 1b 3f 11 8f d5 3b
       -0.097806156 0.23187743 0.6057392 0.006517299
000320 05 cc 71 3e f8 00 0d 3e 33 9b 8e 3e fc 09 c4 bf
       0.23612984 0.13769901 0.27852783 -1.5315547
000330 55 1e bb bd 0e 49 9a be 78 cb 33 3e b1 ce 72 bf
       -0.09136645 -0.3013386 0.17558086 -0.94846636
000340 ce 11 8c 3f bc 4a 59 3c 83 d6 a1 3d 28 3a 2d 3f
       1.0942934 0.013262447 0.07902243 0.67666864
000350 ed fb 01 3e 3d 68 62 3d 4b 4e db 3e 81 3c 2d 3f
       0.12693758 0.05527519 0.4283317 0.67670447
000360 66 96 07 3f 8f 81 97 bf 58 4f 14 3f 24 0e 21 3d
       0.52963865 -1.1836413 0.5793357 0.039320126
000370 1e 08 2f 3f 82 9b 21 3f 88 e0 f1 3e 3a 9e ed bd
       0.6837176 0.6312791 0.47241616 -0.11602445
000380 1f 62 6b bd ab 8c 9d bf e6 53 af 3e 85 80 95 3f
       -0.057466622 -1.2308553 0.34243697 1.1679846
000390 46 0b 3a bc cb 78 1a 3f 81 dc db 3e 5f c5 8e 3f
       -0.011355227 0.60340565 0.4294167 1.1153983
0003a0 0f e2 a1 3d 1d b0 5b bf 4b f1 e3 3e aa 41 48 3e
       0.079044454 -0.858156 0.4452003 0.19556299
0003b0 73 28 7d bf 01 c0 95 3f bc 40 b7 3e c1 9c 31 3e
       -0.98889846 1.169922 0.35791576 0.17344953
0003c0 53 54 69 3e e5 5f 22 bf 20 d8 64 3f dd 64 0a 3e
       0.22786073 -0.63427573 0.8939228 0.13515039
0003d0 91 ad 9f bf 2f be d4 3e 82 02 27 3f b1 f5 21 3f
       -1.2474843 0.4155135 0.652382 0.6326552
0003e0 a1 da ae bf c2 d9 65 3d 69 ca 6d 3f 8c 46 c3 3d
       -1.366047 0.056115873 0.9288698 0.0953494

running_mean f4 [252]
000000 ad df fd 46 28 46 cd 46 cc f4 a5 47 44 d5 2b 47
       32495.838 26275.078 84969.59 43989.266
000010 ab 1e d8 46 5e dd 31 47 7c 0e 01 47 f0 a3 2d 47
       27663.334 45533.367 33038.484 44451.938
000020 9c 0d 52 47 19 10 b1 46 d8 8d 5f 47 5c 53 91 46
       53773.61 22664.049 57229.844 18601.68
000030 03 30 f0 47 e4 42 46 47 48 6f 45 47 80 20 2e 47
       122976.02 50754.89 50543.28 44576.5
000040 93 54 a0 46 98 02 71 46 1d 86 f7 46 8e 2e 02 47
       20522.287 15424.648 31683.057 33326.555
000050 01 74 92 46 a1 8f 07 47 0f da 80 46 c3 b1 18 47
       18746.002 34703.63 16493.03 39089.76
000060 a5 41 d8 46 8d 35 9c 46 05 60 ad 47 02 02 cc 46
       27680.822 19994.775 88768.04 26113.004
000070 e0 59 56 47 55 e5 cc 47 a7 c1 05 47 f7 81 a7 46
       54873.875 104906.664 34241.652 21440.982
000080 a3 c4 63 46 18 00 a5 47 1d 95 92 47 cd fd 84 46
       14577.159 84480.19 75050.23 17022.9
000090 76 8e b6 47 da 34 fe 46 92 8f 0e 47 8b 5b ba 46
       93468.92 32538.426 36495.57 23853.771
0000a0 45 d5 72 47 b5 49 c7 46 88 40 f4 46 39 f9 ca 46
       62165.27 25508.854 31264.266 25980.611
0000b0 89 b9 0d 47 21 30 a1 46 bc 68 18 47 88 8b 58 46
       36281.535 20632.064 39016.734 13858.883
0000c0 05 63 74 46 35 73 bc 46 25 e1 19 46 7b 5c 36 46
       15640.755 24121.604 9848.286 11671.12
0000d0 ad d8 a7 46 0f ca 40 47 49 9e cd 46 b6 55 b1 46
       21484.338 49354.06 26319.143 22698.855
0000e0 68 39 80 46 6c 51 9a 47 4f a1 dd 47 d7 90 49 46
       16412.703 79010.84 113474.62 12900.21
0000f0 5a d4 20 47 66 eb ef 46 be 29 bc 46 f0 07 0d 48
       41172.35 30709.7 24084.871 144415.75
000100 62 51 57 46 e3 24 ac 46 95 93 3f 47 d4 9a 87 46
       13780.346 22034.443 49043.582 17357.414
000110 38 20 a5 46 94 22 cd 46 21 ed 3f 47 3b 65 a4 46
       21136.11 26257.29 49133.13 21042.615
000120 71 6d 93 46 cd 19 09 48 45 32 cc 46 65 d4 11 47
       18870.72 140391.2 26137.135 37332.395
000130 e4 6f 34 47 bb 59 dd 46 a5 97 39 46 28 9a 5c 47
       46191.89 28332.865 11877.911 56474.156
000140 01 8b 3f 47 4d 04 0c 47 a7 c0 ad 46 22 7a da 46
       49035.004 35844.3 22240.326 27965.066
000150 4d 62 d9 46 76 d0 df 46 d6 a7 04 47 5e b0 05 47
       27825.15 28648.23 33959.836 34224.367
000160 16 e6 4f 46 42 17 25 47 0b 04 15 47 98 59 56 47
       13305.521 42263.258 38148.043 54873.594
000170 87 17 13 47 38 34 ca 46 39 5f be 47 66 10 cc 46
       37655.527 25882.11 97470.445 26120.2
000180 b0 27 dd 47 14 51 10 47 e5 45 dd 46 6a 40 82 47
       113231.375 36945.08 28322.947 66688.83
000190 92 90 ee 46 cf ce 2f 47 57 b2 aa 46 96 98 8b 46
       30536.285 45006.81 21849.17 17868.293
0001a0 6f da 0e 47 23 6b a3 46 be 8f 85 47 5b 6d ce 46
       36570.434 20917.568 68383.484 26422.678
0001b0 e5 26 69 47 18 8f 62 46 9e 72 ff 46 b4 a9 db 46
       59686.895 14499.773 32697.309 28116.852
0001c0 66 ea d7 46 5c 3c 80 46 cb ad 37 47 24 f6 5e 47
       27637.2 16414.18 47021.793 57078.14
0001d0 16 f3 bd 46 32 51 ad 46 4e 35 fa 46 12 66 97 46
       24313.543 22184.598 32026.652 19379.035
0001e0 66 4d dc 46 db 92 f1 46 14 28 e3 47 f1 d2 1a 48
       28198.7 30921.428 116304.16 158539.77
0001f0 34 37 a0 46 7e fa 10 47 e1 02 2e 47 39 dc d7 46
       20507.602 37114.492 44546.88 27630.111
000200 fb 21 61 47 3e 31 95 46 26 87 b3 46 5a 41 0b 47
       57633.98 19096.621 22979.574 35649.35
000210 4e 71 be 46 ef 58 bb 46 43 7f 9a 47 1e a8 4c 47
       24376.652 23980.467 79102.52 52392.117
000220 e2 f7 12 47 dd 96 ed 46 16 90 a5 46 d9 04 a3 46
       37623.883 30411.432 21192.043 20866.424
000230 f0 cf 7d 46 1c 07 19 47 ff 9a dd 46 d5 a3 ef 47
       16243.984 39175.11 28365.498 122695.664
000240 df 7c 28 47 3f d3 13 47 3d c0 26 47 77 27 e4 46
       43132.87 37843.246 42688.24 29203.732
000250 16 7d c8 46 ad c4 21 47 9a 1d fc 46 c2 e7 28 47
       25662.543 41412.676 32270.8 43239.758
000260 e5 dd f3 46 88 d9 c0 46 0d 0a 22 47 3a 4b e4 46
       31214.947 24684.766 41482.05 29221.613
000270 51 04 1e 47 73 ae 20 47 3c 5e a6 47 8f 32 ef 46
       40452.316 41134.45 85180.47 30617.28
000280 0f da 1e 47 43 79 95 46 10 a9 09 47 d2 9e ef 46
       40666.06 19132.63 35241.062 30671.41
000290 2d 39 1a 47 3b 00 58 47 cf 1e b9 46 86 bb eb 46
       39481.176 55296.23 23695.404 30173.762
0002a0 07 7f f5 46 78 0a 44 46 18 d9 9d 46 dd b4 2b 47
       31423.514 12546.617 20204.547 43956.863
0002b0 1e 7f 0a 47 03 9e fc 46 28 4a 88 46 1a e2 43 47
       35455.117 32335.006 17445.078 50146.1
0002c0 d5 fe da 46 96 d7 45 47 02 89 eb 46 4e 8e 2d 47
       28031.416 50647.586 30148.504 44430.305
0002d0 2f 78 22 47 08 c3 cd 46 ce 0c 51 46 b3 fb ce 46
       41592.184 26337.516 13379.201 26493.85
0002e0 60 82 bf 46 58 5e 0b 47 ce 16 8e 46 9b 58 22 47
       24513.188 35678.344 18187.402 41560.605
0002f0 cb ba d1 46 86 1d 6f 46 db 05 36 47 43 10 e8 46
       26845.396 15303.381 46597.855 29704.13
000300 64 23 eb 46 b6 35 a1 47 ef 00 e7 46 a3 b1 bf 46
       30097.695 82539.42 29568.467 24536.818
000310 37 47 af 46 f1 d4 99 46 83 99 2a 47 a4 e0 78 46
       22435.607 19690.47 43673.51 15928.16
000320 bb 9d 2a 47 87 31 ac 46 5e 6a c0 46 b6 56 cd 47
       43677.73 22040.764 24629.184 105133.42
000330 d1 8c 49 46 fa cd a8 46 24 62 db 46 5b b9 c6 47
       12899.204 21606.988 28081.07 101746.71
000340 0a c1 c9 46 72 f3 5e 46 6e 1d d1 46 6d a1 8a 46
       25824.52 14268.861 26766.715 17744.713
000350 80 0f 0f 47 a4 78 30 47 3d 19 8e 46 14 cc 71 46
       36623.5 45176.64 18188.62 15475.02
000360 0b 3d 11 47 a9 82 b5 46 3d 44 15 47 91 7c 80 47
       37181.043 23233.33 38212.24 65785.13
000370 53 ce 3d 47 f4 64 bf 46 9c c1 07 47 81 37 98 47
       48590.324 24498.477 34753.61 77935.01
000380 20 0c 62 47 c2 11 a0 46 fb b0 b5 46 59 b8 01 47
       57868.125 20488.879 23256.49 33208.348
000390 b1 30 73 47 5d 6f 3e 46 6d f7 00 47 fa 98 5f 47
       62256.69 12187.841 33015.426 57240.977
0003a0 27 f9 72 46 81 ee 06 48 3a d1 c9 46 68 90 04 47
       15550.288 138170.02 25832.613 33936.406
0003b0 e9 51 f5 47 5c 11 05 47 90 a2 9d 46 5f dc 4f 47
       125603.82 34065.36 20177.281 53212.37
0003c0 9d 04 d8 46 8c 78 e8 47 a3 8b 06 47 56 8f e2 46
       27650.307 119025.09 34443.637 28999.668
0003d0 30 e9 1f 48 a5 73 22 47 5b 7f 0c 47 45 8e 6b 47
       163748.75 41587.645 35967.355 60302.27
0003e0 97 cc e5 47 a2 9f 11 47 9d 74 28 47 70 29 d0 46
       117657.18 37279.633 43124.613 26644.719

running_var f4 [252]
000000 fa 6e 45 4e a8 69 38 4e 5b 9f 3a 4f 95 5e 95 4e
       8.280961e+08 7.73483e+08 3.1310057e+09 1.2530019e+09
000010 84 8e 12 4e 08 59 04 4f ae bd a5 4e 17 12 62 4e
       6.1470336e+08 2.2204273e+09 1.3903357e+09 9.482091e+08
000020 c7 47 b3 4e 1f a3 3b 4e 29 27 1c 4f 46 03 74 4e
       1.5039128e+09 7.870074e+08 2.619812e+09 1.0234638e+09
000030 46 b0 c9 4f ed 97 a1 4e e7 23 dc 4e 8a 62 3b 4f
       6.7675453e+09 1.3555442e+09 1.8466702e+09 3.1437972e+09
000040 7b 9c 48 4d da 8d 18 4d 09 e3 32 4e a6 a4 b8 4e
       2.1035614e+08 1.5996458e+08 7.5030586e+08 1.5488991e+09
000050 07 b0 17 4e fb b4 26 4e 04 8c c9 4d 86 57 d5 4e
       6.3622394e+08 6.9921965e+08 4.2267456e+08 1.7896415e+09
000060 21 c5 69 4e 2d 02 77 4d 4c a6 43 4f 20 48 81 4e
       9.805026e+08 2.5900718e+08 3.2824556e+09 1.0844938e+09
000070 a1 71 ae 4e 3d c7 9b 4f 00 08 16 4e 1b 6e 87 4e
       1.4633412e+09 5.2270515e+09 6.292767e+08 1.13607e+09
000080 ab e7 16 4d 6f 2b 21 4f 09 74 22 4f bc 94 de 4d
       1.5823531e+08 2.7039782e+09 2.7255135e+09 4.6678618e+08
000090 bd 17 6f 4f 7a 8b cd 4e c5 30 a2 4e d9 2f 85 4e
       4.0113103e+09 1.724235e+09 1.3605526e+09 1.1172527e+09
0000a0 a6 08 14 4f cf 05 3d 4e 9f 58 8f 4e e9 00 9f 4d
       2.4835948e+09 7.928186e+08 1.2024749e+09 3.3345462e+08
0000b0 dc d2 16 4f 67 81 c0 4e 7c a3 35 4e 1f 25 a2 4c
       2.5304013e+09 1.614853e+09 7.6184755e+08 8.501068e+07
0000c0 bc 2d 03 4d 4b b0 e0 4d f7 0a 54 4c 1d 87 42 4c
       1.3755078e+08 4.7120624e+08 5.5585756e+07 5.0994292e+07
0000d0 58 ed 0b 4e 2b 5a 50 4f 69 42 9c 4d d0 d0 39 4e
       5.868969e+08 3.4955702e+09 3.2769974e+08 7.793674e+08
0000e0 bf 98 dc 4d 8c f4 22 4f e4 c6 a7 4f 3b 7f 86 4c
       4.6262474e+08 2.7339356e+09 5.629659e+09 7.051516e+07
0000f0 99 56 d0 4e 43 a9 93 4f 0b 23 3b 4e 77 2e e9 4f
       1.7476681e+09 4.954687e+09 7.84909e+08 7.824273e+09
000100 25 a3 43 4e d3 35 8b 4d 73 84 08 4f 10 dc c9 4d
       8.2056224e+08 2.9194506e+08 2.2903816e+09 4.233303e+08
000110 88 92 06 4e af 03 1f 4e 14 6a 9e 4e a7 58 fb 4e
       5.644375e+08 6.669547e+08 1.328876e+09 2.1084456e+09
000120 cf 75 08 4e 00 0e e0 4f fb 76 5c 4e 57 33 89 4e
       5.723555e+08 7.518028e+09 9.2469626e+08 1.1509216e+09
000130 90 47 e0 4e c6 bf 89 4e a2 f3 c4 4c e5 f1 9e 4e
       1.8813932e+09 1.1555233e+09 1.0325941e+08 1.3333265e+09
000140 90 88 fc 4e 94 9a c1 4f 3f 45 f6 4d 62 ea 8d 4e
       2.1184041e+09 6.496266e+09 5.1646666e+08 1.190474e+09
000150 da 90 b0 4e c3 6e 8a 4e b6 9b 25 4e 50 42 23 4f
       1.4811415e+09 1.1612573e+09 6.946113e+08 2.739032e+09
000160 da d1 18 4d 8a e8 a6 4e 79 54 ec 4e 23 63 35 4f
       1.602431e+08 1.4001288e+09 1.9824795e+09 3.043173e+09
000170 c0 64 09 4f ca 4e 11 4e b2 c3 82 4f 3d f7 5c 4e
       2.3050813e+09 6.0946496e+08 4.3877263e+09 9.2679763e+08
000180 28 4f b6 4f 9a 74 d1 4e 95 3a 89 4e db 33 e0 4e
       6.117282e+09 1.7570399e+09 1.1511589e+09 1.8807474e+09
000190 9c 04 42 4e 2c 38 a7 4e 70 59 76 4e 40 f0 c9 4e
       8.137705e+08 1.4027382e+09 1.0332641e+09 1.6939827e+09
0001a0 9c 41 b7 4e ea 7d 77 4d d5 38 02 4f 38 5a 01 4e
       1.5372652e+09 2.5951402e+08 2.1847626e+09 5.4254336e+08
0001b0 c2 6f e5 4e ac 8d 88 4e c7 f3 98 4e 9c 3a 20 4e
       1.9246533e+09 1.145493e+09 1.2830565e+09 6.720489e+08
0001c0 c1 3e bc 4e ba 6f 80 4d 58 f7 97 4e e9 67 de 4e
       1.5791146e+09 2.6935072e+08 1.2747848e+09 1.8656759e+09
0001d0 69 a1 38 4e 11 16 31 4e e7 7f b6 4e ee 69 26 4d
       7.743965e+08 7.4275334e+08 1.5309178e+09 1.744975e+08
0001e0 b4 76 62 4e a4 9b af 4e dd 61 a4 4f 1f 38 0a 50
       9.4985754e+08 1.4731064e+09 5.515754e+09 9.275735e+09
0001f0 0a b7 2e 4d db 04 00 4f 2d 09 8d 4e fc 10 f2 4d
       1.8320195e+08 2.1478019e+09 1.1830944e+09 5.0764992e+08
000200 5b 31 ce 4e a1 0a 25 4e 20 f2 9c 4e 60 cf c7 4e
       1.7296705e+09 6.922343e+08 1.3165568e+09 1.6761283e+09
000210 a6 e9 8a 4e bc 2f c4 4d 7a 96 25 4f d8 e4 c3 4e
       1.1652841e+09 4.1143283e+08 2.7781023e+09 1.6432773e+09
000220 02 aa a7 4e 31 ae 4c 4e ee 43 d9 4d 57 b5 02 4f
       1.4064684e+09 8.5849197e+08 4.5563846e+08 2.1929224e+09
000230 bb c8 52 4e c6 c0 1a 4f 7c 5c ac 4e 2e 0f 8d 4f
       8.840926e+08 2.5963249e+09 1.4458711e+09 4.7331645e+09
000240 33 73 bd 4e 9b b8 8c 4e 01 c3 c3 4e 69 de 63 4e
       1.5892218e+09 1.1804543e+09 1.6421684e+09 9.55751e+08
000250 55 08 7c 4e 9a 15 b9 4e 02 92 c0 4e a4 c7 d0 4e
       1.0571011e+09 1.5526003e+09 1.6153971e+09 1.7513723e+09
000260 d0 93 d3 4e 88 bf 65 4e f2 59 c1 4e d2 08 3c 4e
       1.7748398e+09 9.6363366e+08 1.6219487e+09 7.8867366e+08
000270 e4 3f 82 4e 44 09 02 4f f5 aa 24 4f 3b ce 95 4e
       1.0926126e+09 2.1816453e+09 2.7626673e+09 1.2566604e+09
000280 f2 a4 ba 4e 39 ae e6 4d 8a 40 bd 4e 00 49 87 4e
       1.565686e+09 4.837722e+08 1.5875617e+09 1.1348541e+09
000290 b0 b0 94 4e cd 4a db 4e 88 91 76 4e f3 9b bd 4e
       1.2473037e+09 1.8395562e+09 1.0341832e+09 1.590557e+09
0002a0 f5 2c b7 4e 02 ee e6 4d 2c 03 31 4e f1 78 1d 4f
       1.5365884e+09 4.8429472e+08 7.424438e+08 2.641949e+09
0002b0 0e d9 98 4e b7 79 47 4e bf 10 53 4d 3b 89 06 4f
       1.2821809e+09 8.366607e+08 2.2131813e+08 2.2571405e+09
0002c0 54 6b 0a 4e 2b fb ce 4e 7b ca 04 4f e6 99 11 4f
       5.805724e+08 1.7362835e+09 2.2278623e+09 2.4427822e+09
0002d0 23 c8 a0 4e e2 7f 3a 4e 9f 3e f9 4d 4d 53 19 4e
       1.3487354e+09 7.822358e+08 5.2270384e+08 6.430933e+08
0002e0 b3 31 45 4e 51 e4 6f 4e c0 a4 f3 4d b0 7f 14 4f
       8.2709216e+08 1.0061794e+09 5.1095757e+08 2.491396e+09
0002f0 95 6f 3e 4e 06 78 dc 4c 5b 01 a3 4e 03 e3 ae 4e
       7.987459e+08 1.1558917e+08 1.3673875e+09 1.4670565e+09
000300 74 d4 84 4e 28 a7 45 4f ea a4 79 4f 59 3b 7f 4e
       1.1142579e+09 3.3160663e+09 4.1883346e+09 1.0705199e+09
000310 98 8f 04 4e 4b de e6 4d 22 eb 48 4f ea e7 f6 4c
       5.560008e+08 4.8416598e+08 3.3708529e+09 1.2944981e+08
000320 75 8a a0 4e 3b a4 12 4e 19 71 4f 4e 1b 0a a0 4f
       1.3467142e+09 6.1505914e+08 8.700739e+08 5.3700337e+09
000330 2f 65 39 4d e1 9d d9 4d 9b 9a 9c 4e 4e 8f 91 4f
       1.9440101e+08 4.5637533e+08 1.313689e+09 4.884176e+09
000340 bd a2 86 4e 26 5e 51 4d 9b a8 7b 4e 40 d2 cd 4d
       1.1294061e+09 2.1953802e+08 1.05553274e+09 4.3163853e+08
000350 e0 71 70 4e 11 db 98 4e bc 9c 10 4e 85 06 a7 4e
       1.0084987e+09 1.2822468e+09 6.065477e+08 1.4011112e+09
000360 62 3d f2 4e 21 a7 61 4d 19 3b de 4e 73 41 e2 4e
       2.0320545e+09 2.3661416e+08 1.8642075e+09 1.89797e+09
000370 7f c3 11 4f 62 18 8d 4e 04 26 d6 4e a9 8c 0b 4f
       2.4455084e+09 1.1835927e+09 1.7964078e+09 2.3412513e+09
000380 55 4e 9e 4e 93 27 24 4d d2 b2 5e 4e d1 42 a7 4f
       1.3279668e+09 1.7212856e+08 9.340653e+08 5.612348e+09
000390 80 a7 c9 4e e1 4f d8 4d 74 3e 21 4f e4 de 85 4f
       1.6915988e+09 4.536392e+08 2.7052247e+09 4.491954e+09
0003a0 17 e5 52 4d 98 13 c0 4f 99 f5 77 4e c2 75 c7 4e
       2.2113931e+08 6.445019e+09 1.04001696e+09 1.6731917e+09
0003b0 78 03 cd 4f 96 c2 e6 4e c1 91 2a 4e 24 06 04 4f
       6.879113e+09 1.935756e+09 7.154197e+08 2.214995e+09
0003c0 4c 3c 84 4e 10 b3 9f 4f 9f 80 20 4f d6 75 78 4e
       1.109272e+09 5.358625e+09 2.6927839e+09 1.042118e+09
0003d0 23 dc 07 50 ba 5e f1 4e 32 dc f2 4e 21 14 5c 4f
       9.117404e+09 2.0247585e+09 2.0372585e+09 3.6923067e+09
0003e0 46 e4 c0 4f 8b 32 72 4e ad 48 ea 4e 4f 64 1b 4e
       6.472371e+09 1.01584966e+09 1.9653157e+09 6.517606e+08

weight f4 [252, 252]
000000 97 d2 b4 3f bc 3f 6e bf 6b 06 ab bf 48 1f c2 c0
       1.4126767 -0.93066 -1.3361334 -6.0663185
000010 22 a7 32 40 51 40 ad bf 5e 0a b1 bf 17 65 ca 3f
       2.791451 -1.3535253 -1.3831289 1.58121
000020 b0 a5 91 3e 32 b5 f8 3f 40 05 ab 3e 3e 25 74 40
       0.28446722 1.9430296 0.33402443 3.814773
000030 d2 5e d4 bf 53 b3 18 3f 6c 2e 7f c0 f0 06 95 be
       -1.6591437 0.5964863 -3.9872084 -0.29106855
000040 35 99 12 be 6f 00 56 40 a0 90 53 3e 9a ae 0e c0
       -0.14316256 3.3437765 0.20660639 -2.2294068
000050 eb 6b 00 c0 87 a3 4a bf 3e d5 82 be 62 9d 01 bf
       -2.0065868 -0.7915577 -0.25553316 -0.5063077
000060 0c 08 44 bf eb 95 1e bf 4b 9b 1c bf e1 e6 0b 3f
       -0.7657478 -0.61947507 -0.6117446 0.5464917
000070 63 0e 29 bf 13 1e 1f 40 4d 07 85 3f bf d6 e6 3f
       -0.6603758 2.4862106 1.0392853 1.8034285
000080 ab 4d 40 3f 40 a5 90 bf 75 5d 81 c0 66 7f da 3e
       0.7511851 -1.130043 -4.0426583 0.42675322
000090 30 4f 2b be 2e b5 9c be f6 57 f9 bf 5e 7b fe bf
       -0.16729426 -0.3060698 -1.9479969 -1.9881399
0000a0 58 9d c2 40 d1 80 12 3f ee 4c a7 3c 9b d0 da 3e
       6.081707 0.5722781 0.020422425 0.42737278
0000b0 78 61 eb bf 51 81 b8 bf b9 9d 0e bf 50 0a 93 3f
       -1.838912 -1.4414464 -0.55709416 1.1487522
0000c0 03 58 6b 40 7d c7 0a 41 ec 4d 94 3d 50 3c 84 bf
       3.6772468 8.673703 0.07241425 -1.0330906
0000d0 64 57 c9 bf 52 ad 1d c0 f6 9a 21 be 0e f5 59 3f
       -1.5729795 -2.4637036 -0.15781769 0.8513955
0000e0 fd 3b 6f bf 4e 92 62 bf ea 3d a8 3e ba 3f 04 40
       -0.9345091 -0.88504493 0.32859737 2.0663896
0000f0 d4 30 a7 3e 95 e2 b2 3d 6e fe b6 3e 1f be 02 40
       0.3265444 0.08734623 0.3574099 2.042854
000100 3e 7b 89 be c2 72 94 3e e7 68 a4 3f cd 17 a9 bf
       -0.2685184 0.28993803 1.2844514 -1.3210388
000110 0d 00 d5 3f 73 9b 2e bf e1 b8 74 bf 95 ec 11 3e
       1.664064 -0.68205947 -0.955946 0.14250405
000120 24 c9 18 bf aa 21 a4 3e c3 a8 6a bf d1 9b 1a 40
       -0.59681916 0.32056934 -0.9166376 2.4157603
000130 b3 10 bb 40 f3 82 8f 3e 31 35 ec 3d c3 37 cf bf
       5.8457885 0.28029594 0.11533583 -1.6188892
000140 40 be a1 3f 50 23 2c c0 de 30 7d c0 de 74 56 bf
       1.2636185 -2.6896553 -3.9561076 -0.83772075
000150 08 e2 0e bf 6f 02 37 bd b4 57 48 c0 d8 f0 a0 40
       -0.55813646 -0.044680055 -3.130353 5.0294
000160 d0 87 c8 be 4b be c4 c0 68 99 b7 3f 28 e6 26 40
       -0.39166117 -6.148229 1.4343691 2.6077976
000170 ce 89 e8 3e 8d 24 82 c0 bb 83 45 bf 6f f7 f9 3e
       0.45417637 -4.066962 -0.7715413 0.4882159
000180 46 f8 07 40 01 1c e8 3e 62 64 d6 bf 69 8f 71 3f
       2.1245284 0.45333865 -1.6749384 0.9435945
000190 b4 80 53 41 56 32 76 3f b8 d1 96 bf 20 a7 cf 3f
       13.218922 0.96170557 -1.1782751 1.6222878
0001a0 2a f9 d8 3f f4 e8 56 3f a0 23 b7 3f 27 2a af be
       1.6951039 0.8394921 1.4307747 -0.34211847
0001b0 a1 b1 a3 bf f9 f5 87 be 48 5b 68 bf d6 7a 0e 40
       -1.2788583 -0.2655485 -0.90764284 2.2262473
0001c0 91 7a 27 3f b2 78 50 bf e0 d9 d2 bf 6f 44 83 40
       0.65421396 -0.81434166 -1.647274 4.1021037
0001d0 a8 b7 95 3d 0a 44 49 40 ff 98 82 3e 04 38 93 3f
       0.0731042 3.1447778 0.25507352 1.150147
0001e0 eb b4 b7 3d 5e 38 9a be 25 b9 89 3f 62 67 3e 3f
       0.08970054 -0.3012113 1.0759627 0.743765
0001f0 c8 ce a2 3c c9 41 b4 c0 57 0e a7 bf 9b 07 95 bf
       0.019873992 -5.6330304 -1.3051251 -1.1642946
000200 b9 30 1e c0 ff 85 06 bf 79 e6 c7 3e 9d e2 42 3d
       -2.4717238 -0.5254821 0.39043024 0.047579397
000210 68 f2 84 bf 62 38 ef be 51 d6 0f 3d 4a fd 41 3f
       -1.0386477 -0.46722704 0.035116497 0.75777113
000220 5b a3 62 bf 41 d6 84 3f 50 44 07 c0 0c e8 59 bf
       -0.8853051 1.0377885 -2.1135445 -0.851197
000230 b7 94 4a 3e b3 f5 34 40 91 b6 2b 3e 5f 93 7f 3f
       0.19783293 2.8274963 0.16768862 0.99834245
000240 b6 aa 28 bf 27 b1 92 c0 c0 c5 81 c0 98 d7 d5 bf
       -0.65885484 -4.584125 -4.0553894 -1.6706419
000250 cb 1c d6 bf dd bb 41 bf 12 cf 0a 41 f8 fb c8 be
       -1.6727537 -0.7567728 8.675554 -0.39254737
000260 e0 71 04 3f 7c c4 e8 3e 4f d4 15 40 3e 8a 82 40
       0.5173626 0.45462406 2.3410833 4.0793753
000270 0a ba 83 bf 9b ec 28 40 fb df 45 be b6 a6 70 bf
       -1.029115 2.6394413 -0.19323723 -0.9400438
000280 46 26 4a 40 f4 93 ad bd 10 39 1c c0 69 9b 4b be
       3.158586 -0.084754854 -2.4409828 -0.19883503
000290 a6 a7 a4 c0 2c 12 86 3f 85 6b d8 be 25 de 7b 3e
       -5.145465 1.0474296 -0.4226953 0.2459646
0002a0 36 3e 0e 40 60 30 d8 be 5a 61 d7 bf c1 d7 75 bf
       2.222547 -0.42224407 -1.6826584 -0.9603234
0002b0 67 80 b0 c0 56 0d 0b 3f 26 7d d8 bf f4 ab 9d 3f
       -5.515674 0.54317224 -1.6913192 1.2318101
0002c0 d8 0e b5 bf 8a cb 82 c0 c2 04 62 40 c2 fe b9 be
       -1.4145155 -4.087346 3.5315404 -0.36327177
0002d0 ab c0 a5 3f 45 3f b5 3e 5c 8f 8a c0 a8 52 91 3f
       1.2949423 0.35399833 -4.33 1.135335
0002e0 c5 5a ac 3f cb 64 6d 41 80 47 c3 bf 72 f9 69 3f
       1.3465201 14.837108 -1.5256195 0.9139625
0002f0 68 76 b3 bd 78 81 10 40 c6 a9 89 40 f4 85 05 40
       -0.087628186 2.2579021 4.3019743 2.0863008
000300 bf 53 5d 3f 7d 1f 3d 3e 2e 1d f4 bf b4 a2 51 41
       0.8645591 0.18469043 -1.9071405 13.102222
000310 18 31 e2 3f 35 53 06 40 1b 66 6c 3f 7d d4 c0 bf
       1.7671232 2.0988286 0.923433 -1.5064846
000320 fb 8f 1e 3f 59 46 00 bf da 5b 8f bf 2b 33 14 3f
       0.61938447 -0.5010734 -1.1199906 0.57890576
000330 5a dc 37 bf 15 f0 e5 bf 09 33 7e 3f 24 14 a8 be
       -0.71820605 -1.7963892 0.99296623 -0.32827866
000340 36 31 9b 3f ff 09 fa 3f 1f 9c 2f bf ca ed 42 c0
       1.2124393 1.95343 -0.68597597 -3.0457635
000350 d9 95 23 c0 45 01 fa bf a2 14 ae 3f 08 55 7f be
       -2.556021 -1.9531637 1.3600047 -0.2493478
000360 45 a1 c8 3f e5 4c 5b be 5f 16 53 bd 9b 07 2c be
       1.5674216 -0.21416052 -0.051535007 -0.16799776
000370 e4 17 45 40 33 e6 fc be 60 dc 85 bf 6e 8c fe 3f
       3.0795832 -0.49394378 -1.0457878 1.9886606
000380 45 b3 06 40 44 41 19 bf 41 e5 09 bf d0 6e e4 bf
       2.1046917 -0.5986521 -0.5386544 -1.7846317
000390 78 6f f1 3e 93 72 1e 3f 5c 21 48 be 12 e6 89 c0
       0.47155356 0.61893576 -0.19543976 -4.3093348
0003a0 c9 eb 5e bf 19 c5 86 3f d9 f8 53 c0 2e 87 69 bf
       -0.8707853 1.05289 -3.3120635 -0.9122189
0003b0 31 f7 11 bf 17 25 2e c0 68 85 8e c0 c1 9f 1b 3e
       -0.5701781 -2.7210138 -4.453785 0.1519766
0003c0 03 29 87 40 45 b1 d9 be 49 a8 1c 40 99 64 6b 3f
       4.2237563 -0.42518058 2.4477713 0.91950375
0003d0 bd 6b 9c 3f af bb 91 40 eb 2a a4 3f d5 4e 05 40
       1.2220379 4.5541606 1.2825598 2.0829365
0003e0 92 23 bb 3e a0 c4 13 40 7f ac d2 be b2 a3 1a bf
       0.36550575 2.308876 -0.4114723 -0.6040603
0003f0 a4 cf 30 3e 1e ac ae bf 1f 0e 27 c0 ab c6 60 bf
       0.17266709 -1.3646276 -2.610237 -0.87803143
