public_models/Dnn3Layers/175.pth (torch_old, 616467 bytes, 14 tensors)

weight f4 [252, 252]
0	0xc01a86ec	-2.414485
1	0x4135e759	11.368981
2	0xc05dcbc7	-3.4655626
3	0x41358d61	11.347016
4	0x41908393	18.064245
5	0xbf22b71c	-0.6356065
6	0x4022fdd9	2.5467436
7	0x41cb7c09	25.435564
8	0x404b45d3	3.1761367
9	0xc0a2f979	-5.092953
10	0xc0a38a8a	-5.1106615
11	0x3fb0b854	1.3806252
12	0xc0381abd	-2.876632
13	0x3ff14297	1.8848447
14	0x40ebb33a	7.3656282
15	0xc0d6abd9	-6.7084775
16	0xc01a9ea5	-2.415933
17	0xc0341f79	-2.814421
18	0x41877dd0	16.936432
19	0xc1836483	-16.424078
20	0xc0197c6d	-2.3982193
21	0xbfea0f5d	-1.8285939
22	0x3fba7fc9	1.4570247
23	0xc03b64db	-2.9280307
24	0xc0ba143e	-5.814971
25	0x4187e3de	16.986263
26	0x40acd3b0	5.4008408
27	0xc0e107e3	-7.0322127
28	0xbe96686a	-0.29376537
29	0xbfddbbc9	-1.7322932
30	0xbfc51e47	-1.5399865
31	0xc00d729b	-2.21012
32	0x3fd5cf85	1.6703955
33	0x3e827bc7	0.2548506
34	0x40e7a6ef	7.2391276
35	0xbd1145e9	-0.035467062
36	0xbfb9abee	-1.4505594
37	0x3f193dc5	0.5985988
38	0xc02bbff5	-2.6835911
39	0x4041f951	3.030842
40	0xc0432ab7	-3.049482
41	0x40e385a0	7.1100616
42	0x3febbd13	1.8417076
43	0xc08aa7a4	-4.332964
44	0x3fabbdd0	1.3417301
45	0x3e446c5e	0.19181964
46	0xbfaff13f	-1.3745497
47	0x3f098e94	0.5373318
48	0x3e791d78	0.24327648
49	0xbeac1549	-0.3360999
50	0xbdb687ed	-0.089126445
51	0x3f32f743	0.6990854
52	0xbfc397cb	-1.5280699
53	0x3ece7949	0.40326908
54	0xbef83b7a	-0.48482877
55	0xbfdc56cd	-1.721399
56	0x3f33591e	0.7005786
57	0xbf0f20bc	-0.55909324
58	0x3ef02b0c	0.46907842
59	0x3f3675db	0.71273583
60	0xbf11afa4	-0.5690863
61	0x3fa173b4	1.2613435
62	0xc0fcd6c9	-7.901219
63	0xc1a2899c	-20.317192
64	0xc08c6b0e	-4.388068
65	0x40bd9957	5.9249682
66	0xc0773c23	-3.8630455
67	0x404dc8fe	3.2153926
68	0x3ec1c340	0.37844276
69	0x3a6c597d	0.00090160203
70	0x3dc55369	0.0963505
71	0x3f988ca9	1.1917926
72	0x3eb09f0d	0.34496346
73	0xbd74eddb	-0.05979715
74	0x401210b6	2.28227
75	0xbfa336f0	-1.275114
76	0xbf16bb96	-0.58879983
77	0x3fae2e32	1.3607848
78	0xbf7986d6	-0.9747137
79	0x3d76dbae	0.060268097
80	0x3f9f4031	1.2441465
81	0xbf936389	-1.1514751
82	0x3fc882ca	1.5664914
83	0x3ed61308	0.41811395
84	0x3e0f8fb2	0.14019659
85	0x3e51cde1	0.20488693
86	0xbdba1aac	-0.090871185
87	0x3e4475a4	0.19185501
88	0xbf41e5b1	-0.75741106
89	0x3f8d60eb	1.1045202
90	0xbf264c0b	-0.6495978
91	0x3d8b775e	0.06809877
92	0x3ea58144	0.32325184
93	0x3daaccef	0.08339869
94	0xbe9b2051	-0.30298093
95	0xbec534b6	-0.38516778
96	0x3f29d710	0.66343784
97	0xbfc1f99f	-1.5154303
98	0x3e57caf1	0.2107351
99	0x3f8b89b8	1.0901403
100	0xc008bbc3	-2.13646
101	0xbe36f149	-0.1786548
102	0x3f15e01a	0.58545077
103	0xbf4775f2	-0.77914345
104	0xbde47fe9	-0.111572094
105	0x3ea29def	0.3176112
106	0x3f990e90	1.1957569
107	0xbea9e88c	-0.33185232
108	0x3e959eef	0.2922282
109	0xbd63b822	-0.055595525
110	0x3db31234	0.08743706
111	0x3fc8702d	1.5659233
112	0xbf95708c	-1.1674972
113	0x3ee57ea8	0.44823194
114	0xbe0cc492	-0.1374686
115	0xbf077d21	-0.52925307
116	0x40054ac1	2.0826876
117	0xbfee53ea	-1.8619359
118	0xbde215d1	-0.110393174
119	0xbd32d4b3	-0.043659877
120	0x3f2a4ff9	0.6652828
121	0xbee53957	-0.4477031
122	0xbf52500d	-0.821534
123	0x3f8ac801	1.0842286
124	0xbecf95f3	-0.4054409
125	0x3f5d46b6	0.8643602
126	0x3f1bcb79	0.6085735
127	0xbf0f7817	-0.5604262
128	0x4028b87b	2.6362598
129	0xbf7a1b8b	-0.9769828
130	0x3f0c98aa	0.54920447
131	0x3fd6f844	1.6794515
132	0x3e1c51f2	0.15265635
133	0xbf6e122c	-0.9299648
134	0x3f2be724	0.6714957
135	0x3dc790a3	0.09744384
136	0xbf728b68	-0.9474397
137	0xbd1ec136	-0.03875848
138	0xbf0d51e7	-0.552031
139	0x3f4f16e6	0.80894315
140	0x3f2b7f79	0.6699138
141	0xbf6f37d5	-0.9344457
142	0x3f9b575b	1.2136034
143	0x3d4e235a	0.050326683
144	0x3fbb4855	1.4631449
145	0x3f841292	1.0318167
146	0xbf252961	-0.64516264
147	0x3fa34981	1.2756807
148	0xbc9f4731	-0.019443126
149	0xbf58a1cf	-0.846219
150	0x40154c6c	2.3327894
151	0xc019161a	-2.391974
152	0xbe95507f	-0.29162976
153	0x402d8b1b	2.7116153
154	0xc03d76e7	-2.9603822
155	0xbfdaf093	-1.7104667
156	0xbf12836e	-0.57231796
157	0x3fb087c0	1.3791428
158	0xc014e0e2	-2.3262258
159	0x3f78278e	0.96935356
160	0x3e8d0d63	0.27549276
161	0xbf2f9404	-0.6858523
162	0x400bb03c	2.1826315
163	0xc01e3f61	-2.4726183
164	0xbfbde953	-1.483683
165	0x4005e420	2.0920486
166	0xbeef34d3	-0.4671999
167	0x4062ad1d	3.541816
168	0xbfa889dd	-1.3167073
169	0x3e2172c3	0.15766434
170	0xbfa709dd	-1.3049885
171	0xbfc891fa	-1.5669549
172	0x406f8c05	3.742921
173	0xbfa11844	-1.258553
174	0x3f9dfd52	1.2342932
175	0x3fa3e9bb	1.2805704
176	0x3f246c61	0.64227873
177	0xc018f323	-2.38984
178	0x402e9972	2.7281156
179	0xbea74f26	-0.32677573
180	0x3f8b3a19	1.0877105
181	0xbf370db1	-0.71505266
182	0x3fb52fed	1.4155251
183	0xbfa91778	-1.3210287
184	0x3fa65e16	1.2997463
185	0x4008a491	2.1350443
186	0x3ed9c9f0	0.4253688
187	0x3fada0b0	1.3564663
188	0xc170759e	-15.028715
189	0xc09b4e13	-4.8532805
190	0x406b075a	3.6723237
191	0x40ee87d2	7.4540796
192	0xc0a79fc1	-5.238251
193	0x409a27b8	4.8173485
194	0x40b8ad77	5.771175
195	0xbffd18b5	-1.9773165
196	0x40961d74	4.6910954
197	0xc1a166b7	-20.175154
198	0xc19a59f8	-19.29393
199	0x4154850c	13.282482
200	0xbfaedc90	-1.366106
201	0x3f7e3b91	0.9930964
202	0xbbe7ac02	-0.0070700655
203	0x3f2b8286	0.6699604
204	0xbf83e96d	-1.0305611
205	0xbfca5011	-1.5805684
206	0x41887c67	17.060743
207	0xc0ed9995	-7.424998
208	0x3c41a61a	0.011819387
209	0x40accd7c	5.4000835
210	0xc07052c6	-3.755052
211	0x407d0c7f	3.9538877
212	0x4122652b	10.149699
213	0xc0efac4f	-7.489784
214	0xc0bc9d14	-5.8941746
215	0x40433977	3.0503824
216	0x3f989cc2	1.1922839
217	0x400370d7	2.0537622
218	0xc18038e9	-16.027788
219	0x3d9a9d93	0.07549586
220	0xbe7c417a	-0.24634352
221	0xc10d733c	-8.840633
222	0x4090a117	4.5196643
223	0x3feabed3	1.8339485
224	0x4212aa03	36.666027
225	0xc1afc991	-21.973421
226	0xc20fdad9	-35.96372
227	0x4060d48d	3.512973
228	0x419b7ffb	19.43749
229	0xc16aa903	-14.666263
230	0x41a50971	20.62961
231	0x40fb268d	7.848456
232	0xc0fc32af	-7.881187
233	0x3e86c516	0.2632224
234	0xc216da25	-37.71303
235	0xc19dc1aa	-19.719563
236	0x40bebfff	5.960937
237	0xc16fc052	-14.984453
238	0x416f5900	14.9592285
239	0xc03c4ae1	-2.9420702
240	0xc0de6153	-6.9493804
241	0x418ad109	17.352068
242	0xc23bfc57	-46.996426
243	0xc22d951e	-43.395622
244	0x408f8093	4.484445
245	0x404685b4	3.1019106
246	0x411a1137	9.629203
247	0xc110dc17	-9.053733
248	0x40896ca6	4.2945127
249	0x4181208c	16.140892
250	0xc20088f3	-32.13374
251	0xc264ba82	-57.182137
252	0x40c1d92e	6.057761
253	0xc10d7673	-8.841418
254	0x4109b185	8.60584
255	0x410a26fa	8.634516

bias f4 [252]
0	0x42b380de	89.75169
1	0xc32f2911	-175.16042
2	0xc42ee118	-699.5171
3	0xc3d9c9fa	-435.57794
4	0xc401c26e	-519.03796
5	0xc3abe80f	-343.81296
6	0xc37858b8	-248.34656
7	0xc448cc21	-803.1895
8	0xc403562b	-525.3464
9	0xc2fa5bf8	-125.17963
10	0xc3e250a3	-452.62997
11	0xc3239d3a	-163.61417
12	0xc44948d3	-805.1379
13	0xc4304aef	-705.17084
14	0xc39e0707	-316.0549
15	0xc41658c5	-601.387
16	0xc4215d3f	-645.457
17	0xc3908b89	-289.09012
18	0xc400919e	-514.27527
19	0xc3d04791	-416.5591
20	0xc3577258	-215.44666
21	0xc42f533c	-701.30054
22	0xc36415b0	-228.08472
23	0xc3d60a09	-428.0784
24	0xc3c9918a	-403.13702
25	0xc4283572	-672.8351
26	0xc42bc3df	-687.0605
27	0xc390ff6f	-289.99557
28	0xc4239535	-654.33136
29	0xc4657170	-917.77246
30	0xc439392c	-740.8933
31	0xc2b60f80	-91.03027
32	0xc38097ca	-257.18585
33	0xc4488be4	-802.1858
34	0xc42a986f	-682.3818
35	0xc328e4a4	-168.89313
36	0xc4131568	-588.3345
37	0xc3b77493	-366.91074
38	0xc3e2760d	-452.92227
39	0xc396adce	-301.35785
40	0xc4142718	-592.61084
41	0xc396e27c	-301.7694
42	0xc36f9752	-239.5911
43	0xc41cc8c1	-627.1368
44	0xc3b98df5	-371.10904
45	0xc30f99ae	-143.60031
46	0xc41d542a	-629.31506
47	0xc458e10e	-867.5165
48	0xc3fdd77b	-507.68344
49	0xc3c2997d	-389.19913
50	0xc44a5ade	-809.4198
51	0xc441bca5	-774.9476
52	0xc29710b0	-75.53259
53	0xc3a5cb7a	-331.58966
54	0xc42b7aee	-685.9208
55	0xc3976197	-302.76242
56	0xc3a90070	-338.00342
57	0xc42112b4	-644.29224
58	0xc42529c9	-660.6529
59	0xc3d808b4	-432.068
60	0xc34cadb9	-204.6786
61	0xc424390e	-656.8915
62	0xc352eabe	-210.91696
63	0xc4462965	-792.6468
64	0xc3d95d03	-434.72665
65	0xc415f5e5	-599.8421
66	0xc3c3e4e5	-391.78824
67	0xc3474323	-199.26225
68	0xc3aa8051	-341.00247
69	0xc4111633	-580.34686
70	0xc44573d8	-789.81006
71	0xc2f93f8f	-124.62414
72	0xc32cbdbb	-172.74113
73	0xc42f0f21	-700.2364
74	0xc3854575	-266.54263
75	0xc392a295	-293.27017
76	0xc35e220b	-222.13298
77	0xc3f62cbb	-492.34946
78	0xc4674972	-925.1476
79	0xc4262281	-664.5391
80	0xc3af06db	-350.05356
81	0xc45e0175	-888.02277
82	0xc3f7c448	-495.53345
83	0xc3726484	-242.39264
84	0xc3d45467	-424.6594
85	0xc34fd49d	-207.83052
86	0xc4107c2d	-577.94025
87	0xc3812586	-258.29315
88	0xc46cc4a6	-947.07263
89	0xc3bc39e9	-376.45242
90	0xc3806f81	-256.87112
91	0xc3fa0774	-500.05823
92	0xc3913628	-290.4231
93	0xc3b6f89b	-365.94223
94	0xc45ea017	-890.5014
95	0xc28acaba	-69.39595
96	0xc45867f6	-865.6244
97	0xc2eefc41	-119.49268
98	0xc3356f0a	-181.43375
99	0xc3c5d213	-395.6412
100	0xc3629065	-226.56404
101	0xc410786c	-577.8816
102	0xc3bf42ff	-382.5234
103	0xc3ae024e	-348.018
104	0xc3b4e175	-361.76138
105	0xc446797e	-793.8983
106	0xc46b3471	-940.8194
107	0xc3cf38e0	-414.44434
108	0xc3cafc9f	-405.9736
109	0xc369f4ff	-233.95702
110	0x4259e8b2	54.47724
111	0xc419e073	-615.507
112	0xc3939bf3	-295.21835
113	0xc3f16014	-482.7506
114	0xc3b1ef9e	-355.872
115	0xc3b1c1f1	-355.51517
116	0xc33c981f	-188.59422
117	0xc2884f46	-68.15483
118	0xc3a23442	-324.40826
119	0xc44deb61	-823.6778
120	0xc36bdefa	-235.871
121	0xc39c7939	-312.94705
122	0xc42e59e3	-697.4045
123	0xc449b1e6	-806.77966
124	0xc41e3407	-632.8129
125	0xc3418763	-193.52885
126	0xc3afdff4	-351.74963
127	0xc419dfde	-615.4979
128	0xc3c0ad6c	-385.35486
129	0xc354ea93	-212.9163
130	0xc32e65b9	-174.39735
131	0xc354fb61	-212.98195
132	0xc2d395a8	-105.7923
133	0xc3e1f2f0	-451.89795
134	0xc3e9ab87	-467.34006
135	0xc3e9bf1e	-467.4931
136	0xc40ce1f2	-563.5304
137	0xc42ac937	-683.144
138	0xc2ac3c47	-86.11773
139	0xc3ad5fac	-346.74744
140	0xc40fc30c	-575.0476
141	0xc38b31ba	-278.3885
142	0xc36fd975	-239.84944
143	0xc4242ef6	-656.73376
144	0xc3190b09	-153.0431
145	0xc399ad4c	-307.35388
146	0xc3df5880	-446.6914
147	0x429096c2	72.29445
148	0xc33f3c7a	-191.23624
149	0xc35537b9	-213.21767
150	0xc3d46406	-424.78143
151	0xc39af088	-309.87915
152	0xc2d24d45	-105.15092
153	0xc39624a0	-300.28613
154	0xc32f73d9	-175.45253
155	0xc39c0b53	-312.08847
156	0xc3a83af7	-336.46066
157	0xc404b897	-530.8842
158	0xc429d425	-679.31476
159	0xc3329f78	-178.62292
160	0xc348d78f	-200.84203
161	0xc3bb99db	-375.202
162	0xc3d18f92	-419.12164
163	0xc3d19301	-419.14847
164	0xc38f8c44	-287.09583
165	0xc3b35906	-358.6955
166	0xc2ccb70e	-102.35753
167	0xc391f803	-291.9376
168	0xc391b2e5	-291.3976
169	0xc3c0c252	-385.51813
170	0xc3e21b56	-452.21356
171	0xc3a78308	-335.02368
172	0xc3bafb7b	-373.9647
173	0xc44de3c3	-823.5588
174	0xc40568be	-533.6366
175	0xc338c4a7	-184.76817
176	0xc4330151	-716.02057
177	0xc3c70d8d	-398.10587
178	0xc2f264e7	-121.197075
179	0xc3890d12	-274.1021
180	0xc3c4b67f	-393.42575
181	0xc3f8fc94	-497.97327
182	0xc386096f	-268.0737
183	0xc3a3b6a7	-327.42697
184	0xc3b0b81f	-353.43845
185	0xc41d7ded	-629.9676
186	0xc3e5931e	-459.14935
187	0xc32942a4	-169.26031
188	0xc2a8d539	-84.41645
189	0xc46d29af	-948.6513
190	0xc41bf788	-623.8677
191	0xc2cefab0	-103.489624
192	0xc38c32a2	-280.39557
193	0xc43e088f	-760.1337
194	0xc46601db	-920.029
195	0xc3974517	-302.53976
196	0xc399aba8	-307.34106
197	0xc3a38338	-327.02515
198	0xc38e247a	-284.28497
199	0xc46f5187	-957.27386
200	0xc43e13d8	-760.31006
201	0xc38ffa8a	-287.95734
202	0xc35d4937	-221.286
203	0xc453298b	-844.6491
204	0xc4049b05	-530.4222
205	0xc32749bc	-167.28802
206	0xc323638a	-163.38882
207	0xc4445db0	-785.46387
208	0xc327bf99	-167.74843
209	0xc28cec6b	-70.461754
210	0xc3a88674	-337.0504
211	0xc3ea7276	-468.89423
212	0xc387233d	-270.2753
213	0xc3bfefa7	-383.87228
214	0xc2a6149f	-83.040276
215	0xc3adaff3	-347.3746
216	0xc3c7cad0	-399.58447
217	0xc4008b02	-514.172
218	0xc3e2082d	-452.06387
219	0xc3f528c1	-490.3184
220	0xc3a72722	-334.30573
221	0xc33c792d	-188.47334
222	0xc37c67c0	-252.40527
223	0xc42958f0	-677.38965
224	0xc403dde9	-527.46735
225	0xc45024a0	-832.57227
226	0xc2bd4d2a	-94.65071
227	0xc422873a	-650.1129
228	0xc39fbff3	-319.4996
229	0xc418521e	-609.2831
230	0xc3ddd3e8	-443.65552
231	0xc36469c6	-228.41318
232	0xc348c98e	-200.78732
233	0xc412f0fd	-587.76544
234	0xc3ed327d	-474.39444
235	0xc38b35c9	-278.4202
236	0xc45923ef	-868.56146
237	0xc36fe11b	-239.87932
238	0xc1fa21f5	-31.26658
239	0xc1be4602	-23.784184
240	0xc316d238	-150.82117
241	0xc4117e84	-581.9768
242	0xc3a6b437	-333.40793
243	0xc2f06df9	-120.21479
244	0xc449354c	-804.83276
245	0xc39a661c	-308.79773
246	0xc3d52f82	-426.37115
247	0xc3d1b1f8	-419.39038
248	0xc44baceb	-814.70184
249	0xc3acba61	-345.4561
250	0xc35dccd7	-221.80016
251	0xc1b28aed	-22.317835

weight f4 [252]
0	0x3fe0c398	1.755969
1	0x3fd6fd71	1.6796094
2	0x3febc420	1.8419228
3	0x3ff196cd	1.8874146
4	0x4004a6e4	2.0726862
5	0x400075d2	2.0071912
6	0x3feb15ff	1.8366088
7	0x4014b0c1	2.3232882
8	0x4007f400	2.1242676
9	0x3ff65f86	1.9247901
10	0x400f4425	2.2385342
11	0x4004211d	2.064521
12	0x40079da7	2.1189973
13	0x4008312f	2.128002
14	0x3fe4b2f2	1.786711
15	0x4005a939	2.0884535
16	0x40137bfd	2.3044426
17	0x3fdb24b6	1.7120578
18	0x3fe561a8	1.7920427
19	0x3ff9705c	1.9487414
20	0x3fcc45d3	1.5958809
21	0x3fde02c8	1.7344599
22	0x3ff54077	1.9160298
23	0x3fe21256	1.7661846
24	0x3fe33740	1.7751236
25	0x3feb0d81	1.8363496
26	0x400460d2	2.0684094
27	0x3fe4de68	1.7880373
28	0x40152eca	2.3309808
29	0x400ce2c0	2.2013397
30	0x401ea602	2.4788823
31	0x3ffb1860	1.9616814
32	0x3fc8a012	1.567385
33	0x4009d4dd	2.1536171
34	0x401b1ff2	2.4238248
35	0x3fc7f269	1.5620853
36	0x40080306	2.1251845
37	0x40114d25	2.2703335
38	0x40043561	2.065758
39	0x4004a919	2.072821
40	0x4002263f	2.0335844
41	0x3ff96d34	1.9486451
42	0x3fe97e05	1.8241583
43	0x400b1796	2.1733146
44	0x401a7419	2.413336
45	0x40034a5e	2.051414
46	0x400c7c93	2.1951034
47	0x400a58e8	2.1616764
48	0x3fd393c4	1.652947
49	0x3fd19b67	1.637555
50	0x3fec730f	1.8472613
51	0x400b15c5	2.1732037
52	0x3fd57a34	1.6677918
53	0x40135898	2.3022823
54	0x400a86c7	2.1644762
55	0x3febf46b	1.8433965
56	0x3fc97dce	1.5741518
57	0x400cbd78	2.1990643
58	0x4018eda9	2.3895056
59	0x3ff48dc2	1.9105761
60	0x3fe2ffcd	1.7734314
61	0x40862e38	4.193142
62	0x3fe6e1b4	1.8037629
63	0x401eaf23	2.4794395
64	0x400bcef1	2.1845057
65	0x3ff2b281	1.8960725
66	0x400b7062	2.1787343
67	0x3fdef715	1.7419153
68	0x3fea1187	1.8286599
69	0x3fffd9e1	1.9988366
70	0x3fdc5e2e	1.7216241
71	0x40384cb9	2.8796828
72	0x3fee5ab8	1.8621435
73	0x4014e23b	2.326308
74	0x3ff5c908	1.9201975
75	0x3fe353b3	1.7759918
76	0x3ff9e20a	1.9522107
77	0x3fe1178e	1.7585313
78	0x3fcc8f93	1.5981315
79	0x40092129	2.142649
80	0x4009c0f6	2.1524024
81	0x404d35a2	3.2063985
82	0x3fced4a8	1.6158648
83	0x3fde0ea4	1.7348218
84	0x3ffa0e1b	1.9535555
85	0x400d3ead	2.2069504
86	0x40146d38	2.3191662
87	0x4015f791	2.3432353
88	0x3fdaba64	1.7088132
89	0x3ff42140	1.9072647
90	0x40065350	2.098835
91	0x40003623	2.0033042
92	0x3ffa05be	1.9533002
93	0x3fda1339	1.7037116
94	0x4014a6ba	2.3226762
95	0x3feb3aca	1.8377316
96	0x401fec37	2.4987924
97	0x3ff64019	1.9238311
98	0x3fe8de8b	1.8192915
99	0x3ff0b170	1.880415
100	0x3fc94730	1.572485
101	0x3fdf6927	1.7453965
102	0x40019ce4	2.0252008
103	0x400484be	2.070602
104	0x3ff18026	1.8867233
105	0x3fe92ede	1.8217428
106	0x3ffd385a	1.9782822
107	0x3fdcc600	1.7247925
108	0x3fecc819	1.8498565
109	0x40075874	2.1147738
110	0x3fdf8b20	1.7464333
111	0x3fc3867a	1.5275414
112	0x3fe55c11	1.7918721
113	0x3fd92747	1.6965111
114	0x3fe12642	1.75898
115	0x3ffcc3fc	1.974731
116	0x3fd647c7	1.6740655
117	0x3fd3c91a	1.6545746
118	0x3fe9412f	1.8223017
119	0x401c8699	2.4457152
120	0x3fe5b8bf	1.7947005
121	0x3ff0fe36	1.8827579
122	0x4014e248	2.326311
123	0x4017e6ca	2.3734612
124	0x4010eba1	2.2643816
125	0x40063b33	2.0973632
126	0x3ff2ed23	1.8978618
127	0x3ff6952e	1.9264276
128	0x3ff3883c	1.902595
129	0x3fde5a2a	1.7371266
130	0x4004d858	2.0757046
131	0x400b8a46	2.1803145
132	0x3fffae09	1.9974986
133	0x3ff55844	1.9167562
134	0x3ffccd3b	1.9750131
135	0x3fea73f4	1.8316636
136	0x3ff8f8c7	1.9450921
137	0x3fd9f4d7	1.7027844
138	0x3fbf461a	1.4943268
139	0x404859cf	3.1304815
140	0x4013b9ca	2.3082147
141	0x4016c783	2.3559272
142	0x3ffaef38	1.9604254
143	0x400ebde9	2.2303412
144	0x40021f17	2.0331476
145	0x3fe72caa	1.8060505
146	0x3febac33	1.8411926
147	0x3fdf2fd6	1.7436473
148	0x3ff18821	1.8869668
149	0x40031d16	2.0486503
150	0x3febd2e7	1.8423737
151	0x3fec2a27	1.8450364
152	0x3ff9814a	1.9492581
153	0x3fc97e5b	1.5741686
154	0x3ffff0d4	1.999537
155	0x3ff80388	1.9376078
156	0x3fe8839b	1.8165163
157	0x3ff10bfc	1.8831782
158	0x4001f69f	2.0306776
159	0x3feaa777	1.8332356
160	0x3fef9586	1.8717506
161	0x3ff4f250	1.9136448
162	0x3ff7b995	1.935351
163	0x3ff6f1f0	1.9292583
164	0x3fe469f1	1.7844831
165	0x3ff08dbc	1.8793254
166	0x3fe32557	1.774577
167	0x400a81f8	2.1641827
168	0x4019028b	2.3907802
169	0x4002a599	2.0413573
170	0x3ffc8ff1	1.9731427
171	0x400900e8	2.1406803
172	0x3fe8b526	1.8180282
173	0x40049570	2.071621
174	0x3ff39505	1.9029852
175	0x3fef4db0	1.8695583
176	0x3ffebba4	1.9901013
177	0x40012ad1	2.0182383
178	0x402643c4	2.597886
179	0x400be279	2.1856978
180	0x4004cc6d	2.0749772
181	0x3ff2dd83	1.897385
182	0x3ff43a4f	1.9080294
183	0x3fe91876	1.821059
184	0x3fe594c8	1.793603
185	0x40040876	2.0630164
186	0x400200b5	2.0312932
187	0x3ffb0f82	1.9614108
188	0x3feb0f4f	1.8364047
189	0x3ff52808	1.9152842
190	0x3ff411ac	1.9067893
191	0x3fdfd1e2	1.7485926
192	0x3fdba2bb	1.7159036
193	0x4013571d	2.302192
194	0x406cc27f	3.699371
195	0x3ff035a8	1.8766375
196	0xbfd76064	-1.6826291
197	0x3fdbff71	1.718733
198	0x400c5d8a	2.1932092
199	0x3ff9f1ec	1.9526954
200	0x3ff76177	1.9326619
201	0x3fe2fcd7	1.7733411
202	0x3ff96b7e	1.9485929
203	0x4015c83a	2.3403459
204	0x3fd783ba	1.6837075
205	0x3ff09eb3	1.8798431
206	0x3fee341a	1.860965
207	0x400e56bd	2.224044
208	0x40221d90	2.5330544
209	0x3fcfdfeb	1.6240209
210	0x3fcf7183	1.6206516
211	0x401a5bba	2.4118485
212	0x3fda05d2	1.7033026
213	0x3fe59bda	1.7938187
214	0x40079fb0	2.1191216
215	0x401c047b	2.4377735
216	0x3ffdf347	1.9839867
217	0x4014ef03	2.327088
218	0x3ff3461c	1.9005771
219	0x3ff54bec	1.9163795
220	0x400c41ee	2.191524
221	0x4001514a	2.0205865
222	0x3ff6f185	1.9292456
223	0x3feb011f	1.8359717
224	0x3fe4e841	1.7883378
225	0x4028b7d2	2.6362195
226	0x3ff4a31a	1.9112275
227	0x406a9e71	3.6659205
228	0x3ffa9f1a	1.9579804
229	0x40155878	2.3335247
230	0x400990ee	2.1494708
231	0x4012c69f	2.2933729
232	0x3fce1a0c	1.6101699
233	0x401a18a8	2.407755
234	0x400a4717	2.160589
235	0x3fcacd25	1.5843855
236	0x4007b859	2.1206267
237	0x40238049	2.554705
238	0x4003ccc9	2.059374
239	0x4001fc2b	2.031016
240	0x3ff361d3	1.9014229
241	0x4006beea	2.1054025
242	0x4008cf04	2.1376352
243	0x3fd9631b	1.698337
244	0x401b3a2e	2.425426
245	0x3fe9b7d7	1.8259228
246	0x40019788	2.0248737
247	0x4007a5b6	2.1194892
248	0x40076a6c	2.1158705
249	0x3ffa5773	1.9557937
250	0x400a9154	2.1651201
251	0x3fdda86d	1.7317024

bias f4 [252]
0	0x3e27319b	0.16327517
1	0x3e50b638	0.20382011
2	0xbeaf9413	-0.3429266
3	0x3e7a850a	0.24464813
4	0x3e011f50	0.12609601
5	0x3f39fbdc	0.7264993
6	0x3ec46886	0.38360995
7	0xbfa37be2	-1.2772181
8	0xbf876b2e	-1.0579584
9	0xbd5885a8	-0.05286184
10	0x3f31224e	0.6919297
11	0x3f59005b	0.8476617
12	0xbf960d6a	-1.1722844
13	0xbfa65a87	-1.2996377
14	0x3e93bf94	0.288571
15	0x3f4e33fa	0.8054806
16	0xbf4276fb	-0.759628
17	0x3cf7b59b	0.030237963
18	0xbe853718	-0.26018596
19	0x3efc5a7e	0.4928779
20	0xbe39f6b4	-0.18160516
21	0xbce6ebc3	-0.028188592
22	0x3e68f223	0.22748618
23	0x3ec40d39	0.38291338
24	0x3e5b63d2	0.21424797
25	0x3da3383f	0.079697125
26	0xbeee9de1	-0.46604827
27	0x3edaab8e	0.4270901
28	0xbf8f84ae	-1.1212366
29	0xbfb50f92	-1.4145377
30	0xbf3f6a90	-0.74771976
31	0x3f0f4397	0.5596251
32	0xbdee411d	-0.11633513
33	0xbf3cf461	-0.7381039
34	0xbfb1e246	-1.3897178
35	0x3d3070f3	0.043076467
36	0xbf8229c8	-1.0169001
37	0x3f6ca8ac	0.9244487
38	0x3ecfe940	0.40607643
39	0x3f3d4aaf	0.73942083
40	0x3e74af5e	0.23895022
41	0x3ef89f77	0.48559162
42	0x3e8404c5	0.2578489
43	0xbf5094c2	-0.81476986
44	0x3f77c250	0.9678087
45	0x3f106f19	0.5641952
46	0xbf8ca5e0	-1.0988121
47	0xbe3229c4	-0.17398745
48	0xbe3515d8	-0.17684114
49	0xbc3a9707	-0.011388547
50	0xbef85aa2	-0.48506647
51	0xbe0d0040	-0.13769627
52	0x3e3ffb13	0.18748121
53	0x3f8f0aec	1.1175208
54	0xbf2f2aad	-0.68424493
55	0x3edd8eac	0.43272913
56	0x3e758917	0.23978077
57	0xbf1238a0	-0.5711765
58	0xbfb36d48	-1.4017725
59	0xbd21eea2	-0.03953422
60	0x3e600379	0.21876325
61	0x3fc55473	1.5416397
62	0x3e01222a	0.12610689
63	0xbf8f6c4e	-1.1204927
64	0x3f2eb3c3	0.68243045
65	0xbe14cf3c	-0.14532179
66	0x3f3bda45	0.7337993
67	0x3e98cd89	0.2984431
68	0x3ee7061d	0.45121852
69	0x3f081fb8	0.531734
70	0xbd50ab73	-0.050944757
71	0x3f78107c	0.96900153
72	0x3e804df3	0.2505947
73	0xbf92cf7d	-1.146957
74	0x3ee43765	0.44573513
75	0x3d920f2c	0.071318
76	0x3efc5c8c	0.49289358
77	0xbdcef9a8	-0.10106212
78	0xbea624b7	-0.32449886
79	0xbe4109a9	-0.18851341
80	0x3f054693	0.5206081
81	0x3f7f7abb	0.99796647
82	0xbf1d9cc1	-0.6156731
83	0x3eb89b5a	0.36056024
84	0x3eeae735	0.45879522
85	0x3f53438a	0.8252493
86	0xbecf7499	-0.40518644
87	0x3f88c0dd	1.0683857
88	0xbe9cedf3	-0.3065029
89	0x3e54c709	0.20779051
90	0x3f5da9e9	0.8658739
91	0x3e7ea3f8	0.24867237
92	0x3f07128c	0.52762675
93	0x3e55f984	0.20895964
94	0xbfbe33ec	-1.4859595
95	0x3f081fe1	0.53173643
96	0xbfcd687a	-1.6047509
97	0x3ec32264	0.38112175
98	0x3eab8612	0.33500725
99	0xbc7417d0	-0.0148982555
100	0xbdaece8b	-0.08535489
101	0x3e3a54c0	0.18196392
102	0x3f0370e0	0.5134411
103	0x3f0e73dc	0.5564554
104	0x3eaeeccd	0.3416504
105	0xbe223439	-0.15840234
106	0x3d61ce97	0.05512866
107	0xbae92893	-0.0017788581
108	0x3dd076dc	0.101789206
109	0x3f0c9073	0.5490791
110	0x3d8b2bd8	0.06795472
111	0x3d26c036	0.04071065
112	0x3eb41042	0.35168654
113	0xbca1c678	-0.019747958
114	0x3e03ed7e	0.12883565
115	0x3e56f14b	0.20990483
116	0xbd2d13c5	-0.04225518
117	0x3e6863e4	0.22694355
118	0x3f0fde82	0.56198895
119	0xbf7f9e48	-0.99850893
120	0x3eaba0c0	0.3352108
121	0x3da5f6c0	0.081037045
122	0xbf8bc078	-1.0918112
123	0xbfa2ff34	-1.2734132
124	0xbf1b422a	-0.60647833
125	0x3ecb3f52	0.39696747
126	0x3d78d76a	0.06075231
127	0xbe838279	-0.2568548
128	0x3e23081c	0.15921062
129	0x3ecb91bd	0.39759627
130	0x3f32469e	0.69639003
131	0x3f087a3d	0.5331152
132	0x3eb1ef1b	0.34752735
133	0x3d7540a5	0.059876103
134	0xbe890cca	-0.2676757
135	0x3e1f0a0e	0.1553118
136	0x3e6bb50f	0.23018287
137	0xbec694b2	-0.3878532
138	0xbc9000bc	-0.017578475
139	0x3f968667	1.1759766
140	0x3f4ca036	0.7993196
141	0x3f865ae4	1.0496488
142	0x3f0a13ec	0.5393665
143	0xbf845e89	-1.034135
144	0x3ef918cf	0.4865174
145	0xbd08dce4	-0.033413783
146	0x3e5b57a6	0.21420154
147	0x3e920692	0.28520638
148	0x3eceac35	0.4036576
149	0x3f016c54	0.5055592
150	0x3e726cf4	0.23674375
151	0x3e6465c5	0.22304447
152	0x3f0000f3	0.5000145
153	0x3ead2d5a	0.33823663
154	0x3ed7bce1	0.4213629
155	0x3e468415	0.19386323
156	0x3dba564d	0.09098492
157	0x3ee2e5c0	0.4431591
158	0xbf4bd635	-0.7962373
159	0x3e9515c0	0.29118156
160	0x3e9433c6	0.2894575
161	0xbd6da628	-0.058019787
162	0x3eb992e0	0.3624487
163	0x3eaa390f	0.33246657
164	0x3e48438e	0.1955702
165	0x3e6316e5	0.22176702
166	0x3efe9219	0.4972084
167	0x3f5e2bc2	0.8678552
168	0x3f5b7385	0.85723144
169	0x3ecacfc9	0.39611652
170	0x3e887235	0.26649633
171	0x3f318827	0.69348377
172	0x3e743871	0.23849656
173	0x3e7d6a1e	0.24747512
174	0xbe57e3b6	-0.21082959
175	0x3dbb6aaa	0.09151204
176	0xbf78f9ea	-0.9725634
177	0x3e4d2e82	0.20037273
178	0x3fa0d9c4	1.2566457
179	0x3f24f150	0.64430714
180	0x3ec7df89	0.3903773
181	0x3ed760cc	0.42066038
182	0x3f3b18ec	0.730849
183	0x3e1028f5	0.14078124
184	0x3e94c766	0.2905838
185	0xbc6e209e	-0.014534144
186	0x3f186dc2	0.5954248
187	0x3f0e8092	0.5566493
188	0x3dedbed1	0.11608661
189	0xbc5a668a	-0.013330111
190	0xbdae6947	-0.08516174
191	0x3eb0aab5	0.3450524
192	0x3e9380b4	0.2880913
193	0xbfaa8071	-1.3320447
194	0x3f952353	1.1651405
195	0x3eda1082	0.4259072
196	0xbdb632bd	-0.08896396
197	0x3e80d2d3	0.25160846
198	0x3f1ade66	0.60495603
199	0xbc3f7bfa	-0.011687273
200	0x3e20a132	0.15686491
201	0x3e6bcd1c	0.23027462
202	0x3eaf94d4	0.34293234
203	0xbfd15876	-1.6355121
204	0xbd0ea68c	-0.0348268
205	0xbe9b546e	-0.30337852
206	0x3e72c203	0.23706822
207	0xbf82a5f5	-1.0206896
208	0x3f8dcc65	1.1078001
209	0x3d5a83e2	0.05334843
210	0x3d105192	0.03523404
211	0x3f32bdae	0.6982068
212	0x3d87c127	0.06628638
213	0x3c8a4e61	0.016883077
214	0x3ee4489f	0.44586655
215	0x3f284c00	0.65740967
216	0x3f012aa5	0.50455695
217	0xbf9eaf5a	-1.2397263
218	0x3f1e6f0b	0.6188819
219	0x3d2d62ec	0.042330667
220	0x3f23467a	0.63779414
221	0x3f34d085	0.70630676
222	0x3f04d98e	0.5189446
223	0xbde4554e	-0.11149083
224	0xbd93dfed	-0.07220445
225	0xbf9cdf5d	-1.2255665
226	0x3ecad86c	0.39618242
227	0x3f9e315d	1.2358814
228	0x3cfb4877	0.030674202
229	0x3f2b4c49	0.66913277
230	0x3ef62ae7	0.48079607
231	0x3f912212	1.1338522
232	0x3d92a4dd	0.071603514
233	0xbf67687f	-0.90393823
234	0x3ec338f8	0.381294
235	0x3e494b9f	0.19657753
236	0xbf7c2830	-0.9849882
237	0x3f999918	1.1999846
238	0x3eb797ac	0.35857904
239	0x3e5dd978	0.21664989
240	0x3e5f29d1	0.21793295
241	0xbf2adc99	-0.66742855
242	0x3f7bc1aa	0.9834238
243	0x3e22bb3a	0.15891734
244	0xbfaa9f12	-1.3329794
245	0x3ef3c06c	0.47607744
246	0x3f13fcb4	0.5780747
247	0x3f344f70	0.7043371
248	0xbfb6eefb	-1.4291681
249	0x3d0244df	0.03180396
250	0x3f484dd5	0.7824376
251	0x3d89805d	0.067139365

running_mean f4 [252]
0	0x470a8a4d	35466.3
1	0x46e60778	29443.734
2	0x47ab29ff	87635.99
3	0x47355d68	46429.406
4	0x46dd4413	28322.037
5	0x47347f3d	46207.24
6	0x47055213	34130.074
7	0x473c6c57	48236.34
8	0x475b716b	56177.418
9	0x46c28ea1	24903.314
10	0x476423e7	58403.902
11	0x468f9ac4	18381.383
12	0x48040aae	135210.72
13	0x475af8a1	56056.63
14	0x475678ff	54904.996
15	0x4736b45a	46772.35
16	0x46aa63cd	21809.9
17	0x467b0877	16066.116
18	0x47031dca	33565.79
19	0x470832ce	34866.805
20	0x46a9368c	21659.273
21	0x470a2347	35363.277
22	0x468c590d	17964.525
23	0x471aa5ed	39589.926
24	0x46dc393c	28188.617
25	0x46a63367	21273.701
26	0x47b92e49	94812.57
27	0x46c40204	25089.008
28	0x476bd0c4	60368.766
29	0x47e1ea63	115668.77
30	0x470b3450	35636.312
31	0x46bc7e39	24127.111
32	0x46767bc4	15774.941
33	0x47a9c3ff	86919.99
34	0x479f52e2	81573.766
35	0x468aee9f	17783.31
36	0x47c7fcf1	102393.88
37	0x470262a9	33378.66
38	0x470c12d5	35858.832
39	0x46b5ac32	23254.098
40	0x47830ddf	67099.74
41	0x46d65321	27433.564
42	0x4704deda	34014.85
43	0x46e32c85	29078.26
44	0x471855cc	38997.797
45	0x46a3ad61	20950.69
46	0x4726c410	42692.062
47	0x466ba90a	15082.26
48	0x4679ae66	15979.6
49	0x46c07fe2	24639.941
50	0x46231df5	10439.489
51	0x4643c268	12528.602
52	0x46a8e10a	21616.52
53	0x475114e1	53524.88
54	0x46df4888	28580.266
55	0x46b1a72a	22739.582
56	0x468c54e6	17962.45
57	0x47a384fe	83721.984
58	0x47f0d2a1	123301.26
59	0x46562186	13704.381
60	0x4725e1d3	42465.824
61	0x46e90111	29824.533
62	0x46be358f	24346.78
63	0x4817bbd5	155375.33
64	0x46745ee6	15639.725
65	0x46ae3610	22299.031
66	0x474d985f	52632.37
67	0x468e0c9c	18182.305
68	0x46a803d8	21505.922
69	0x46d05fc6	26671.887
70	0x4749ee6e	51694.43
71	0x469bf085	19960.26
72	0x46a32854	20884.164
73	0x4813f079	151489.89
74	0x46cdbd61	26334.69
75	0x4715d777	38359.465
76	0x47423238	49714.22
77	0x46e6386a	29468.207
78	0x463b726b	11996.6045
79	0x4767b10a	59313.04
80	0x47401dd2	49181.82
81	0x4704ee8c	34030.547
82	0x46bad23d	23913.12
83	0x46d6c129	27488.58
84	0x46e2b6d6	29019.418
85	0x46e36cdd	29110.432
86	0x471b42bf	39746.746
87	0x470846fa	34886.977
88	0x4664c47e	14641.123
89	0x47328af5	45706.957
90	0x471c023a	39938.227
91	0x47634cb4	58188.703
92	0x4713c2da	37826.85
93	0x46dd548b	28330.271
94	0x47d0a1b2	106819.39
95	0x46dbad5d	28118.682
96	0x47f5e50a	125898.08
97	0x471231ec	37425.92
98	0x46e2a79c	29011.805
99	0x478d2b79	72278.945
100	0x46f09c10	30798.031
101	0x473f2422	48932.133
102	0x46ae41bd	22304.87
103	0x469710b2	19336.348
104	0x47109130	37009.188
105	0x46b49df7	23118.982
106	0x478bcf2e	71582.36
107	0x46e1804d	28864.15
108	0x477b66c5	64358.77
109	0x4663ffb6	14591.928
110	0x470e906d	36496.426
111	0x46e8cb37	29797.607
112	0x46e966b8	29875.36
113	0x468775e3	17338.943
114	0x47453e42	50494.258
115	0x4775fdc6	62973.773
116	0x46c743d1	25505.908
117	0x46b6a2d7	23377.42
118	0x470c327b	35890.48
119	0x46a3081c	20868.055
120	0x46e1cf94	28903.79
121	0x47012723	33063.137
122	0x47f4c3e4	125319.78
123	0x48282212	172168.28
124	0x46a73519	21402.549
125	0x4717b6f2	38838.945
126	0x47396480	47460.5
127	0x46d70b83	27525.756
128	0x47703a04	61498.016
129	0x469caa85	20053.26
130	0x46c39167	25032.701
131	0x4714d798	38103.594
132	0x46c8ee35	25719.104
133	0x46c7fe25	25599.072
134	0x47a37330	83686.375
135	0x475520d5	54560.832
136	0x4722aea4	41646.64
137	0x470197d2	33175.82
138	0x46b649b5	23332.854
139	0x46b4880d	23108.025
140	0x46787f00	15903.75
141	0x472317f8	41751.97
142	0x46ff5136	32680.605
143	0x48020311	133132.27
144	0x472d1e5d	44318.363
145	0x4717e993	38889.574
146	0x47322a97	45610.59
147	0x47010993	33033.574
148	0x46c8da2a	25709.082
149	0x472a5714	43607.08
150	0x4708bf0a	35007.04
151	0x4732672e	45671.18
152	0x46f016e9	30731.455
153	0x46bc43e4	24097.945
154	0x472661e4	42593.89
155	0x46f5db6e	31469.715
156	0x47251781	42263.504
157	0x4722f3e1	41715.88
158	0x47b5aa73	93012.9
159	0x470326f1	33574.94
160	0x472a3ef6	43582.96
161	0x469be621	19955.064
162	0x470d05df	36101.87
163	0x46f3cc8c	31206.273
164	0x472458ae	42072.68
165	0x476050b9	57424.723
166	0x46bb1358	23945.672
167	0x46f5b061	31448.19
168	0x4704eaa5	34026.645
169	0x46530629	13505.54
170	0x469c860b	20035.021
171	0x473389fa	45961.977
172	0x47153d5e	38205.367
173	0x47042563	33829.387
174	0x4685fed1	17151.408
175	0x474e4f34	52815.203
176	0x46dce41a	28274.05
177	0x4753f6b9	54262.723
178	0x46efce3d	30695.12
179	0x473860fb	47200.98
180	0x472b8408	43908.03
181	0x46dcb523	28250.568
182	0x46693e05	14927.505
183	0x46d4f353	27257.662
184	0x46c20d89	24838.768
185	0x471737c4	38711.766
186	0x46a2f2c6	20857.387
187	0x472de0b1	44512.69
188	0x46cf4ae6	26533.45
189	0x467c87e1	16161.97
190	0x473eb79a	48823.6
191	0x46eff7ef	30715.967
192	0x47047eeb	33918.918
193	0x47b09c9d	90425.23
194	0x46dbd51d	28138.557
195	0x46d08364	26689.695
196	0x46b42c96	23062.293
197	0x46a1452b	20642.584
198	0x472d4bd7	44363.84
199	0x4684ee25	17015.072
200	0x473dde46	48606.273
201	0x46bccab0	24165.344
202	0x46c05cea	24622.457
203	0x47e10d5f	115226.74
204	0x4644ec8b	12603.136
205	0x46b30687	22915.264
206	0x46f618a8	31500.328
207	0x47d49ee5	108861.79
208	0x46e3c875	29156.229
209	0x46762b8f	15754.89
210	0x46d4ff72	27263.723
211	0x4693c25b	18913.178
212	0x4716faaf	38650.684
213	0x47349914	46233.08
214	0x468d7e81	18111.252
215	0x467061e8	15384.477
216	0x471af32a	39667.164
217	0x46d48140	27200.625
218	0x47175f19	38751.098
219	0x4788ff77	70142.93
220	0x474bee59	52206.348
221	0x46d28962	26948.691
222	0x470c3158	35889.344
223	0x479ba202	79684.016
224	0x476bf15c	60401.36
225	0x46ad94df	22218.436
226	0x46be20d0	24336.406
227	0x46f20379	30977.736
228	0x477e3d33	65085.2
229	0x464cf482	13117.127
230	0x4709bf6c	35263.42
231	0x4767dc1c	59356.11
232	0x4673f01d	15612.028
233	0x480f4e0a	146744.16
234	0x46ccf758	26235.672
235	0x47032812	33576.07
236	0x4803e1a6	135046.6
237	0x47024a1e	33354.117
238	0x46aa4bff	21797.998
239	0x475edb0f	57051.06
240	0x46e51702	29323.504
241	0x47f57c46	125688.55
242	0x4708bcc9	35004.785
243	0x46e4732e	29241.59
244	0x482cde5f	177017.48
245	0x4728068a	43014.54
246	0x4713c66d	37830.426
247	0x476fabde	61355.867
248	0x47f59eaa	125757.33
249	0x471e7fe5	40575.895
250	0x472a15bc	43541.734
251	0x46e3b307	29145.514

running_var f4 [252]
0	0x4e82fae7	1.0987406e+09
1	0x4e5163c4	8.782441e+08
2	0x4f3db578	3.1827866e+09
3	0x4eb4adb5	1.5156415e+09
4	0x4e15c731	6.2821485e+08
5	0x4ef5ff67	2.063578e+09
6	0x4ebb0b4b	1.5690397e+09
7	0x4e802fbc	1.075306e+09
8	0x4ed0f4e3	1.7528549e+09
9	0x4e3a4a55	7.813584e+08
10	0x4f0f51f8	2.4045138e+09
11	0x4e7ef2cf	1.0693314e+09
12	0x4fe9b007	7.841255e+09
13	0x4ec1b775	1.6250129e+09
14	0x4f0354e0	2.2033777e+09
15	0x4f3a9bf7	3.1307835e+09
16	0x4d593a88	2.2778074e+08
17	0x4d28d83c	1.7704646e+08
18	0x4e356964	7.6089574e+08
19	0x4eb8141b	1.5441627e+09
20	0x4e6ddaf4	9.976374e+08
21	0x4e36ce6d	7.667454e+08
22	0x4dec6917	4.9578877e+08
23	0x4edc455b	1.8477664e+09
24	0x4e51c530	8.7984026e+08
25	0x4d85a537	2.8027466e+08
26	0x4f681858	3.8939095e+09
27	0x4e6379d1	9.5410285e+08
28	0x4ecd5647	1.7224918e+09
29	0x4fb943a1	6.216434e+09
30	0x4e32de8b	7.5023226e+08
31	0x4e9042af	1.2101446e+09
32	0x4d1f4c5c	1.6703635e+08
33	0x4f307a4f	2.9608056e+09
34	0x4f3d6f59	3.178191e+09
35	0x4df2c0c1	5.0908982e+08
36	0x4f94286f	4.9713556e+09
37	0x4ec8ae89	1.6834408e+09
38	0x4e914eb8	1.2189276e+09
39	0x4e5e4e4a	9.324182e+08
40	0x4f1d2a0a	2.636778e+09
41	0x4e5ed81a	9.346761e+08
42	0x4ea2924e	1.3637486e+09
43	0x4dc514f3	4.1331056e+08
44	0x4f15a485	2.5105871e+09
45	0x4ed02a2e	1.7462126e+09
46	0x4e5175cd	8.785396e+08
47	0x4caa7e5b	8.9387736e+07
48	0x4d0e1c8f	1.4901477e+08
49	0x4e002c36	5.3759526e+08
50	0x4c7fbe19	6.704138e+07
51	0x4c5d1b6d	5.7961908e+07
52	0x4e09bf04	5.7774925e+08
53	0x4f5ed708	3.7386342e+09
54	0x4dbd76a8	3.9733376e+08
55	0x4e4f9db9	8.7080506e+08
56	0x4df3725d	5.105448e+08
57	0x4f2f67bc	2.9428111e+09
58	0x4fc92d16	6.7503503e+09
59	0x4ca5168a	8.655368e+07
60	0x4ec940fe	1.6882399e+09
61	0x4f860de2	4.4981135e+09
62	0x4e339003	7.531399e+08
63	0x50056abe	8.953461e+09
64	0x4e661eb7	9.6519315e+08
65	0x4da6027e	3.4814765e+08
66	0x4f17bcff	2.5457457e+09
67	0x4de5893b	4.81372e+08
68	0x4e052467	5.5843885e+08
69	0x4e13a28e	6.19226e+08
70	0x4ead6ac3	1.4547276e+09
71	0x4ef7e292	2.0794104e+09
72	0x4e1c853d	6.564944e+08
73	0x50058483	8.960216e+09
74	0x4e8ffd3a	1.2078687e+09
75	0x4e83fa94	1.1071186e+09
76	0x4ecc606c	1.7144356e+09
77	0x4e73cd17	1.02257606e+09
78	0x4ce16de2	1.1818984e+08
79	0x4ea376be	1.371234e+09
80	0x4efebcd3	2.1368938e+09
81	0x4fb597ad	6.0932326e+09
82	0x4df38a26	5.1073965e+08
83	0x4e89f7a9	1.1573546e+09
84	0x4ea2dc33	1.36617e+09
85	0x4e897a1b	1.1532404e+09
86	0x4e4b8e29	8.5377286e+08
87	0x4f2f8f85	2.9454185e+09
88	0x4d1b1381	1.6260917e+08
89	0x4ec322b9	1.6369164e+09
90	0x4efde469	2.1298024e+09
91	0x4f3f2686	3.206973e+09
92	0x4ee781f2	1.9420265e+09
93	0x4e226a8f	6.812231e+08
94	0x4f9350c5	4.943088e+09
95	0x4e76659a	1.0334634e+09
96	0x4fcedb85	6.940986e+09
97	0x4ebc6fb0	1.5807181e+09
98	0x4e88c449	1.1472826e+09
99	0x4efd3d8d	2.1243347e+09
100	0x4e51161c	8.769718e+08
101	0x4ea8ef57	1.4171288e+09
102	0x4e3ef6ed	8.009634e+08
103	0x4eb6fab4	1.5349417e+09
104	0x4ec1611e	1.6221837e+09
105	0x4da4e93d	3.4584362e+08
106	0x4f055285	2.2367777e+09
107	0x4e0a3093	5.796098e+08
108	0x4f0f52c4	2.404566e+09
109	0x4e5f75d8	9.3726054e+08
110	0x4eaca653	1.4482907e+09
111	0x4e2b7444	7.191309e+08
112	0x4ecab6a0	1.7004831e+09
113	0x4d8522d5	2.7920656e+08
114	0x4e9e5023	1.328026e+09
115	0x4eff870f	2.1435206e+09
116	0x4e427054	8.1553536e+08
117	0x4e20f867	6.7515846e+08
118	0x4f027e77	2.189326e+09
119	0x4d3eb339	1.9996354e+08
120	0x4e5a5777	9.157913e+08
121	0x4ea178fc	1.3545303e+09
122	0x4fc3b5ab	6.566926e+09
123	0x5029c5bf	1.1393236e+10
124	0x4d430d95	2.0452795e+08
125	0x4f10ef52	2.4316032e+09
126	0x4eb02631	1.4776465e+09
127	0x4df7dc41	5.1980086e+08
128	0x4ed1aba6	1.7588436e+09
129	0x4e10f862	6.080493e+08
130	0x4eac018f	1.4428916e+09
131	0x4ed6a092	1.8004237e+09
132	0x4e849d2e	1.1124467e+09
133	0x4de747db	4.8503075e+08
134	0x4f3bfeee	3.1540465e+09
135	0x4ee2e92a	1.9034657e+09
136	0x4ebcc8c0	1.5836365e+09
137	0x4e6a2c26	9.8219046e+08
138	0x4de70e7f	4.8456086e+08
139	0x4f17983d	2.5433367e+09
140	0x4e1eb318	6.656343e+08
141	0x4f207a94	2.6923878e+09
142	0x4ede3867	1.8641192e+09
143	0x4fa2a350	5.4572237e+09
144	0x4ec08b5e	1.6151795e+09
145	0x4e8fff0d	1.2079284e+09
146	0x4eeec9b6	2.0030984e+09
147	0x4e8f69a2	1.2030323e+09
148	0x4e447a15	8.240838e+08
149	0x4eb3dd86	1.5088197e+09
150	0x4ee2598b	1.8987596e+09
151	0x4ef5a3a2	2.0605709e+09
152	0x4eccb41f	1.7171782e+09
153	0x4e2a4aa8	7.1425485e+08
154	0x4ea83b00	1.4112195e+09
155	0x4e758190	1.0297272e+09
156	0x4e97bea3	1.2729266e+09
157	0x4f041d10	2.2164972e+09
158	0x4f3be9bf	3.1526582e+09
159	0x4e9887c9	1.2795178e+09
160	0x4ec9cf4b	1.6929028e+09
161	0x4dfe9618	5.3390618e+08
162	0x4eb1df19	1.4920941e+09
163	0x4e7735ec	1.03687654e+09
164	0x4e9b92f8	1.3050501e+09
165	0x4f0cafb0	2.360324e+09
166	0x4e6d382c	9.949704e+08
167	0x4eec820d	1.983973e+09
168	0x4ecb8c34	1.7074816e+09
169	0x4de9ca91	4.9029584e+08
170	0x4e1c5776	6.557444e+08
171	0x4f1562d4	2.506282e+09
172	0x4ea6ebdf	1.400238e+09
173	0x4e48c5f0	8.421038e+08
174	0x4d3ff606	2.0128573e+08
175	0x4f00553f	2.1530703e+09
176	0x4e0f62d4	6.014047e+08
177	0x4ed96c1a	1.8238702e+09
178	0x4ef84ac0	2.0828242e+09
179	0x4efd5b4f	2.1253098e+09
180	0x4ed3fda4	1.7783076e+09
181	0x4e435b32	8.193834e+08
182	0x4e144d51	6.2202374e+08
183	0x4e300449	7.382677e+08
184	0x4e4b2c84	8.5217306e+08
185	0x4e7a63ed	1.0502132e+09
186	0x4e2087f0	6.7331584e+08
187	0x4f1ad078	2.5973535e+09
188	0x4e29f9bb	7.1292896e+08
189	0x4cf7efc1	1.2999015e+08
190	0x4eac99dd	1.4478824e+09
191	0x4ead61d7	1.4544352e+09
192	0x4eb8e575	1.5510227e+09
193	0x4f6571e1	3.8494456e+09
194	0x4f73b08c	4.0884337e+09
195	0x4e6b13f4	9.8598835e+08
196	0x4e0709c3	5.66391e+08
197	0x4de6ced8	4.8403942e+08
198	0x4f7aa4aa	4.2050954e+09
199	0x4d15c6b3	1.570517e+08
200	0x4ea8e752	1.416866e+09
201	0x4e1a1e09	6.464149e+08
202	0x4e37232a	7.6813376e+08
203	0x4fb5b651	6.097249e+09
204	0x4d28aec5	1.7687662e+08
205	0x4ddbc286	4.6086982e+08
206	0x4ec0a4f8	1.6160184e+09
207	0x4fad5aea	5.816833e+09
208	0x4eaa28e5	1.4274034e+09
209	0x4d59bc73	2.2831288e+08
210	0x4e778bd8	1.0382843e+09
211	0x4e0b6499	5.8465645e+08
212	0x4e8661c2	1.1272768e+09
213	0x4eaf82a3	1.4722871e+09
214	0x4e1bdccf	6.5373485e+08
215	0x4e93f483	1.2411375e+09
216	0x4f10545b	2.4214474e+09
217	0x4d8b8140	2.9256294e+08
218	0x4eef9b51	2.0099667e+09
219	0x4f041cdc	2.2164838e+09
220	0x4f1c26b8	2.6197832e+09
221	0x4eb1cb0e	1.4914373e+09
222	0x4ed89870	1.8169344e+09
223	0x4f143ff9	2.4872205e+09
224	0x4ea7d8b0	1.407998e+09
225	0x4d484da1	2.1003317e+08
226	0x4e6d4303	9.9514797e+08
227	0x4f9295aa	4.918564e+09
228	0x4ef45d18	2.0498708e+09
229	0x4dd16c6c	4.3919296e+08
230	0x4f405b7b	3.2272207e+09
231	0x4f837562	4.411016e+09
232	0x4d4669cf	2.0805144e+08
233	0x4fe961f3	7.831021e+09
234	0x4e610f6e	9.439712e+08
235	0x4e9e7e54	1.3295396e+09
236	0x4febe14c	7.9148216e+09
237	0x4ec5a6a4	1.6580163e+09
238	0x4e3fcf06	8.0450394e+08
239	0x4f0f5871	2.404938e+09
240	0x4e9f0d0a	1.334216e+09
241	0x4fbda295	6.3630976e+09
242	0x4f1b330c	2.603814e+09
243	0x4e779366	1.03840806e+09
244	0x501e06db	1.0604998e+10
245	0x4ee5cb32	1.9276495e+09
246	0x4efd2521	2.1235345e+09
247	0x4f463cb5	3.3258673e+09
248	0x4fed65b8	7.965733e+09
249	0x4e8c63d5	1.1776764e+09
250	0x4edb75ab	1.8409609e+09
251	0x4e29055e	7.089253e+08

weight f4 [252, 252]
0	0x400ee3b3	2.2326477
1	0xbf6c2b8d	-0.92253953
2	0xbf5b9a80	-0.85782623
3	0xc0cb9067	-6.3613772
4	0x403a66ac	2.9125166
5	0xbfcc6511	-1.5968343
6	0xbf97f231	-1.1870786
7	0x40027ba5	2.0387967
8	0x3ea64d9b	0.32481083
9	0x3ff0542c	1.8775687
10	0x3df98be3	0.121848844
11	0x40859549	4.1744733
12	0xc012e802	-2.2954106
13	0x3eb38b6c	0.35067308
14	0xc090b514	-4.5221043
15	0xbf12dfc2	-0.5737268
16	0x3e0f1ace	0.13975069
17	0x4058eae2	3.389336
18	0x3dfd170d	0.12357912
19	0xc00c00f9	-2.1875594
20	0xc025c8d1	-2.5903819
21	0xbf1822ec	-0.59428287
22	0xbc06490c	-0.008196127
23	0xbf9752e4	-1.1822171
24	0xbf413290	-0.7546778
25	0xbf004c54	-0.5011647
26	0xbf4069c0	-0.7516136
27	0x3d9527e3	0.072829984
28	0xbee0ef44	-0.43932545
29	0x403032ce	2.7531009
30	0x3f96d698	1.1784239
31	0x3fc419fe	1.5320432
32	0x3f83178d	1.0241562
33	0xbf859ea8	-1.0439043
34	0xc08e2bbc	-4.4428387
35	0x3f14554c	0.5794265
36	0xbed133be	-0.4085979
37	0xbf509a9a	-0.81485903
38	0xbfddcc1a	-1.7327912
39	0xbffa738b	-1.9566511
40	0x40c3b08a	6.1153
41	0x3f691774	0.9105141
42	0xbdb40c1c	-0.08791372
43	0x3ead45c6	0.33842295
44	0xc0031b06	-2.0485244
45	0xbf9d7e20	-1.2304115
46	0xbf10c9f7	-0.56558174
47	0x3f87fad9	1.0623428
48	0x408639a4	4.194536
49	0x411a3a52	9.639238
50	0xbf319321	-0.69365126
51	0xbf87415a	-1.0566819
52	0xbfc757f4	-1.5573716
53	0xc01dbf0e	-2.464786
54	0xbdc1abce	-0.09456597
55	0x3f963507	1.1734933
56	0xbfb05f18	-1.377902
57	0xbefe7ec3	-0.49706087
58	0x3ee63d3b	0.4496859
59	0x3ffcdb9e	1.9754522
60	0x3f123314	0.5710919
61	0x3e3608e4	0.17776829
62	0x3f6951d7	0.911405
63	0x401dbc49	2.464617
64	0xbea8d37b	-0.32973847
65	0x3f0a9d8b	0.5414664
66	0x3f951444	1.164681
67	0xbfd8833d	-1.6915051
68	0x3fec4468	1.8458376
69	0xbf684777	-0.90734047
70	0xbfbfd4b9	-1.4986793
71	0x3ebd12fb	0.36928543
72	0xbf23517f	-0.6379623
73	0x3f48db8c	0.7846
74	0xbf393a62	-0.7235471
75	0x403a7291	2.9132426
76	0x40c7c900	6.243286
77	0x3e2cdf5c	0.1688208
78	0x3eb93742	0.3617497
79	0xbfe9ad7c	-1.8256068
80	0x3fc9685f	1.5734977
81	0xc029463a	-2.6449113
82	0xc07cfbde	-3.9528728
83	0xbf7d4493	-0.9893276
84	0xbf868713	-1.0509971
85	0x3efa447a	0.48880368
86	0xc05fc069	-3.4961188
87	0x40bb45dd	5.852278
88	0xbf511eb7	-0.8168749
89	0xc0da474c	-6.821203
90	0x3fe6d833	1.8034729
91	0x4032b5cd	2.7923462
92	0x3f4d6421	0.8023091
93	0xc087af81	-4.240174
94	0xbf591d34	-0.84810185
95	0x3f422cb8	0.75849485
96	0x400f506b	2.2392833
97	0x3d888dcb	0.0666767
98	0xbfe5d0a9	-1.7954303
99	0x3fa5419b	1.2910646
100	0x41632c91	14.19838
101	0x3fc95ff6	1.573241
102	0xbfd1111e	-1.6333349
103	0x3ff61a2d	1.9226738
104	0x3fe0b3f3	1.7554916
105	0x3f69792a	0.91200507
106	0x3fe1acad	1.7630821
107	0xbe775d4f	-0.24156688
108	0xbfd95321	-1.6978494
109	0xbe3095c0	-0.17244625
110	0xbfd6317d	-1.6733853
111	0x400ab00c	2.166995
112	0x3f7b0ee6	0.9806961
113	0xbfa73cd9	-1.3065444
114	0xbfaca26a	-1.3487065
115	0x408b959a	4.362012
116	0x3e5ad2cf	0.2136948
117	0x402b36b3	2.6752136
118	0xbd406f31	-0.04698104
119	0x3f780d99	0.9689575
120	0xbed3bee5	-0.41356578
121	0xbd9ffe88	-0.0781222
122	0x3fa0bebd	1.2558209
123	0x3f2b8a84	0.67008233
124	0x3ea329b0	0.31867743
125	0xc0c73bc8	-6.2260475
126	0xbf59dd23	-0.8510305
127	0xbf8f6501	-1.1202699
128	0xbfff1cfb	-1.9930719
129	0xbf6fba6a	-0.9364382
130	0x3f273b44	0.6532481
131	0x3e5ff428	0.21870482
132	0xbf982094	-1.1884942
133	0xbf24549b	-0.641916
134	0x3ed96745	0.424616
135	0x3eebf2b1	0.46083596
136	0xbf97e431	-1.1866513
137	0x3fd8aa04	1.6926885
138	0xc00c909c	-2.1963263
139	0xbf9ab5c8	-1.2086725
140	0x3ed8de4b	0.42357096
141	0x403f0161	2.9844592
142	0xbda28bdc	-0.07936832
143	0x3f751deb	0.95748776
144	0xbf269524	-0.6507132
145	0xc09dcb60	-4.931076
146	0xc08712eb	-4.2210593
147	0xc00092dc	-2.0089636
148	0xc0135bc7	-2.3024766
149	0xbf772952	-0.96547425
150	0x4120dd96	10.054098
151	0xbede8265	-0.43458858
152	0x3eeada74	0.45869792
153	0x3f6b8db9	0.92013127
154	0x402446df	2.5668256
155	0x4085ef7e	4.185485
156	0xbf568ff7	-0.8381342
157	0x404c897b	3.1958911
158	0xbe194f42	-0.1497164
159	0xbfc2cd3f	-1.5218886
160	0x404f7e38	3.2420788
161	0x3d5b0d27	0.05347934
162	0xc0438746	-3.0551314
163	0xbf63b01e	-0.8894061
164	0xc0ac88c6	-5.391696
165	0x3f9ed5b7	1.240897
166	0xbeff7bd9	-0.49899176
167	0x3f35a914	0.7096112
168	0x40012fd9	2.0185454
169	0xbf5e39ec	-0.8680713
170	0xbfe51e2b	-1.7899832
171	0xbf805b55	-1.0027872
172	0xc0c495a4	-6.1432667
173	0x3e15af40	0.14617634
174	0xbff98f37	-1.9496831
175	0x3fbf91cb	1.4966367
176	0xbfbd60a4	-1.4795117
177	0xc0826815	-4.0752053
178	0x404d7789	3.2104208
179	0xbf03ca9b	-0.51481026
180	0x3f9c2f68	1.2201967
181	0x3f1c664b	0.61093587
182	0xc07ec319	-3.9806578
183	0x3f93588a	1.1511395
184	0x3f9f6002	1.2451174
185	0x41755838	15.334038
186	0xbffbe3c2	-1.9678881
187	0x3f879242	1.0591509
188	0xbf1bffc6	-0.60937154
189	0x402ad747	2.6693895
190	0x4098ee63	4.7791
191	0x4017339d	2.3625252
192	0x3f979369	1.1841861
193	0x3c9e163b	0.01929771
194	0xbfe1a950	-1.7629795
195	0x416258d0	14.146683
196	0x4005a4d0	2.0881844
197	0x400ce2bd	2.201339
198	0x3f4b4bff	0.79412836
199	0xbfbab251	-1.4585668
200	0x3f5684fe	0.8379668
201	0xbf5e32fc	-0.86796546
202	0xbf43462b	-0.7627894
203	0x3f5f9dd5	0.8735021
204	0xbf1cfba6	-0.61321485
205	0xbfbc2478	-1.4698629
206	0x3f3678d8	0.7127814
207	0xbf3eb561	-0.7449551
208	0x3f842e52	1.0326636
209	0x40092563	2.142907
210	0xbf00570a	-0.5013281
211	0xc039fba7	-2.9059846
212	0xc02920ea	-2.642634
213	0xc0005c5a	-2.0056367
214	0x3f9735ae	1.1813257
215	0x3dc864a9	0.097848244
216	0x3fbd56a2	1.4792063
217	0xbe95a846	-0.29229945
218	0x3ea19503	0.31559
219	0x3d785544	0.06062819
220	0x40602102	3.5020146
221	0xbf94d950	-1.1628819
222	0xbfa52e73	-1.29048
223	0x40199f50	2.4003487
224	0x40150242	2.3282628
225	0xbf531c72	-0.8246528
226	0xbf9baffa	-1.2163079
227	0xc00d2d2f	-2.2058828
228	0x3f791aab	0.9730632
229	0x3ecdb6e0	0.40178585
230	0xbed8a05a	-0.4230984
231	0xc090ee92	-4.5291224
232	0xbf5dfbfe	-0.86712635
233	0x3fc1987a	1.5124657
234	0xc0498b79	-3.1491377
235	0xbf0ef3f0	-0.5584097
236	0xbf3a9808	-0.7288823
237	0xc0307b19	-2.7575133
238	0xc08a0ad3	-4.3138213
239	0x3ef6bf48	0.4819281
240	0x406c9f24	3.6972132
241	0xbe0bbe02	-0.13646701
242	0x40176d18	2.3660336
243	0x3ec71902	0.38886267
244	0x3fc2ec5e	1.5228384
245	0x409c1b25	4.8783135
246	0x3f497811	0.7869883
247	0x40109a20	2.259407
248	0x3f23725f	0.6384639
249	0x40261fd5	2.5956929
250	0xbe48f38e	-0.19624159
251	0xbf120a8f	-0.5704736
252	0x3e99cee8	0.3004067
253	0xbfccf99b	-1.6013674
254	0xc0321a57	-2.7828577
255	0xbf2fafc7	-0.6862759
