public_models/Dnn3Layers/176.pth (torch_old, 616467 bytes, 14 tensors)

weight f4 [252, 252]
00000000: dd0b 1ac0 7c19 3841 c49d 5ec0 6fae 3441
00000010: 1790 9141 49b1 bfbe 3940 2f40 ca7a cc41
00000020: c96e 4640 3c8f a4c0 72da a0c0 1a91 bd3f
00000030: 5377 3ac0 46e0 0140 bd68 f340 b8a0 d3c0
00000040: 9d0b 1bc0 4fef 31c0 6bfc 8841 1b44 83c1
00000050: 1c1a 18c0 2519 e8bf af8d c43f 32c9 40c0
00000060: 36ee bdc0 022c 8841 e16d b240 9e64 e0c0
00000070: d790 3abe a7d7 e9bf a75f d9bf 6893 11c0
00000080: 5e9e e83f 9ee1 bf3e 8ab3 e440 de0c 3ebe
00000090: 04a5 ccbf 959c 003f a287 2ac0 4f59 4240
000000a0: 8541 4cc0 0108 e040 24d0 eb3f b767 8bc0
000000b0: 56c7 aa3f e40e 483e b1b6 b4bf 5737 243f
000000c0: 2d99 b63e f502 80be 2ed5 11bd 0cec 313f
000000d0: 3d31 c1bf ff34 fa3e a569 e5be ef84 d2bf
000000e0: 8dfa 2f3f 5588 17bf 6869 fa3e bcc9 363f
000000f0: 33e1 18bf dbfc 9c3f ec40 01c1 79eb a2c1
00000100: 6f6d 8ec0 b0e0 bd40 e986 77c0 861c 4c40
00000110: 90b3 983e 22ed 153c 9e8a 093e 7b59 9b3f
00000120: c2c1 9d3e d272 74bd 708a 1640 0ae1 9ebf
00000130: b1b6 25bf f675 a43f 5141 7ebf 680d 823c
00000140: 2019 983f b49e 95bf a28d bf3f 7428 953e
00000150: e50e 203d 6284 983d 556b 29be 22c0 a03d
00000160: 27fa 4dbf dc9c 9b3f 02ef 05bf fc4c 553e
00000170: b5cc 913e 42e1 db3d f28d 7abe f827 d6be
00000180: 13d3 193f c653 c3bf 7bcb 903e 36f9 903f
00000190: 058a 00c0 9673 2bbe e1cc 143f 2568 3bbf
000001a0: 7654 c6bc b8b6 bd3e 4d5a 9c3f f7ea b8be
000001b0: 12e1 903e b786 f3bc c365 033e bd6c c73f
000001c0: 4f9d a0bf ca4f c33e 2db0 79be e5ae 20bf
000001d0: a4dd 0a40 6140 e2bf bdeb cfbc 6160 2abd
000001e0: 378c 243f 01d3 f0be 2c0e 61bf 18e9 843f
000001f0: e477 cbbe 4a73 793f 949a 253f 76d5 f0be
00000200: 6e8b 2b40 c6db 6cbf 79fb 1e3f 3599 cf3f
00000210: 968e ce3d 6447 59bf 4adf 383f 9ed6 2b3e
00000220: b8bd 66bf bd4b 363b 667c 13bf 64af 4c3f
00000230: 2af1 2c3f 17cf 68bf cb50 a33f 42d5 e8bb
00000240: e9ee bf3f ac2d 8f3f 7f8d 3fbf 8dfd 9d3f
00000250: 0793 28bd c8c5 51bf 3eb8 1c40 780a 15c0
00000260: b273 99be 2cec 2e40 01ba 3ac0 8736 e6bf
00000270: 15ab 0abf fc91 ba3f afc9 1ec0 23c7 7e3f
00000280: 4cd4 b53e 7276 15bf 238a 0e40 8ebe 19c0
00000290: 7a34 bebf 2164 ff3f 1efc 1cbf 322a 5b40
000002a0: b52b aebf eec3 073e 85a6 acbf b787 d1bf
000002b0: 59e7 6740 554e 8ebf 6026 ae3f 86a2 ad3f
000002c0: 5ed7 2b3f 9f43 17c0 407e 2b40 bce1 e6be
000002d0: 544e 803f d4a7 45bf 7ae8 b23f 3888 abbf
000002e0: 9a15 a53f 9825 0640 7fcc c93e 1334 a73f
000002f0: f485 71c1 fe1a 9cc0 cae4 7340 00cf f140
00000300: d28c aac0 3104 9540 433a b940 0d57 f6bf
00000310: ead4 9440 97d1 a3c1 7e82 9cc1 f24e 5241
00000320: 191a b5bf 984f 7a3f ffc9 3bbc e1ff 633f
00000330: 125e 56bf 2702 cebf 807d 8841 db4c efc0
00000340: dd49 1abe 2d07 ab40 e21c 73c0 a5a1 7740
00000350: 7157 2141 0db2 edc0 cb55 b6c0 bf55 4040
00000360: e2b1 963f 7f67 0340 b4ee 81c1 aa42 d7bb
00000370: 1841 62be 007e 0dc1 3be4 9140 4a77 dc3f
00000380: 5a6f 1242 d033 b0c1 07c2 0fc2 ce98 5840
00000390: 5d0f 9b41 3689 6ec1 f530 a241 9316 f440
000003a0: 413d 01c1 953c 603e 647c 15c2 60e9 9bc1
000003b0: 43ac b640 2edf 73c1 a686 6f41 ff5f 52c0
000003c0: cac0 e3c0 05d8 8b41 6f9d 3dc2 2bc0 2ec2
000003d0: 7438 8e40 cc4a 3640 9f30 1841 5574 14c1
000003e0: a6dc 7e40 b7e4 8141 c457 01c2 3c58 66c2
000003f0: ef69 bd40 09af 0fc1 6543 0a41 149b 0b41
-2.406974 11.506222 -3.4783792 11.292586 18.195356 -0.37439945 2.7382948 25.559956
3.1005118 -5.1424847 -5.0266657 1.4809906 -2.913533 2.0293136 7.6065354 -6.613369
-2.4225838 -2.7802312 17.123251 -16.408255 -2.3765936 -1.8132674 1.5355738 -3.01228
-5.9353285 17.021488 5.575913 -7.0122824 -0.18219315 -1.8268937 -1.6982316 -2.274622
1.817333 0.3747682 7.1469164 -0.18559596 -1.5987859 0.50238925 -2.6645284 3.036701
-3.191499 7.000977 1.8422894 -4.3564105 1.3342083 0.1953693 -1.4118253 0.6414694
0.3566374 -0.25002256 -0.035603695 0.69500804 -1.5093151 0.48868558 -0.44807163 -1.6446818
0.68741685 -0.591924 0.48908544 0.7140157 -0.59718627 1.2264665 -8.07835 -20.364977
-4.4508586 5.9336777 -3.8676093 3.189241 0.29824495 0.009150775 0.13431785 1.2136682
0.30811888 -0.059679814 2.3521996 -1.2412426 -0.6473189 1.2848499 -0.99318415 0.015875533
1.1882668 -1.1689057 1.4965098 0.29132426 0.039076705 0.07447125 -0.1654485 0.078491464
-0.8045983 1.2157245 -0.5231782 0.20830148 0.28476492 0.10736324 -0.2446821 -0.4182737
0.600877 -1.5259941 0.28280243 1.1326053 -2.008424 -0.16743311 0.5812512 -0.73205787
-0.024210196 0.37053466 1.2215058 -0.36116764 0.28296715 -0.029727323 0.12831788 1.5580059
-1.2548007 0.38146812 -0.24383612 -0.6276687 2.1697779 -1.7675897 -0.025380963 -0.04159582
0.6427645 -0.47035983 -0.8791225 1.0383635 -0.39739907 0.9744154 0.6468899 -0.47037858
2.680385 -0.9252285 0.62102467 1.621863 0.1008579 -0.8487456 0.7221571 0.16781089
-0.9013324 0.002781614 -0.5761169 0.79955125 0.6755549 -0.90940994 1.2759031 -0.0071055004
1.4994785 1.1185813 -0.7482528 1.2343003 -0.04115584 -0.81942415 2.4487453 -2.328764
-0.2997108 2.7331648 -2.9176028 -1.798539 -0.541673 1.4575801 -2.4810598 0.9952261
0.35513532 -0.5838386 2.2271812 -2.4022555 -1.4859765 1.9952432 -0.613222 3.4244504
-1.3607088 0.13258335 -1.3488318 -1.6369542 3.6234953 -1.1117655 1.3605461 1.3565223
0.671255 -2.3635023 2.6795807 -0.45094097 1.0023904 -0.7720921 1.3977196 -1.3400946
1.2897217 2.0960445 0.3941383 1.3062767 -15.095203 -4.878295 3.8108392 7.5565186
-5.32969 4.6567616 5.788362 -1.9245316 4.6509905 -20.477339 -19.563717 13.144274
-1.4148589 0.977777 -0.011461734 0.89062315 -0.8373729 -1.6094407 17.06128 -7.478132
-0.15067239 5.344626 -3.7986379 3.869241 10.083848 -7.4279847 -5.697973 3.0052335
1.1773036 2.053192 -16.241554 -0.0065692263 -0.22095144 -8.843262 4.55911 1.7223904
36.60874 -22.0253 -35.93948 3.3843265 19.382502 -14.908499 20.273905 7.6277556
-8.077455 0.2189811 -37.371475 -19.488953 5.708528 -15.241987 14.970373 -3.2871091
-7.117284 17.480478 -47.403744 -43.687664 4.4443913 2.8483152 9.51187 -9.278401
3.9822173 16.236677 -32.33571 -57.586166 5.9191813 -8.980233 8.641454 8.725361

bias f4 [252]
00000000: 97ad b442 bf65 30c3 59b2 2fc4 4f2b dbc3
00000010: 176a 02c4 990d adc3 1f9d 79c3 d7ee 49c4
00000020: 8bf3 03c4 5a03 fcc2 9d90 e3c3 debd 24c3
00000030: 734d 4ac4 1a59 31c4 f3bd 9ec3 de33 17c4
00000040: c94b 22c4 9ac2 91c3 1868 01c4 2271 d1c3
00000050: 259a 58c3 b056 30c4 81d3 65c3 5e2c d7c3
00000060: 56f4 cac3 9634 29c4 7fbd 2cc4 9bdf 91c3
00000070: c593 24c4 fec9 66c4 c448 3ac4 48b7 b6c2
00000080: 53e7 81c3 50aa 49c4 ad70 2bc4 e1d5 29c3
00000090: 02e2 13c4 b396 b8c3 8fc5 e3c3 2b98 97c3
000000a0: 3908 15c4 e17a 97c3 7ccc 70c3 96da 1dc4
000000b0: 7e8e bac3 afa5 11c3 9d62 1ec4 bc28 5ac4
000000c0: cafb fec3 cbc3 c3c3 d6c7 4bc4 e8d6 42c4
000000d0: b293 97c2 cecb a6c3 f455 2cc4 8d3f 98c3
000000e0: 5130 aac3 a4f4 21c4 8728 26c4 b6c8 d9c3
000000f0: 0d34 4dc3 8809 25c4 07d1 53c3 b540 47c4
00000100: 2faf dac3 d8de 16c4 5e03 c5c3 5154 48c3
00000110: 7c6e abc3 a1d7 11c4 8b76 46c4 b4bf fac2
00000120: ae5d 2dc3 6cf7 2fc4 30ec 85c3 987f 93c3
00000130: 2b00 5fc3 5b65 f7c3 ffc8 68c4 e113 27c4
00000140: f927 b0c3 e445 5fc4 a961 f9c3 acc0 73c3
00000150: ce94 d5c3 e85f 51c3 de2a 11c4 3814 82c3
00000160: 0a2c 6ec4 d63c bdc3 534a 81c3 bd3a fbc3
00000170: 41ff 91c3 f6eb b7c3 a4d4 5fc4 dc75 8bc2
00000180: ae87 59c4 7686 f0c2 9c5e 36c3 60f6 c6c3
00000190: 3ed2 63c3 8148 11c4 5e57 c0c3 b320 afc3
000001a0: 08e9 b5c3 a8d7 47c4 6662 6cc4 c39c d0c3
000001b0: 3528 ccc3 4798 6bc3 1220 5942 38bf 1ac4
000001c0: 088e 94c3 1e97 f2c3 0bfa b2c3 33bf b2c3
000001d0: e2bd 3dc3 d9dd 88c2 820a a3c3 f71c 4fc4
000001e0: 3b24 6dc3 ed47 9dc3 5748 2fc4 11be 4ac4
000001f0: a1f2 1ec4 d5b1 42c3 83b5 b0c3 42ad 1ac4
00000200: fd92 c1c3 d115 56c3 f05c 2fc3 48e7 55c3
00000210: 598c d5c2 2e2a e3c3 64e4 eac3 94f4 eac3
00000220: 81bb 0dc4 5798 2bc4 d3a4 adc2 2125 aec3
00000230: a585 10c4 7547 8cc3 6a27 71c3 2c09 25c4
00000240: 42c9 19c3 7e87 9ac3 dd70 e0c3 c49c 9142
00000250: da18 40c3 79b2 56c3 0b5d d5c3 c4e3 9bc3
00000260: 7c4a d3c2 312d 97c3 3393 30c3 30e1 9cc3
00000270: 2320 a9c3 7f67 05c4 01a9 2ac4 3b41 33c3
00000280: 5c39 4ac3 9aa0 bcc3 388c d2c3 9e02 d3c3
00000290: 8939 90c3 3952 b4c3 04d0 cdc2 75e6 92c3
000002a0: 675f 92c3 a0fa c1c3 3f66 e3c3 8061 a8c3
000002b0: 520b bcc3 b1f3 4ec4 f900 06c4 f3cb 39c3
000002c0: cd21 34c4 ef25 c8c3 bed0 f3c2 46e6 89c3
000002d0: c7f2 c5c3 5f1a fac3 c3e4 86c3 f1c2 a4c3
000002e0: 8729 b2c3 2d5d 1ec4 615f e6c3 ba66 2ac3
000002f0: 3fdb a9c2 3c8b 6ec4 07d3 1cc4 d572 d0c2
00000300: 22e9 8cc3 3509 3fc4 8655 67c4 0904 98c3
00000310: 566a 9ac3 d9e7 a4c3 e9f0 8ec3 979c 70c4
00000320: 1522 3fc4 3ad9 90c3 2cca 5ec3 de1b 54c4
00000330: 897e 05c4 22ae 27c3 542f 24c3 1b69 45c4
00000340: 22a8 28c3 e028 8ec2 3034 a9c3 7b8b ebc3
00000350: 8b04 88c3 0ed5 c0c3 3073 a8c2 aa0b aec3
00000360: a0e0 c8c3 5927 01c4 8311 e3c3 0a84 f6c3
00000370: 8830 a8c3 6b77 3dc3 13af 7dc3 535b 2ac4
00000380: 2b84 04c4 0a25 51c4 ac97 bec2 c950 23c4
00000390: 5fc2 a0c3 2d20 19c4 8b05 dfc3 81b6 65c3
000003a0: b449 4ac3 e0a5 13c4 5b84 eec3 5909 8cc3
000003b0: eb41 5ac4 4f62 71c3 d108 fec1 6afa bfc1
000003c0: 82b4 17c3 224c 12c4 58aa a7c3 a51e f2c2
000003d0: 6456 4ac4 9e66 9bc3 574b d6c3 27ca d2c3
000003e0: 02c3 4cc4 75d6 adc3 5067 5fc3 185b b8c1
90.33904 -176.39745 -702.7867 -438.33835 -521.65765 -346.10623 -249.61375 -807.7319
-527.80536 -126.006546 -455.1298 -164.74167 -809.21014 -709.3922 -317.48398 -604.8104
-649.18414 -291.52032 -517.62646 -418.88385 -216.60213 -705.3545 -229.82619 -430.34662
-405.90887 -676.82166 -690.9609 -291.74692 -658.3089 -923.1561 -745.13696 -91.35797
-259.80722 -806.66113 -685.76056 -169.83546 -591.5314 -369.17734 -455.54343 -303.1888
-596.1285 -302.96 -240.79877 -631.4154 -373.11322 -145.6472 -633.54083 -872.6365
-509.9671 -391.52963 -815.12244 -779.3579 -75.78847 -333.59222 -689.343 -304.4965
-340.37747 -647.8225 -664.63324 -435.56805 -205.20332 -660.1489 -211.81651 -797.01105
-437.36862 -603.48193 -394.0263 -200.32936 -342.86316 -583.3692 -793.85223 -125.37442
-173.36594 -703.86597 -267.8452 -294.99683 -223.00066 -494.79184 -931.14056 -668.3106
-352.3123 -893.09204 -498.76297 -243.75262 -427.16254 -209.37463 -580.6698 -260.15796
-952.6881 -378.47528 -258.58066 -502.4589 -291.99417 -367.84344 -895.3225 -69.730194
-870.12 -120.26262 -182.36957 -397.9248 -227.82126 -581.1329 -384.68256 -350.25546
-363.82056 -799.3696 -945.5375 -417.2247 -408.31412 -235.59483 54.28132 -618.9878
-297.10962 -485.1806 -357.95346 -357.49374 -189.74173 -68.4333 -326.0821 -828.4526
-237.14153 -314.56192 -701.1303 -810.9698 -635.7911 -194.69466 -353.41806 -618.70715
-387.14835 -214.08522 -175.36304 -213.90344 -106.77412 -454.32953 -469.7843 -469.91077
-566.92975 -686.3803 -86.82192 -348.29007 -578.0882 -280.55826 -241.15396 -660.1433
-153.78616 -309.05853 -448.88174 72.80618 -192.09708 -214.69716 -426.7269 -311.77942
-105.64548 -302.35306 -176.575 -313.75928 -338.25107 -533.6171 -682.6407 -179.2548
-202.22406 -377.2547 -421.09546 -422.02045 -288.4495 -360.64236 -102.90628 -293.80045
-292.74533 -387.958 -454.7988 -336.76172 -376.08844 -827.8077 -536.0152 -185.79668
-720.52814 -400.29636 -121.9077 -275.799 -395.8967 -500.20602 -269.7872 -329.52298
-356.32443 -633.4559 -460.74515 -170.40128 -84.928215 -954.17554 -627.2973 -104.22428
-281.82135 -764.14386 -925.3363 -304.03152 -308.83075 -329.8113 -285.8821 -962.4467
-764.53253 -289.69708 -222.78973 -848.4354 -533.9771 -167.6802 -164.18488 -789.6423
-168.65677 -71.079834 -338.4077 -471.0897 -272.0355 -385.6645 -84.224976 -348.09113
-401.75488 -516.6148 -454.1368 -493.03156 -336.37915 -189.46648 -253.68388 -681.42694
-530.0651 -836.57874 -95.296234 -653.26227 -321.51852 -612.50275 -446.0433 -229.7129
-202.2879 -590.5918 -477.03403 -280.07303 -873.02997 -241.38402 -31.754305 -23.997272
-151.70511 -585.1896 -335.3308 -121.05985 -809.34985 -310.8017 -428.5886 -421.5793
-819.047 -347.67545 -223.40356 -23.04448

weight f4 [252]
00000000: 0d38 e43f 375a d93f 5223 f03f 9974 f53f
00000010: 2bb1 0540 b08a 0240 0b1e e63f 17e9 1340
00000020: 57e8 0640 afa3 f93f 68c0 1040 4422 0540
00000030: b7d0 0740 ffce 0a40 7a9a e73f 5b33 0940
00000040: 6d35 1140 69b9 dc3f 8803 e43f 394b fb3f
00000050: 8185 c73f a5c7 de3f 5596 ed3f 3f88 e73f
00000060: 6c6a e83f a0f1 ec3f fe91 0740 19d7 e83f
00000070: 1afc 1240 582d 0d40 f30f 1f40 1b53 0040
00000080: e463 ca3f f7d7 0740 94b6 1c40 fca5 c23f
00000090: 12b1 0540 03d6 1040 ad50 0640 40e6 0640
000000a0: dcad 0540 e4fb f13f b3ae e53f 2068 0940
000000b0: ed69 1940 2ad0 0640 f388 0c40 9751 0d40
000000c0: 0b78 d93f 50f7 ce3f e4e6 ec3f c001 0a40
000000d0: 2f34 d23f b15f 1440 4572 0b40 e1b3 e83f
000000e0: cfed c83f 8841 0c40 3078 1640 97c5 ef3f
000000f0: a75d e83f 4b35 8740 ed68 e83f e7a3 2140
00000100: 4712 0d40 1456 ec3f 9c4b 0e40 5df0 e63f
00000110: ef42 e43f 5864 0040 fe92 e73f 1822 3940
00000120: 01cc ed3f dee4 1240 d9c4 fb3f ae1a e23f
00000130: dd9c f83f 0a30 db3f ed02 cc3f 4d4f 0740
00000140: d00f 0540 db95 4f40 5ea5 d03f 8cbd e03f
00000150: 2759 f83f 16df 0d40 9a54 1840 3c1d 1940
00000160: 2393 da3f 8f27 fe3f 657f 0840 b232 0440
00000170: 8079 0240 c703 dc3f 510b 1540 9133 f23f
00000180: 292d 1f40 d1b6 f53f 601a ec3f edab ef3f
00000190: 3a6c cf3f e3a6 e93f a905 ff3f 01a2 0840
000001a0: b682 f53f e2aa e93f dd96 f23f 5a22 e03f
000001b0: 0859 f13f 8062 0940 3bce e23f 7658 d03f
000001c0: 70cf e73f a40b dc3f 0ebf dd3f 1c59 f73f
000001d0: af37 dc3f bac8 d43f df63 ed3f 3e0c 2140
000001e0: 813b de3f a1c5 e13f 128d 1540 2eba 1640
000001f0: f670 0f40 2054 0440 991a fa3f 9db1 fd3f
00000200: 342a f13f 26a0 e33f 4ce2 0640 a754 0740
00000210: a2ee fb3f 5ae6 fb3f f0af fd3f 7552 e03f
00000220: d8d8 f33f f780 d53f ef5c be3f c31d 4840
00000230: 6743 0f40 c092 1440 c4a8 fa3f d451 1040
00000240: 289a fe3f e3a2 e23f 6ddd f13f 3893 ec3f
00000250: 2678 f03f 9f76 0140 72d2 f23f fa96 e73f
00000260: 2e87 f23f 4a50 d43f 9946 fd3f 6566 f73f
00000270: 40a0 e53f 00e3 ef3f 3dae 0240 790c ed3f
00000280: 6da7 ef3f c70f eb3f 5ab1 f03f db1e f63f
00000290: 33dc e53f 38e5 f23f 9443 f13f 9eae 0740
000002a0: 7663 1940 e240 0140 7dc5 fb3f 7a8b 0440
000002b0: 3591 f13f 8211 0540 1433 f43f 5112 f13f
000002c0: 5136 0240 01b9 fd3f 751d 2740 f849 0a40
000002d0: 4cc1 0640 d359 f03f 8ea5 f23f 766d e93f
000002e0: 69b9 eb3f 6c1b 0840 93f8 f93f 1412 f93f
000002f0: ad2d e33f 9bee f43f 8389 f83f d972 e13f
00000300: 671c e23f 4c86 1240 891a 6a40 ad17 f03f
00000310: 4158 d5bf d785 db3f a06a 0840 a759 ff3f
00000320: c9d8 f83f 1647 e33f 554a fb3f 11d2 1540
00000330: 5c7c da3f 4d65 ec3f 2e82 f33f 9c3b 0a40
00000340: 5e35 2840 bdec d63f 8d59 d33f 7275 1a40
00000350: 0e71 d43f 1bb5 e43f 0cbf 0a40 0f30 1d40
00000360: 4e87 f53f 50ff 0e40 1574 ed3f 7091 f83f
00000370: 1b95 0a40 2c84 0040 3322 f93f 2938 ea3f
00000380: 17c0 e43f 44fd 2740 a0be f23f 7bc9 6d40
00000390: 4350 ff3f 8d82 1540 ee91 0d40 d169 1440
000003a0: f097 d73f 6986 1d40 b7c4 0840 ef86 d03f
000003b0: 7c76 0840 03a3 2140 7821 0140 6d40 0340
000003c0: 7c5d f63f 5385 0c40 5478 0440 9b53 dd3f
000003d0: d3f2 1b40 fc09 ec3f c850 0140 f5ad 0540
000003e0: 2419 0540 f362 fc3f 3b0c 0c40 a2a9 e53f
1.7829605 1.6980656 1.8760779 1.9176208 2.0889385 2.0397148 1.7977918 2.3111017
2.107931 1.9503077 2.2617435 2.0802164 2.122114 2.168884 1.8094018 2.1437595
2.2688859 1.7244083 1.7813578 1.9632331 1.5587617 1.7404677 1.8561503 1.8088454
1.8157477 1.8511238 2.1182857 1.8190643 2.296637 2.2058926 2.4853485 2.0050724
1.5811734 2.1225564 2.4486437 1.5206904 2.0889325 2.2630622 2.098674 2.1078033
2.0887365 1.8904996 1.7943939 2.1469803 2.3970902 2.1064553 2.1958587 2.2081048
1.6989759 1.6169224 1.8507962 2.1563568 1.6422175 2.3183405 2.1788495 1.8179895
1.5697573 2.1914997 2.3510857 1.8732175 1.815358 4.2252555 1.8157021 2.5256288
2.2042406 1.8463769 2.2233648 1.8042103 1.7832927 2.0061245 1.8091733 2.892706
1.8577882 2.295219 1.9669448 1.7664392 1.9422871 1.7124035 1.5938393 2.1142151
2.07909 3.2435215 1.6300466 1.7557845 1.9402207 2.216741 2.3801637 2.3924093
1.7076153 1.9855822 2.1327755 2.0655942 2.0386658 1.7188653 2.3288157 1.8921987
2.4871314 1.9196416 1.8445549 1.8724343 1.6204903 1.8254055 1.9923602 2.134888
1.9180515 1.8255274 1.895229 1.7510483 1.8855295 2.146637 1.7719187 1.6276996
1.811018 1.7191052 1.732393 1.9324069 1.7204493 1.6623757 1.8546103 2.5163722
1.7361909 1.7638437 2.3367352 2.3551135 2.2412696 2.0676346 1.9539367 1.9819828
1.8841004 1.7783248 2.107562 2.1145418 1.96822 1.9679673 1.9819317 1.7525164
1.905055 1.6679982 1.4872111 3.1268165 2.238489 2.321457 1.9582753 2.2549944
1.9890795 1.7705959 1.8895699 1.8482428 1.8786666 2.022865 1.8970473 1.8092949
1.8947504 1.6587002 1.978717 1.9328123 1.793953 1.874115 2.0418847 1.8519431
1.8722969 1.836419 1.8804123 1.9228166 1.7957824 1.8976202 1.8848748 2.1200328
2.3966956 2.0195851 1.9669644 2.071013 1.8872439 2.0791936 1.9078088 1.8833715
2.0345652 1.9822084 2.611173 2.1607647 2.105548 1.8777412 1.8956773 1.823653
1.8415958 2.1266737 1.9528984 1.9458642 1.7748314 1.9135317 1.9416965 1.7613174
1.7664918 2.2894468 3.6578696 1.8757225 -1.6667558 1.715022 2.1315079 1.9949235
1.9441158 1.7756069 1.9632059 2.3409464 1.7069201 1.8468415 1.9024103 2.1598883
2.6282573 1.6790997 1.6511704 2.4134183 1.6597002 1.7867769 2.1679106 2.4560583
1.9181917 2.234333 1.855105 1.9419384 2.1653507 2.0080671 1.9463562 1.8298389
1.7871121 2.624833 1.8964424 3.7154224 1.9946369 2.3360932 2.2120318 2.3189585
1.6843243 2.4613287 2.1370065 1.6291178 2.1322317 2.5255744 2.0176678 2.0508072
1.9247279 2.1956375 2.0698442 1.7291139 2.4366958 1.8440547 2.0205555 2.0887425
2.0796595 1.9717697 2.1882465 1.7942393

bias f4 [252]
00000000: 8eb2 e63d 15b9 5f3e 7626 95be db96 963e
00000010: 1945 4b3e 261e 353f b761 be3e 02dd acbf
00000020: cd4f 86bf cd5c 04be d57b 313f 9ac6 493f
00000030: f353 93bf fad2 abbf 9e32 973e d584 4b3f
00000040: 2ab7 41bf 8730 4d3d b4ee 9cbe 2908 043f
00000050: 54db 29be f5aa 2d3c 61fa 383e 3475 c33e
00000060: 4bb3 643e 0edd ee3d 995a f9be 6868 f13e
00000070: 2d5e 92bf a183 b1bf a3fb 3dbf 1d72 0e3f
00000080: db27 24be c1a1 4ebf ff17 acbf ede5 063d
00000090: ce1e 7dbf f015 6c3f 0059 d93e 0df6 243f
000000a0: 27cc 913e 31a9 003f d7fe 833e ffcb 65bf
000000b0: 5fcf 6c3f 8c67 1e3f 0c75 92bf a0c4 1bbe
000000c0: 19a3 34be 7f1c 5fbd aa99 08bf e267 d7bd
000000d0: 12d7 753e 251d 883f 4b69 33bf 284e da3e
000000e0: 484f 263e 608b 12bf 9206 b5bf 659c 0bbe
000000f0: 52e6 983e b662 ca3f 5e9c 143e 5461 94bf
00000100: 7b48 2d3f 6749 1ebe 2a88 4d3f 52f1 ad3e
00000110: b9a7 e63e 5e13 043f eeb1 8cbd c280 7a3f
00000120: 6409 933e 1a69 95bf 6445 c93e 83af 2dbc
00000130: 048b e03e 1b7a b3bd b9ac a9be ba7d 60be
00000140: 56d5 053f a4e6 7f3f 2658 18bf a799 b83e
00000150: 613d dd3e d9ac 4e3f 4528 bebe de6a 8d3f
00000160: 5e0b c8be e974 503e c77f 6e3f fd31 863e
00000170: ea1c 063f 563e 4f3e bdab bdbf ba93 143f
00000180: 77c8 c9bf f9e3 c13e 4d34 8b3e 5531 54bd
00000190: 0e0b b0bd 300b 0d3e 07f5 1a3f 6ec2 123f
000001a0: b437 9f3e abb7 3cbe 0c18 233d 6ef9 483c
000001b0: b487 f73d 0ffa 093f b530 313d 1dc2 df3d
000001c0: b26f 923e 12c7 27bd a8b0 2b3e b999 663e
000001d0: 6694 42bd fe7a 683e 01c4 ee3e 32d2 80bf
000001e0: 033e 963e ae8a 073e 877b 8dbf 3846 a6bf
000001f0: 46b3 28bf ebfe a13e 1bd2 433d f6e4 7dbe
00000200: 6d99 393e ecea e03e e3a3 3a3f f127 0a3f
00000210: 8796 c73e 6dd3 0abd 1f07 61be 427b 6f3d
00000220: 696c 4e3e 2ed9 a8be 7a8e 56bd d065 943f
00000230: 33e9 393f 1f0c 853f d223 fe3e be43 82bf
00000240: d649 d63e 2f10 3bbc 8016 383e ab95 ad3e
00000250: b0c5 033f 2fa9 1a3f a957 023e 3dd7 623e
00000260: d6c9 ff3e 288e 833e 10b7 b93e 359c 483e
00000270: 7268 a53d cbef c83e fd3e 49bf 44ff 8e3e
00000280: 6aea 873e e70f a03c 3044 cf3e be01 a03e
00000290: 0780 5e3e 0cb7 4a3e 7ed7 f43e 09c3 623f
000002a0: eb94 5c3f 488b c63e 233d 4f3e 5c32 2e3f
000002b0: bc2d 623e d04e 8c3e 99f3 80be 2cd6 ec3d
000002c0: 11f6 81bf ae4d 6e3e 5f2c a93f 6398 2a3f
000002d0: 1ce3 b73e bb46 a33e 428e 3d3f 766e f23d
000002e0: 8da1 b23e 9b95 f93b 54fc 113f b220 0c3f
000002f0: 43bc 273e d2f7 7cbd 6643 8bbc 5e7d d63e
00000300: cb8c 873e 89c0 adbf 52ac 9e3f 9839 d13e
00000310: 26f1 babd 1310 963e c397 153f 8099 a23c
00000320: fa00 3b3e 5431 3c3e d1ff ae3e be2c cbbf
00000330: f8ee 21bd 17a2 a4be 57b9 5a3e e2e3 78bf
00000340: 75b4 943f abce ac3d 16f1 e73b 327f 363f
00000350: 9c20 733d add3 883d 7a1d e73e 26b7 2f3f
00000360: a88f 073f db8f a1bf 6e4e 213f f928 8bbc
00000370: 20fb 273f cff7 3a3f 5caf 063f eeb4 1dbe
00000380: 7bfb e4bd ca46 9cbf 5d21 d33e ccd9 a33f
00000390: 02ab c83c afa2 2b3f 8a43 f23e 0d63 8a3f
000003a0: d65f a83d dc0f 66bf 4f6b dc3e acd4 463e
000003b0: ecb3 81bf 9212 993f 48fc af3e 30e9 5c3e
000003c0: 8ba2 7a3e 9cb1 31bf ee47 783f 90f2 5f3d
000003d0: ffa4 abbf 6071 e73e 513d 2e3f 3a60 303f
000003e0: 29fd b8bf 3d57 d03c e6fd 4b3f aa26 e63d
0.11264525 0.21847947 -0.29130906 0.2941197 0.19850577 0.7074913 0.37183926 -1.3504946
-1.0493103 -0.12926026 0.6932958 0.78818667 -1.1509994 -1.342376 0.29530805 0.7949956
-0.7567011 0.050095107 -0.30650866 0.5157495 -0.16587573 0.010599841 0.18064262 0.38175356
0.2233402 0.116632566 -0.48701933 0.47149968 -1.143499 -1.3868295 -0.7421209 0.55642873
-0.16030829 -0.80715567 -1.3444823 0.032934118 -0.9887513 0.92220974 0.42450714 0.64437944
0.28476068 0.50258166 0.25780365 -0.897644 0.92503923 0.6187675 -1.144197 -0.15211725
-0.17640342 -0.054470535 -0.5335947 -0.10517861 0.24007824 1.0633894 -0.7008254 0.42637753
0.16241181 -0.5724392 -1.414263 -0.13633879 0.2986322 1.5811374 0.14512774 -1.1592202
0.6768872 -0.15457688 0.80285895 0.33973175 0.45049837 0.5159205 -0.06869875 0.9785272
0.28718102 -1.16727 0.39310753 -0.010600927 0.4385606 -0.08763524 -0.3313959 -0.21922961
0.5227865 0.99961305 -0.59509504 0.36054727 0.4321089 0.80732495 -0.37140098 1.1048238
-0.39071172 0.20357098 0.9316372 0.26210013 0.5238787 0.20238623 -1.4818035 0.5803791
-1.5764302 0.37869242 0.2718834 -0.05180486 -0.085958585 0.13773799 0.6053013 0.57327926
0.31097186 -0.18429439 0.039817855 0.0122665 0.1208643 0.53897184 0.04325934 0.10925696
0.28600842 -0.040961333 0.16766608 0.22519578 -0.047504805 0.22703168 0.46633914 -1.0064147
0.29344186 0.13236496 -1.1053323 -1.2990179 -0.6589855 0.316398 0.047807794 -0.24794373
0.18124934 0.4392923 0.7290632 0.53967196 0.3898203 -0.033893038 -0.21975373 0.058467157
0.20158543 -0.32978195 -0.05238197 1.1593571 0.7262146 1.0394324 0.49636704 -1.0176923
0.41853207 -0.011417433 0.17977333 0.3390325 0.5147352 0.60414404 0.12728752 0.2215242
0.49958676 0.25694394 0.36272478 0.19590838 0.08076562 0.39245448 -0.7861174 0.27929127
0.2654603 0.019538833 0.4048171 0.3125133 0.21728526 0.1979639 0.47820657 0.8857885
0.8616473 0.38778138 0.20238166 0.6804559 0.22087759 0.2740388 -0.2518585 0.115642875
-1.0153219 0.2327182 1.3216666 0.66638774 0.35915458 0.318899 0.74045193 0.11837475
0.34888878 0.0076167113 0.5702565 0.5473739 0.1638041 -0.061759777 -0.016999912 0.41892523
0.26474604 -1.3574382 1.2396338 0.40864253 -0.09128027 0.2930914 0.58434695 0.019848585
0.18262091 0.18378192 0.34179547 -1.5873029 -0.03953454 -0.32154915 0.21359764 -0.9722272
1.1617571 0.08437856 0.0070783 0.71287835 0.05935727 0.06680999 0.45139676 0.6863884
0.5295358 -1.2622026 0.630103 -0.01698731 0.6561756 0.73034376 0.5261133 -0.1540105
-0.111807786 -1.2209103 0.41236392 1.2800841 0.024495605 0.6704511 0.47317153 1.0811478
0.08221404 -0.8986795 0.4305062 0.19417065 -1.0133033 1.1958792 0.34372163 0.21573329
0.24476068 -0.69411635 0.96984756 0.054674685 -1.3409728 0.45203686 0.6806231 0.6889683
-1.4452258 0.025432223 0.79684293 0.11237843

running_mean f4 [252]
00000000: 47e3 0a47 31f0 f246 9bd0 aa47 d972 3447
00000010: c53d eb46 2195 3547 5c77 fe46 43da 4047
00000020: e740 6147 8f8a b846 4ad2 6d47 fbd0 9346
00000030: 88c3 0a48 47a9 6647 584c 4f47 4ae3 3447
00000040: 2d1b a646 7d98 7b46 5cf1 0547 279d 0d47
00000050: 7e5b a546 22f5 0c47 ed81 9346 4d85 1c47
00000060: 11b2 d746 ed8b a646 25bb bc47 305e d946
00000070: ecbf 7047 a26c e247 be21 1547 e72d c046
00000080: 0f05 7046 6c2f ac47 acbc a047 8eb8 9246
00000090: b5ee cb47 0632 0447 0dc8 1147 3199 bc46
000000a0: 6499 8547 0d39 d646 e6dd fa46 57cf ec46
000000b0: f9f4 1447 827f a646 daca 2847 c23d 6d46
000000c0: 535f 7946 6b9d c946 dbfc 2646 3476 4a46
000000d0: 5092 ac46 2d02 4c47 04e6 e746 63ee b746
000000e0: e76f 8946 3f76 a947 ebc0 f547 ba00 5a46
000000f0: 28ef 3047 bb14 ee46 8d82 ca46 725b 1e48
00000100: c74e 8146 a6fd b846 d075 4e47 8064 8746
00000110: 2b1d 9f46 b9a9 d246 5fac 5147 66bd 9e46
00000120: 7dfd a046 e0ed 1448 6f8d d646 0762 2347
00000130: bbdf 4847 ba74 ec46 5a32 4246 29b7 6747
00000140: f8c2 4047 ec4b fe46 22fd c046 843f d746
00000150: deac e546 6c05 d446 1afc 1947 aaa0 0f47
00000160: 169e 5e46 479f 4047 11fc 1c47 4273 6847
00000170: 79b5 1947 71b9 d946 b2ef d247 100e dd46
00000180: ddad f647 adc8 1047 e08e e646 4d5f 9047
00000190: d7ca 0047 dc17 4747 468e ae46 babe 9546
000001a0: 73aa 1e47 01c7 b246 942b 9147 1d5e e846
000001b0: 8b4b 7a47 d254 8346 6ad7 0847 baae ef46
000001c0: 88ed d946 d68e 8946 9dfb 3d47 9611 7d47
000001d0: 034d c346 3112 c946 3b02 0b47 bb82 ad46
000001e0: ad33 e346 b7c6 0047 2131 f447 dc01 2848
000001f0: db2e ae46 6689 1547 1d2a 3947 51cd dd46
00000200: 48a4 7247 9c39 9746 75a9 c346 da20 1747
00000210: 3228 d146 e9f5 c846 513a a047 1bb3 5a47
00000220: 43b8 2247 7036 0847 bbf8 b646 0844 a346
00000230: fd33 8b46 9a46 2b47 72c4 fa46 2c20 0348
00000240: ae03 2a47 f780 2047 0d9c 3047 1b60 fc46
00000250: cc6d c146 8b70 2d47 7034 1147 2775 3d47
00000260: f13c fd46 b03f c946 8a9c 2247 e277 ea46
00000270: e266 2947 3768 2a47 6327 b247 74dd 0447
00000280: 7b34 2d47 ec0b 9a46 c37f 1247 518e 0147
00000290: bdd8 1d47 2969 6347 df9c c246 493f fb46
000002a0: 4006 0a47 bd4b 5846 c4b3 9b46 c6e2 3b47
000002b0: cfa2 1747 992b 0547 19ee 8d46 f534 4d47
000002c0: 17b5 e246 1ada 5547 3116 f746 ef7d 3447
000002d0: 91de 3247 02e4 dd46 5ea1 6c46 b08f d646
000002e0: fd5e c146 065e 1847 4efa 9746 2e02 2f47
000002f0: d180 d646 3636 8346 a2e6 3d47 73a3 e546
00000300: e174 fc46 9220 b047 a021 c446 b81a e546
00000310: b077 be46 b086 a046 89ab 3047 1e49 8246
00000320: f13b 3f47 4436 be46 3ed4 c646 977a e347
00000330: 2136 5046 8d39 b846 8384 f446 accb d847
00000340: 1051 e346 5898 7946 7e91 d146 3022 9046
00000350: 6826 1447 c512 3547 045b 9346 24a8 7d46
00000360: b4b4 1f47 2463 d546 f2dd 1a47 78b9 8747
00000370: fac9 5247 9432 d346 1dac 0247 1322 9d47
00000380: 9af8 6947 e9c4 ae46 f4fa c746 4776 0547
00000390: 25af 8047 a6da 4846 3298 0347 7826 6f47
000003a0: 5079 8246 20ea 0f48 17fc cb46 5eb0 0447
000003b0: af5a 0c48 c27e 0647 c197 aa46 4c86 6947
000003c0: d410 f146 b4d2 fd47 f37f 0b47 013c dd46
000003d0: bd69 2f48 8311 3147 8a0b 1d47 090d 7247
000003e0: 870b f647 e171 2347 25a6 2947 adaf db46
35555.277 31096.096 87457.21 46194.848 30110.885 46485.13 32571.68 49370.26
57664.902 23621.28 60882.29 18920.49 142094.12 59049.277 53068.344 46307.29
21261.588 16102.122 34289.36 36253.152 21165.746 36085.133 18880.963 40069.3
27609.033 21317.963 96630.29 27823.094 61631.92 115929.266 38177.742 24598.951
15361.265 88158.84 82297.34 18780.277 104413.414 33842.023 37320.05 24140.596
68402.78 27420.525 32110.95 30311.67 38132.973 21311.754 43210.85 15183.439
15959.831 25806.709 10687.214 12957.551 22089.156 52226.176 29683.008 23543.193
17591.951 86764.49 125825.836 13952.182 45295.156 30474.365 25921.275 162157.78
16551.389 23678.824 52853.812 17330.25 20366.584 26964.861 53676.37 20318.7
20606.744 152503.5 27462.717 41826.027 51423.73 30266.363 12428.588 59319.16
49346.97 32549.96 24702.566 27551.758 29398.434 27138.71 39420.1 36768.664
14247.521 49311.277 40188.066 59507.258 39349.473 27868.72 107999.39 28295.031
126299.73 37064.676 29511.438 73918.6 32970.84 50967.86 22343.137 19167.363
40618.45 22883.502 74327.16 29743.057 64075.543 16810.41 35031.414 30679.363
27894.766 17607.418 48635.613 64785.586 24998.506 25737.096 35586.23 22209.365
29081.838 32966.715 125026.26 172039.44 22295.428 38281.4 47402.113 28390.658
62116.28 19356.805 25044.729 38688.85 26772.098 25722.955 82036.63 55987.105
41656.26 34870.438 23420.365 20898.016 17817.994 43846.6 32098.223 134272.69
43523.68 41088.965 45212.05 32304.053 24758.898 44400.543 37172.438 48501.152
32414.47 25759.844 41628.54 30011.941 43366.883 43624.215 91214.77 34013.453
44340.48 19717.96 37503.76 33166.316 40408.74 58217.16 24910.436 32159.643
35334.25 13842.935 19929.883 48098.773 38818.81 34091.598 18167.049 52532.957
29018.545 54746.1 31627.096 46205.934 45790.566 28402.004 15144.342 27463.844
24751.494 39006.023 19453.152 44802.18 27456.408 16795.105 48614.633 29393.725
32314.44 90177.14 25104.812 29325.36 24379.844 20547.344 45227.535 16676.559
48955.94 24347.133 25450.121 116469.18 13325.532 23580.775 31298.256 110999.34
29096.531 15974.086 26824.746 18449.094 37926.406 46354.77 18861.508 16234.035
40884.703 27313.57 39645.945 69490.94 53961.977 27033.29 33452.113 80452.15
59896.6 22370.455 25597.477 34166.277 65886.29 12854.662 33688.195 61222.47
16700.656 147368.5 26110.045 33968.367 143722.73 34430.758 21835.877 59782.297
30856.414 129957.41 35711.95 28318.002 179622.95 45329.51 40203.54 61965.035
125975.055 41841.88 43430.145 28119.838

running_var f4 [252]
00000000: 1aaf 454e 9903 884e 449d 524f 4b0f 9b4e
00000010: e98e 184e 5c39 ec4e 31c6 9f4e 254f 834e
00000020: 58e5 d44e 8584 214e 6149 274f ffa3 8a4e
00000030: 27c4 e14f c1c8 ba4e bb76 db4e b5a3 264f
00000040: d107 594d 2b35 2f4d 98b5 384e 0d33 b64e
00000050: ed40 334e d10a 2f4e b01d e64d 2b78 014f
00000060: 8e1d 5c4e 0cc7 9f4d 96de 574f e49d 994e
00000070: 07f5 c54e bd2c be4f 0fc0 364e 5435 934e
00000080: f7df 1a4d 0dbd 384f ad2c 384f 9536 f54d
00000090: 6e91 924f 5fad c54e b3e9 924e 86f3 7e4e
000000a0: b936 234f 0abe 554e 3026 884e c985 d44d
000000b0: cecd 1a4f 9909 064f d8a1 524e 386e bc4c
000000c0: da30 084d 368d f64d a6e0 704c 3f83 634c
000000d0: b09a 0b4e f088 6f4f 0bfe b94d 33e4 5b4e
000000e0: a1c9 ee4d 3aef 2f4f 7773 c44f d0f6 a24c
000000f0: 637e e24e c2de a04f 9d45 584e 9c43 fc4f
00000100: a453 824e a971 b14d 6492 174f a51b df4d
00000110: 1d8d 0a4e f665 274e f8fe ae4e 1dea e84e
00000120: 7685 1a4e c262 0650 fb91 994e 8a17 8b4e
00000130: d952 f14e f082 974e 1517 d24c ca9b ae4e
00000140: 961f 024f c0d1 a04f 082a 034e cbf8 974e
00000150: a94c ae4e c738 8f4e 7025 484e e29c 2c4f
00000160: e3c1 114d c5d3 ba4e 4618 1b4f 718c 434f
00000170: 3ece f64e 4dae 4b4e 343b 934f 255a 834e
00000180: ed50 cf4f 1f6d d24e 54f3 ab4e 6312 0e4f
00000190: d077 604e 56c5 b54e de88 774e efa3 c34e
000001a0: f9e9 de4e 2114 a64d bda5 074f fd62 164e
000001b0: 70f4 114f 0b3d b34e 44e3 944e 5709 154e
000001c0: 5dc5 d64e bf31 5a4d 0de8 8a4e 29a5 0c4f
000001d0: cbfa 504e 6247 434e 6294 ef4e 6bad 384d
000001e0: e42e 5f4e 4746 894e 2e85 bb4f 8033 2750
000001f0: d6b0 574d 621f 114f eb82 9e4e 3144 ff4d
00000200: b5de c74e 2dc4 164e 604c bd4e 2568 f84e
00000210: 13ea 944e 4726 d24d 6593 2f4f 62cb ef4e
00000220: 5e49 ae4e 120c 6e4e af44 d94d e259 024f
00000230: 82eb 794e eb54 354f fa60 da4e b997 a44f
00000240: 4aad b24e 5089 8c4e f733 db4e ab79 814e
00000250: 07e7 7c4e 43d6 c24e 4ab8 e04e 6291 034f
00000260: 4d9b e64e 2eab 614e 8354 b34e 9838 474e
00000270: 67d0 984e 21cb 2d4f eae2 3a4f 4a25 a34e
00000280: 5d9c ba4e 66d4 da4d 13fc e24e 5af1 8b4e
00000290: 0cbb 894e f2f3 034f c2b5 a74e c32c 004f
000002a0: 44d2 fc4e ec61 3e4e 7b64 234e e4ec 2d4f
000002b0: 4a0f 9d4e ed5f 5d4e abf8 3f4d f568 fc4e
000002c0: 6898 0b4e 3460 ef4e 67bd 144f 8667 ff4e
000002d0: 94be c04e 74c8 2c4e 7e74 134e b088 1b4e
000002e0: c091 524e b53b 814e 13e7 094e 0bf0 044f
000002f0: 34ee 3e4e bd16 e64c d741 ac4e 8813 ad4e
00000300: 0eec 8e4e 5246 614f 8aff 5b4f 4601 974e
00000310: 3d3a 124e 88ac f84d 99b6 334f b824 104d
00000320: f430 af4e 5859 1a4e 750e 284e e51c b44f
00000330: 23b4 384d 5ace ed4d 3786 c04e 3d42 a84f
00000340: 4eee a44e 96e2 834d f239 824e 6f5b e24d
00000350: e128 754e 25b9 ab4e 2c6f 1d4e 0fa7 a64e
00000360: ce38 264f 9288 8d4d 4efa 144f e3de f14e
00000370: 9904 2a4f 4ed2 af4e b95e d44e d89b 1a4f
00000380: 2d41 a14e bb8b 504d 5ade 8c4e d724 c24f
00000390: b121 e24e f3c2 d14d 8aac 2c4f a1a5 8f4f
000003a0: ca88 514d 79e7 e24f fded 914e 01cd 9e4e
000003b0: cbf1 e04f f1c8 f44e c60b 3a4e 1e14 1a4f
000003c0: 2855 cc4e ce40 b54f 8bb9 184f be9a 844e
000003d0: a1b0 1c50 2d56 024f d72e 1e4f 884c 594f
000003e0: 70a1 e84f 58e6 844e df50 004f 7887 284e
8.2914675e+08 1.1409686e+09 3.533522e+09 1.3007354e+09 6.3987565e+08 1.981591e+09 1.340283e+09 1.101501e+09
1.7859e+09 6.7745414e+08 2.806604e+09 1.1630017e+09 7.5754573e+09 1.5668594e+09 1.8409957e+09 2.7957466e+09
2.2757301e+08 1.8371858e+08 7.747272e+08 1.5283995e+09 7.5184416e+08 7.341804e+08 4.8258816e+08 2.1721362e+09
9.232311e+08 3.3507776e+08 3.6216888e+09 1.2886308e+09 1.6605848e+09 6.381206e+09 7.6651e+08 1.2348728e+09
1.6239806e+08 3.0993974e+09 3.0899356e+09 5.1424938e+08 4.918009e+09 1.6582368e+09 1.2323946e+09 1.0693431e+09
2.7382725e+09 8.9650035e+08 1.142102e+09 4.456922e+08 2.597179e+09 2.248776e+09 8.834555e+08 9.879187e+07
1.4280643e+08 5.170562e+08 6.31446e+07 5.9641084e+07 5.8554266e+08 4.018729e+09 3.9005424e+08 9.222914e+08
5.0077392e+08 2.9516908e+09 6.591803e+09 8.544013e+07 1.8999668e+09 5.3979064e+09 9.071102e+08 8.4645786e+09
1.0932598e+09 3.72127e+08 2.5429535e+09 4.6789136e+08 5.8112595e+08 7.021193e+08 1.4679726e+09 1.9538285e+09
6.4810944e+08 9.018477e+09 1.2882405e+09 1.1667878e+09 2.0243693e+09 1.2709704e+09 1.1014775e+08 1.4647227e+09
2.183108e+09 5.3962015e+09 5.5014246e+08 1.2748323e+09 1.4621298e+09 1.2014314e+09 8.394742e+08 2.8959626e+09
1.5283768e+08 1.5672204e+09 2.6020593e+09 3.280761e+09 2.0703557e+09 8.5429946e+08 4.9402614e+09 1.1018615e+09
6.9563745e+09 1.7651834e+09 1.4424253e+09 2.3835697e+09 9.414871e+08 1.5248044e+09 1.0382355e+09 1.6411503e+09
1.8699378e+09 3.4829213e+08 2.275786e+09 6.307674e+08 2.4487158e+09 1.5035611e+09 1.248961e+09 6.251043e+08
1.8016293e+09 2.2879333e+08 1.1652317e+09 2.3596342e+09 8.765242e+08 8.190588e+08 2.0097395e+09 1.936483e+08
9.3609805e+08 1.1515421e+09 6.292135e+09 1.1220681e+10 2.2616816e+08 2.434753e+09 1.32969e+09 5.3533238e+08
1.6766307e+09 6.3235974e+08 1.5879496e+09 2.0837874e+09 1.2491841e+09 4.407155e+08 2.9456724e+09 2.0115418e+09
1.4620219e+09 9.984421e+08 4.5564464e+08 2.1869286e+09 1.04824026e+09 3.0422413e+09 1.8318943e+09 5.5228134e+09
1.4988506e+09 1.1789046e+09 1.8388079e+09 1.0861172e+09 1.06074976e+09 1.6344109e+09 1.885087e+09 2.207343e+09
1.9344687e+09 9.46523e+08 1.5043301e+09 8.355937e+08 1.2818973e+09 2.9157706e+09 3.1354332e+09 1.368565e+09
1.5654048e+09 4.589191e+08 1.9040854e+09 1.1739251e+09 1.1553684e+09 2.2138025e+09 1.4068534e+09 2.1504172e+09
2.1208192e+09 7.985221e+08 6.853178e+08 2.9179832e+09 1.3175124e+09 9.2851283e+08 2.0129656e+08 2.1173684e+09
5.855053e+08 2.0080297e+09 2.4954406e+09 2.1424873e+09 1.6168576e+09 7.247045e+08 6.184713e+08 6.523566e+08
8.831918e+08 1.0840869e+09 5.7840557e+08 2.230324e+09 8.008205e+08 1.2063281e+08 1.444998e+09 1.4518692e+09
1.1989174e+09 3.779482e+09 3.6909573e+09 1.2667215e+09 6.1332256e+08 5.2150707e+08 3.0150884e+09 1.5114534e+08
1.4696105e+09 6.473866e+08 7.0487994e+08 6.043585e+09 1.9367582e+08 4.9871546e+08 1.6150107e+09 5.6458266e+09
1.3835405e+09 2.765831e+08 1.0924178e+09 4.7470538e+08 1.02827424e+09 1.4405188e+09 6.603272e+08 1.3979831e+09
2.7887406e+09 2.968172e+08 2.499432e+09 2.0289581e+09 2.852428e+09 1.4748977e+09 1.7814888e+09 2.5939046e+09
1.3527016e+09 2.1867614e+08 1.1816911e+09 6.5143885e+09 1.8969294e+09 4.399018e+08 2.8969887e+09 4.819993e+09
2.1971267e+08 7.613641e+09 1.2241466e+09 1.3321176e+09 7.547885e+09 2.0534048e+09 7.8033344e+08 2.5850097e+09
1.7140664e+09 6.0818463e+09 2.5622966e+09 1.1123668e+09 1.0515285e+10 2.1866857e+09 2.6538698e+09 3.6456714e+09
7.805788e+09 1.1148442e+09 2.1527836e+09 7.068626e+08

weight f4 [252, 252]
00000000: 4472 1240 8822 a1bf 68fc 65bf 0623 cec0
00000010: 2c10 2c40 d98d d4bf 6fae 8fbf 0894 f63f
00000020: c22b a63e ff86 ed3f 26b3 36bd 50cc 7a40
00000030: 598d 06c0 4db7 c03e f0c2 9ac0 1d34 23bf
00000040: b7b1 503e aa89 5840 755d f43d 9897 0ec0
00000050: a350 1ac0 5197 f1be 1da9 07be 3ccc a5bf
00000060: 5854 56bf 5459 07bf 4e01 18bf b374 ce3d
00000070: 6244 12bf 498c 2740 d4df 933f 52f6 cf3f
00000080: b128 813f 34ec 9bbf 4d41 8ac0 1a4d 143f
00000090: 637f c3be 8db6 3fbf 6c81 d7bf 0ac5 fbbf
000000a0: 6e72 c240 b488 653f 59d3 f3bd abd1 a93e
000000b0: c6c8 0dc0 25e1 b1bf fd2c 29bf a1cd 883f
000000c0: e962 8440 02a1 1941 4ebf 4cbf cecb 81bf
000000d0: c8b5 afbf 1ea0 23c0 8520 78be 82bf 803f
000000e0: 0d1f c2bf 6328 15bf a752 f33e 4cca ee3f
000000f0: 852f 0a3f 1484 4d3e f9df 713f 5165 1540
00000100: a970 dfbe 4d24 8d3e ce8d 9e3f d25f dfbf
00000110: f95a e53f 04a6 40bf c206 b6bf 40ac 0c3f
00000120: 9d04 2bbf 85ec f53e 5e10 2cbf b151 3240
00000130: 46c5 ca40 dab2 c73e 92b7 c93e 8797 dabf
00000140: eb0a d53f 2009 2ec0 a64d 82c0 3764 8fbf
00000150: dacf 8ebf bbda ab3e a45e 55c0 0670 ba40
00000160: 6d07 4abf 137d dbc0 1107 db3f 448e 3140
00000170: 70af 493f b9d1 88c0 83dd 05bf 9131 4c3f
00000180: f6d9 0e40 57c6 803e 76db e0bf fab1 9b3f
00000190: cdee 6141 e331 e63f 979e cabf 3c82 e83f
000001a0: 0251 ee3f dfe4 7e3f 821c ce3f d186 d6be
000001b0: f365 e6bf fde5 28be f9d4 f2bf 52a7 1640
000001c0: 16e7 383f 3f52 9bbf 7692 99bf cbb7 8a40
000001d0: b0b8 723d ff9f 2740 5b7b 063e c224 713f
000001e0: 6eb0 c4be 3987 823c 1c57 a23f fd11 173f
000001f0: 76b5 763e d630 cbc0 e97e 93bf a8cd 93bf
00000200: 05b5 03c0 8094 81bf d8c5 123f 5332 65bd
00000210: b8f9 9bbf 8e31 f5be 0e48 d73e c4bc f73e
00000220: 8770 aabf 2c53 c13f 3ea1 13c0 1cbf 9fbf
00000230: 16a9 603e 4c97 3440 fd1f b7bd 638b 793f
00000240: b00d 4ebf 6ae3 97c0 046a 85c0 1d57 febf
00000250: 1480 16c0 b8b4 5abf 4c08 2241 b20c 11bf
00000260: d617 053f 83c8 743f d42d 2040 fa7e 8540
00000270: b7da 84bf d089 5240 a6a9 a9be 9aec acbf
00000280: 4855 5040 9bca 3b3e 05e5 48c0 7566 83bf
00000290: fb2a adc0 5c9e 823f 41dc d3be d947 e13e
000002a0: 8398 1340 6eaa 4ebf 5929 febf a0bd 81bf
000002b0: d45d c4c0 9ec7 8a3d e3e8 fdbf 3876 b63f
000002c0: 5e26 d0bf 56e3 78c0 5719 5640 9f8f d7be
000002d0: 31f3 953f 8359 2c3f d951 6fc0 78be 8a3f
000002e0: c703 af3f 5564 7841 d874 f7bf 6b28 913f
000002f0: b696 44bf b205 2840 ca70 9940 df95 2140
00000300: 3372 963f bce1 84bc 6115 f8bf cbba 6241
00000310: 0342 0240 d23e 0b40 f3ff 7b3f 0119 b5bf
00000320: 28af 583f 3923 58bf 2fa0 9bbf 4e40 783f
00000330: 43d9 14bf 7947 d5bf 64f8 483f ebf0 dfbe
00000340: 034e 7c3f 515f 0d40 d6a6 1dbf acf4 46c0
00000350: a004 38c0 0f36 0dc0 ace8 a43f ac7c 173e
00000360: 4740 d73f 76e9 8bbe 9a48 4bbd 20cd 84bd
00000370: b769 6240 21af 9bbf 878b 9abf 37e5 1640
00000380: c249 1d40 c1aa 73bf 5a11 82bf cc34 0ec0
00000390: 892d 583f 3576 cf3e deae 01bf b696 94c0
000003a0: d978 63bf 538c d43f 4d11 4ec0 92f2 0dbf
000003b0: 43ad 4dbf b223 2dc0 9b46 90c0 d12d 043f
000003c0: 3cef 6740 b488 febb 95c8 0940 0a9c c13e
000003d0: ab56 b23f e0e2 9b40 2a27 663f da6d 0440
000003e0: 5fd3 3a3f 6af0 2040 73b8 43be 6040 35bf
000003f0: d25c 703e dc78 ccbf 583f 35c0 fad6 21bf
2.2882242 -1.2588663 -0.89838266 -6.4417753 2.688487 -1.6605788 -1.1225108 1.9263926
0.3245526 1.8556823 -0.044604443 3.9187202 -2.1023772 0.37639847 -4.836296 -0.63751394
0.20380293 3.3834023 0.11931888 -2.2280025 -2.4111717 -0.47185758 -0.13248105 -1.2952952
-0.8372245 -0.5287068 -0.5937699 0.10080852 -0.57135594 2.6179373 1.1552682 1.6247046
1.0090543 -1.2181458 -4.3204713 0.5793015 -0.38183126 -0.74887925 -1.6836371 -1.9669507
6.0764685 0.8966172 -0.11905546 0.33167776 -2.2153792 -1.3896834 -0.6608427 1.0687753
4.137074 9.601809 -0.7997941 -1.0140321 -1.372735 -2.5566478 -0.24231155 1.0058444
-1.5165726 -0.5826475 0.47523996 1.8655486 0.5397876 0.20069915 0.9448238 2.3343089
-0.4364064 0.27566758 1.2387025 -1.7451117 1.7918388 -0.7525332 -1.4220812 0.5495033
-0.66803914 0.48032013 -0.67212474 2.786236 6.336581 0.3900364 0.39397866 -1.7077492
1.6643957 -2.719307 -4.0719786 -1.1202458 -1.1157181 0.33565316 -3.3339014 5.8261747
-0.7891758 -6.859018 1.7111531 2.7743082 0.7878332 -4.275601 -0.52291125 0.7976313
2.2320533 0.2515132 -1.7566974 1.2163689 14.120801 1.7983974 -1.5829648 1.8164744
1.8618472 0.9956798 1.610245 -0.41899732 -1.7999862 -0.16493984 -1.8971244 2.3539624
0.7222761 -1.2134475 -1.1997821 4.3349357 0.059258163 2.6191404 0.13132994 0.9419671
-0.38415855 0.01593362 1.2682834 0.5901182 0.2409266 -6.3497114 -1.1523105 -1.1547136
-2.0579236 -1.0123444 0.57333136 -0.055956196 -1.2185583 -0.4788937 0.4204716 0.48386204
-1.3315591 1.5103507 -2.3067164 -1.2480197 0.21939501 2.8217344 -0.08941648 0.9747831
-0.80489635 -4.7465105 -4.1691914 -1.9870335 -2.3515673 -0.85432005 10.127026 -0.56659997
0.51989496 0.95618457 2.5027971 4.17175 -1.0379246 3.2896614 -0.33137244 -1.3509705
3.2552052 0.18339007 -3.1389782 -1.0265642 -5.4114966 1.0204577 -0.41378978 0.44000128
2.3061836 -0.80728805 -1.9856368 -1.0135994 -6.1364536 0.06776355 -1.9836696 1.4254827
-1.6261709 -3.8888755 3.3452966 -0.42101762 1.1714841 0.67324084 -3.7393706 1.0839376
1.3673028 15.524495 -1.9332533 1.134046 -0.76792467 2.6253476 4.795018 2.5247724
1.1753601 -0.01622092 -1.9381524 14.170604 2.035279 2.1757092 0.9843742 -1.4148256
0.8464227 -0.84428746 -1.2158259 0.9697312 -0.58144015 -1.6662437 0.78504014 -0.43738493
0.98556536 2.2089427 -0.61582696 -3.1086836 -2.8752823 -2.2064245 1.2883506 0.14793652
1.6816491 -0.27326554 -0.049629785 -0.06484437 3.5377023 -1.216282 -1.207383 2.3577402
2.4576268 -0.95182425 -1.0161545 -2.2219725 0.8444448 0.40519872 -0.5065745 -4.6433973
-0.88856274 1.6605324 -3.219806 -0.5544826 -0.803425 -2.7053037 -4.508619 0.5163241
3.6239767 -0.007767761 2.1528676 0.3781436 1.3932699 4.8714447 0.8990351 2.0692048
0.72978777 2.5146737 -0.1911333 -0.70801353 0.23472908 -1.5974383 -2.8319912 -0.63218653

bias f4 [252]
00000000: 2ab9 f841 deea 0742 a2ec d541 aae8 0a42
00000010: e19b be41 5eb1 ec41 2e27 a540 8974 1d42
00000020: 9b5d 0e42 f47b 1542 8ce4 a83f 106a c241
00000030: 48ff d841 1741 57c1 9f9d 3341 94ab c841
00000040: 838b 3241 b3a3 4840 8e24 1242 f0b6 00c1
00000050: 6977 f741 2d19 cdc0 a937 b8bf 7abd 1342
00000060: c5bc 3b3f 2a7f 1242 f2ff 3542 8fd8 f141
00000070: c07d ef41 f869 36bf c815 3141 0aba 0342
00000080: 02fa 1541 cace 6e41 9a26 1042 defc 2342
00000090: 32c1 8341 7253 cec0 d551 0142 c16b abc1
000000a0: 862d 0e42 cc2e c0c1 daf4 a9c1 ec7c e941
000000b0: 6e92 6b41 4f25 0042 238c 0341 edf0 0342
000000c0: 0a8f 1341 7b13 8bbf e1a5 8441 ed8f ba41
000000d0: dd1e 0542 e76e bc41 3981 3742 8278 3cbf
000000e0: ec94 21c1 5d20 d441 280c 0a42 b789 0c41
000000f0: 6646 2f41 ec5a 6041 339d e541 b15b ed41
00000100: 1216 2242 129a c240 2445 6bbf f05d eac1
00000110: cebf 0f42 8a8a 2b42 d688 c241 b3fe 11c1
00000120: 2ee0 4342 7ea6 0142 0b9c 4741 a798 c6c0
00000130: 6e01 e341 bdbf 02c2 37eb 6b41 8890 1b42
00000140: 1491 ddc1 4abe e4c1 21d8 1e42 cc40 e8c1
00000150: 5c09 bd41 4200 1a42 f094 e141 e9f4 83c1
00000160: fb30 0e42 9ed0 0242 0db1 fa40 909e dd41
00000170: 68e6 cf41 31af dd41 ea5b b241 6742 4141
00000180: 2df6 1542 b4ea 2ac0 27bc ca40 d5a6 ee41
00000190: 0fbd 1642 7f89 0441 0a98 d241 c91f 4141
000001a0: c841 4341 7447 2042 2fe9 2542 96fd 0e42
000001b0: 6dc9 0842 05a4 18c2 41a3 f4be 8887 8741
000001c0: 19e8 c141 3f03 d9c1 0933 7741 ce72 1a42
000001d0: ff08 2b42 eccc 8541 b06d 1742 c5d9 4240
000001e0: 83e0 1041 982e 2842 ab07 7ac0 d71e 1242
000001f0: 3123 3abf 865e 0342 9e33 6241 7dd8 a141
00000200: 811c e2c0 c984 30c2 b526 e5c0 0842 0142
00000210: 0d18 aa41 a231 08c2 9aed e43f 92d8 0e42
00000220: 6901 7241 d6a7 e041 b3dd 5641 1a51 0941
00000230: 31c9 a940 abc6 33c0 8db8 1841 768d c241
00000240: ee63 ae41 2a4a 713f 0c5f 1642 76b7 8441
00000250: 5315 95c0 926b 0cc2 4345 0b41 4fea e5c1
00000260: c52e f640 8344 0841 184e dc40 f0af 5241
00000270: 5b9d ee41 d1b9 c841 e7b4 0d42 e38c af41
00000280: 33ec 1f42 c6da f241 d470 04c2 e77c c0bf
00000290: 88fc 6e41 806a 9c41 a667 dd41 dc13 e541
000002a0: e0d4 0742 6ce5 0942 11d0 c541 f041 e541
000002b0: cbe2 0142 d7ab 2dc0 f56d 6841 32a6 ca41
000002c0: c6d5 4941 31d7 ac41 c38d 2042 1d77 bc41
000002d0: 2b33 1b42 8824 c7c1 09af 9bc1 9ba3 c941
000002e0: e716 1a3e ba50 4b42 33c6 00c2 737b e141
000002f0: e246 0a42 010a 5ac1 0a6c a4c1 ff19 d841
00000300: 17db 7cc0 7d9a 07c2 9ace e7c1 e59b b341
00000310: 9c57 0fc2 308e fb41 20a2 ed41 5433 1d42
00000320: 9a6a 4641 26ca b73f 3220 0642 cb43 0742
00000330: 66ab 1442 d329 0542 7a5f 9741 1ba9 6c41
00000340: a488 0142 6970 dc41 b269 1242 12d0 e6c1
00000350: d4a0 fe41 b783 b340 7daf ef41 0214 8141
00000360: 8635 f841 aa91 c641 486f b5c1 d211 0c42
00000370: 0d20 ea41 ded5 6fc1 66b8 9f41 7144 4041
00000380: d0cf 9641 d405 b6c1 aa6e 1942 80e8 4942
00000390: 3761 2c40 4c75 ba41 fe8c d041 9830 f5c1
000003a0: 27d9 8140 556e 3d41 6729 3742 8624 7241
000003b0: cc83 2242 f645 da41 0de5 6941 84fa 1941
000003c0: 7f34 c441 dec2 e341 0459 b441 654a e141
000003d0: 92b6 a540 8ef0 0642 af7d 0541 2135 b341
000003e0: 2d12 aa41 c4a9 0942 c431 e241 d83e 2841
31.090412 33.979362 26.740543 34.72721 23.826113 29.586605 5.1610327 39.363804
35.59141 37.371048 1.3194747 24.301788 27.12465 -13.453391 11.225982 25.083778
11.1590605 3.1349914 36.535698 -8.044662 30.933306 -6.409323 -1.4391986 36.935036
0.73334914 36.624184 45.499947 30.230742 29.936401 -0.71255445 11.067818 32.93168
9.373537 14.925486 36.037697 40.99694 16.469334 -6.447686 32.329914 -21.427614
35.544456 -24.02285 -21.244556 29.185997 14.723249 32.036434 8.221713 32.98528
9.222422 -1.086532 16.580996 23.320276 33.28014 23.554152 45.876194 -0.7362138
-10.098858 26.515802 34.51187 8.783622 10.954687 14.022198 28.701757 29.669771
40.521553 6.0813074 -0.91902375 -29.295868 35.93731 42.885292 24.316814 -9.124682
48.968925 32.41259 12.475596 -6.2061343 28.375698 -32.687244 14.7449255 38.891144
-27.695839 -28.592915 39.711063 -29.03164 23.62957 38.50025 28.197723 -16.494585
35.547832 32.703728 7.8341126 27.702423 25.987503 27.710543 22.29488 12.0787115
37.490406 -2.6705751 6.335468 29.83146 37.684628 8.283568 26.324238 12.07026
12.20356 40.06978 41.47772 35.747643 34.196705 -38.160175 -0.47780803 16.941177
24.238329 -27.126585 15.44996 38.612114 42.758785 16.72506 37.857117 3.0445416
9.054812 42.0455 -3.906718 36.530117 -0.7270995 32.842308 14.137602 20.230707
-7.0659795 -44.129673 -7.160975 32.314484 21.261744 -34.04847 1.788501 35.711494
15.125344 28.081951 13.429126 8.5823 5.3058095 -2.8090007 9.545056 24.319073
21.798794 0.9425379 37.59282 16.58958 -4.658853 -35.10505 8.70441 -28.739408
7.693209 8.5167265 6.884533 13.1679535 29.826834 25.09073 35.426662 21.943792
39.980663 30.356823 -33.110184 -1.5038117 14.936653 19.552002 27.67561 28.634697
33.957886 34.474045 24.726595 28.657196 32.471478 -2.7136133 14.526845 25.33115
12.614691 21.605074 40.13844 23.55816 38.79997 -24.892838 -19.460466 25.204885
0.15047799 50.828835 -32.193554 28.185278 34.56922 -13.627442 -20.552753 27.012693
-3.9508722 -33.900867 -28.97588 22.45112 -35.835556 31.444427 29.704163 39.300125
12.401026 1.4358566 33.53144 33.816204 37.16738 33.290844 18.92162 14.7912855
32.38344 27.554888 36.603218 -28.851597 31.82853 5.6098285 29.960688 16.13477
31.026134 24.821125 -22.679337 35.017403 29.26565 -14.989714 19.965038 12.016709
18.85147 -22.752846 38.35807 50.47705 2.6934335 23.307274 26.068844 -30.648727
4.057758 11.839437 45.790432 15.133917 40.628708 27.28416 14.618421 9.623661
24.525633 28.47015 22.543465 28.161325 5.1785364 33.734917 8.343184 22.400942
21.258875 34.415787 28.2743 10.515343
