public_models/Dnn3Layers/177.pth (torch_old, 616467 bytes, 14 tensors)

weight f4 [252, 252]
000000 6d 9f 10 c0 50 1d 39 41 a0 f8 59 c0 be e5 34 41
       -2.2597306 11.569656 -3.4057999 11.306089
000010 62 6f 91 41 69 af 82 be bc d4 3d 40 ea 7d cd 41
       18.179386 -0.25524452 2.9661093 25.686481
000020 2f d2 3c 40 f7 ab a6 c0 92 d9 9d c0 89 d0 b8 3f
       2.9503286 -5.208492 -4.932809 1.443864
000030 09 5c 47 c0 0c d2 fd 3f ff 62 f1 40 fc 9a d6 c0
       -3.1149924 1.9829726 7.5433345 -6.706419
000040 a7 2c 24 c0 79 41 47 c0 4c 7f 87 41 56 95 83 c1
       -2.5652254 -3.1133711 16.937157 -16.447918
000050 22 9b 18 c0 46 1f ef bf 01 f9 c6 3f 49 9f 4d c0
       -2.3844686 -1.8681419 1.554474 -3.212847
000060 39 ed c5 c0 8e 00 88 41 fc 5c b4 40 b0 af dd c0
       -6.185208 17.00027 5.6363506 -6.927696
000070 99 25 f3 bd b0 db f6 bf dd a0 eb bf 70 61 10 c0
       -0.118724056 -1.9285793 -1.8408467 -2.255947
000080 72 04 fa 3f 55 02 e4 3e 6a b0 e4 40 ea f6 7d be
       1.9532607 0.4453303 7.146535 -0.24801221
000090 e4 cf d4 bf 36 2d fc 3e 6a 3a 2b c0 27 66 44 40
       -1.6625943 0.49253243 -2.6754403 3.068735
0000a0 dc d8 45 c0 f0 19 e5 40 20 11 ff 3f 34 8f 8b c0
       -3.091361 7.159416 1.9927101 -4.361231
0000b0 c9 7a a0 3f 9b 0b 29 3e e7 b3 c1 bf 8f 3d 09 3f
       1.2537471 0.16508333 -1.5133027 0.53609556
0000c0 14 ef 88 3e e0 e7 b3 be cc 5f 3b 3a 99 fd 49 3f
       0.26744902 -0.35137844 0.0007147759 0.78902584
0000d0 3b c1 bc bf ca c8 fe 3e fb da ed be 68 fc d0 bf
       -1.4746469 0.49762565 -0.4645613 -1.6327028
0000e0 6f 7e 34 3f df 25 17 bf fd 1a fd 3e bf 0a 3e 3f
       0.7050542 -0.5904216 0.49434653 0.7423515
0000f0 ae 2a 21 bf a0 6d 96 3f 30 99 00 c1 54 a1 a2 c1
       -0.6295575 1.1752205 -8.037399 -20.328773
000100 0c 6d 8d c0 e1 5b c2 40 f5 fe 71 c0 94 6d 4c 40
       -4.4195614 6.0737157 -3.7811863 3.194188
000110 51 c6 4f 3e d7 c0 ae bc c2 f8 e9 3d 6b 49 9b 3f
       0.20290495 -0.021332188 0.114244 1.213178
000120 02 0d b5 3e 4d f3 fa bc 78 44 13 40 63 06 a3 bf
       0.35361487 -0.030633593 2.301054 -1.2736324
000130 42 b4 2a bf fa 26 a8 3f dd 3c 7b bf 42 a5 64 3d
       -0.666813 1.3136895 -0.98139745 0.055821665
000140 2d 1f a5 3f 44 b9 87 bf d7 d1 c6 3f 1b cf ad 3e
       1.2900139 -1.0603414 1.5532788 0.3394707
000150 7f 8c f2 3d 12 9a 15 3e 2e 56 e0 bd 47 74 1a 3e
       0.11843204 0.14609554 -0.109539375 0.15083419
000160 cc 10 43 bf 85 f5 8f 3f ef 86 1b bf 8d ab 62 3e
       -0.76197505 1.1246802 -0.6075277 0.22135754
000170 c8 f5 b0 3e 2a b4 ad 3d da 18 af be 5b 4d e0 be
       0.34562516 0.08481629 -0.34198648 -0.43809018
000180 2d 62 1b 3f 46 f5 cb bf 99 1c 1e 3e a7 31 89 3f
       0.6069668 -1.5934227 0.15440597 1.0718278
000190 70 3b 02 c0 c4 0c 13 be b0 04 19 3f 12 ed 50 bf
       -2.0348778 -0.14360338 0.5977278 -0.8161174
0001a0 f4 37 82 bd 2c 13 d1 3e 45 ac 9a 3f 5c a1 eb be
       -0.063583285 0.4083494 1.2083822 -0.46021545
0001b0 98 5d 48 3e 66 c5 00 be 89 26 19 3e 07 5d c8 3f
       0.19566953 -0.12575302 0.14956106 1.565339
0001c0 c6 96 a1 bf 15 39 e4 3e f7 24 32 be 25 80 04 bf
       -1.2624137 0.445748 -0.17396913 -0.51758033
0001d0 2f 5f 0f 40 30 84 dc bf 2c 04 02 3d 8c ae 4b bd
       2.2401845 -1.722784 0.03174226 -0.049727008
0001e0 8e 35 1e 3f b8 c1 cd be c1 ee 52 bf ab 3b 8c 3f
       0.6180047 -0.40186858 -0.8239556 1.0955709
0001f0 53 d8 b9 be 3e d1 60 3f ed 88 0f 3f 32 f5 0b bf
       -0.36297855 0.8781928 0.5606831 -0.54671013
000200 a7 67 28 40 94 41 72 bf db e2 2c 3f dc 3f cc 3f
       2.6313264 -0.94631314 0.67533654 1.5956988
000210 c9 d2 07 3c 36 04 63 bf 2e 9b 41 3f 92 9e 24 3e
       0.008290001 -0.886783 0.7562741 0.16076115
000220 e8 bd 5b bf 3f e7 9e bc 3c 69 1c bf d8 27 4c 3f
       -0.8583665 -0.019397376 -0.61098075 0.79748297
000230 1a 2c 3a 3f 8a 08 61 bf 2a 2b a2 3f ba 46 84 bd
       0.72723544 -0.87903655 1.2669423 -0.064588025
000240 90 2d ba 3f c9 5e 97 3f 94 26 2f bf 7b ed 9e 3f
       1.4545155 1.1825801 -0.6841824 1.2416223
000250 1a 9c 2d bd 9b a8 5d bf 70 7c 1b 40 e9 c2 1a c0
       -0.0423852 -0.86585397 2.42947 -2.4181464
000260 05 28 80 be bf 2f 37 40 86 5a 31 c0 69 db e2 bf
       -0.25030532 2.8622892 -2.77115 -1.7723209
000270 03 16 11 bf 76 e0 b7 3f 8f c1 18 c0 5f a4 87 3f
       -0.5667421 1.4365375 -2.3868139 1.0597037
000280 81 f6 bb 3e 9d 04 2a bf 1a 23 0c 40 ed 19 1a c0
       0.36711505 -0.6641329 2.1896424 -2.4078324
000290 08 76 b9 bf b8 22 00 40 76 c6 1e bf cd a7 64 40
       -1.4489145 2.002119 -0.6202158 3.5727417
0002a0 a1 be a1 bf 05 70 32 3e c6 ca 9f bf fa bc c5 bf
       -1.26363 0.17425545 -1.2483757 -1.5448296
0002b0 cd c1 6a 40 5a ce 8b bf 1c 88 b3 3f 77 d1 b8 3f
       3.6680787 -1.0922348 1.4025912 1.4438924
0002c0 64 d4 24 3f bc ad 22 c0 e2 34 20 40 ea a8 02 bf
       0.6438658 -2.541854 2.5032277 -0.5103899
0002d0 2d bf 8e 3f 1b b7 20 bf 00 07 d5 3f 5f e3 9a bf
       1.1152092 -0.62779397 1.6642761 -1.2100638
0002e0 0d e1 ae 3f 02 cc 0d 40 f6 60 d6 3e 23 d4 a3 3f
       1.366243 2.2155766 0.4187085 1.2799114
0002f0 54 9d 71 c1 2f 4e 9c c0 f9 ce 72 40 60 23 f0 40
       -15.10091 -4.884544 3.7938826 7.504318
000300 0c cc ac c0 ee 92 93 40 57 47 b6 40 75 5e fe bf
       -5.399908 4.6116858 5.6962085 -1.9872576
000310 23 89 92 40 e9 b9 a4 c1 9c 28 9d c1 49 0c 54 41
       4.5792403 -20.590776 -19.644829 13.252999
000320 f3 5a 9a bf e3 a7 8b 3f e8 5d c3 bd 41 ac 44 3f
       -1.2059005 1.091061 -0.095393956 0.7682534
000330 23 35 4c bf cd 7a c8 bf 1e 28 89 41 c8 42 f0 c0
       -0.7976858 -1.5662476 17.144588 -7.508152
000340 f6 d9 4e be fc 7d b3 40 bf d7 68 c0 3d 8f 7f 40
       -0.20200333 5.609129 -3.638168 3.9931176
000350 74 7a 20 41 3d 14 f5 c0 02 26 bc c0 7c 69 3d 40
       10.029896 -7.6587205 -5.8796396 2.9595633
000360 5f aa 93 3f 21 3a 02 40 02 7e 83 c1 07 c7 7b bd
       1.1536368 2.034798 -16.436527 -0.061469104
000370 0b f4 7f be ab 18 10 c1 4c 70 91 40 20 33 dd 3f
       -0.24995439 -9.006022 4.544958 1.7281227
000380 18 c4 12 42 fb 7f b0 c1 fb f1 0f c2 16 9a 4b 40
       36.691498 -22.06249 -35.98631 3.1812797
000390 83 d3 9a 41 ce 5e 6f c1 fe 74 a2 41 e3 f6 f0 40
       19.353277 -14.960646 20.307125 7.5301375
0003a0 d3 31 04 c1 1d bd a9 3c e9 58 14 c2 b1 8a 9a c1
       -8.262164 0.020720059 -37.086826 -19.31772
0003b0 93 d1 b5 40 c3 18 74 c1 5b 30 72 41 fc 38 66 c0
       5.681833 -15.256045 15.136806 -3.597228
0003c0 66 3f e8 c0 cc bf 8d 41 05 e8 3e c2 73 09 30 c2
       -7.257739 17.71865 -47.72658 -44.009228
0003d0 51 e5 8a 40 3e 0f 24 40 2f 79 1b 41 16 a3 12 c1
       4.3404927 2.5634303 9.717086 -9.164816
0003e0 1a c4 78 40 62 5e 82 41 07 4d 03 c2 d9 d4 68 c2
       3.886969 16.296085 -32.825222 -58.20786
0003f0 3d 01 b7 40 1a 5c 10 c1 24 44 0a 41 40 bd 0b 41
       5.718901 -9.022486 8.641636 8.733704

bias f4 [252]
000000 64 dc b5 42 17 76 31 c3 c1 8e 30 c4 31 8e dc c3
       90.93045 -177.46129 -706.2305 -441.11087
000010 f6 24 03 c4 37 4b ae c3 39 12 7b c3 4f 2c 4b c4
       -524.5775 -348.58762 -251.07118 -812.6923
000020 cd 9b 04 c4 bf 51 fd c2 19 e3 e4 c3 36 16 26 c3
       -530.4344 -126.65966 -457.7742 -166.08676
000030 c4 5c 4b c4 2f 68 32 c4 25 82 9f c3 bf 0c 18 c4
       -813.44946 -713.62787 -319.01675 -608.19916
000040 cb 47 23 c4 4b 2f 93 c3 0b 2a 02 c4 51 ba d2 c3
       -653.12177 -294.36948 -520.6569 -421.4556
000050 dc c7 59 c3 3b 6d 31 c4 43 9b 67 c3 7f 58 d8 c3
       -217.7807 -709.7067 -231.60649 -432.69138
000060 17 44 cc c3 5b 45 2a c4 e2 c5 2d c4 15 b9 92 c3
       -408.53195 -681.0837 -695.0919 -293.44595
000070 67 95 25 c4 3d 42 68 c4 67 5f 3b c4 9c 10 b7 c2
       -662.3344 -929.035 -749.49066 -91.53244
000080 f0 47 83 c3 20 cc 4a c4 41 7d 2c c4 d2 17 2b c3
       -262.562 -811.18945 -689.9571 -171.09305
000090 d9 bd 14 c4 21 cb b9 c3 85 3d e5 c3 52 8f 98 c3
       -594.9664 -371.58694 -458.48062 -305.1197
0000a0 d8 ed 15 c4 27 2c 98 c3 cb d5 71 c3 e5 f7 1e c4
       -599.7163 -304.34494 -241.83513 -635.87335
0000b0 c6 b3 bb c3 64 ad 13 c3 43 57 1f c4 20 7f 5b c4
       -375.40448 -147.6773 -637.36346 -877.9863
0000c0 91 27 00 c4 65 0b c5 c3 c3 49 4d c4 47 00 44 c4
       -512.6182 -394.08902 -821.1525 -784.00433
0000d0 1f 16 98 c2 a6 d1 a7 c3 a2 35 2d c4 ef 11 99 c3
       -76.043205 -335.63788 -692.838 -306.1401
0000e0 3c 5b ab c3 e8 cb 22 c4 76 26 27 c4 56 6a db c3
       -342.71277 -651.18604 -668.60095 -438.83075
0000f0 ce f9 4d c3 fd e8 25 c4 13 c3 54 c3 40 48 48 c4
       -205.9758 -663.64044 -212.76201 -801.1289
000100 4a 14 dc c3 22 c5 17 c4 4a 24 c6 c3 64 95 49 c3
       -440.1585 -607.0802 -396.2835 -201.58356
000110 db 71 ac c3 fa 99 12 c4 ba 76 47 c4 02 00 fc c2
       -344.8895 -586.4059 -797.8551 -126.000015
000120 71 30 2e c3 41 f2 30 c4 40 a3 86 c3 5b 83 94 c3
       -174.18922 -707.7852 -269.2754 -297.0262
000130 60 c2 5f c3 39 ac f8 c3 aa 69 6a c4 50 17 28 c4
       -223.75928 -497.3455 -937.651 -672.36426
000140 d8 59 b1 c3 b4 7d 60 c4 f7 2b fb c3 12 fe 74 c3
       -354.7019 -897.9641 -502.34348 -244.99246
000150 0d c9 d6 c3 f1 b5 52 c3 8d e1 11 c4 d5 2c 83 c3
       -429.5707 -210.71071 -583.52423 -262.35025
000160 7a b7 6f c4 85 5a be c3 38 3a 82 c3 46 84 fc c3
       -958.8668 -380.70718 -260.45483 -505.0334
000170 23 a8 92 c3 2b e0 b8 c3 1a 22 61 c4 2a b4 8c c2
       -293.31357 -369.7513 -900.53284 -70.35188
000180 e8 c5 5a c4 37 19 f2 c2 c5 76 37 c3 71 38 c8 c3
       -875.0923 -121.04925 -183.46394 -400.44095
000190 62 1c 65 c3 af 10 12 c4 bd 65 c1 c3 e0 52 b0 c3
       -229.11087 -584.2607 -386.79483 -352.64746
0001a0 55 e3 b6 c3 b8 1e 49 c4 3b b3 6d c4 0d 1c d2 c3
       -365.77603 -804.48 -950.8005 -420.21915
0001b0 1c 25 cd c3 5c 2d 6d c3 46 62 58 42 ae a0 1b c4
       -410.28992 -237.17719 54.09597 -622.5106
0001c0 a8 94 95 c3 08 f3 f3 c3 51 1f b4 c3 79 c2 b3 c3
       -299.16138 -487.89868 -360.24466 -359.51932
0001d0 67 bc 3e c3 20 68 89 c2 5b 02 a4 c3 b3 3b 50 c4
       -190.73595 -68.70337 -328.0184 -832.9328
0001e0 a4 4a 6e c3 a0 1f 9e c3 78 4e 30 c4 56 ef 4b c4
       -238.29156 -316.24707 -705.2261 -815.7396
0001f0 40 cd 1f c4 16 cd 43 c3 e8 a4 b1 c3 9f 86 1b c4
       -639.20703 -195.80112 -355.28833 -622.10345
000200 ec 79 c2 c3 05 9e 57 c3 54 94 30 c3 41 37 57 c3
       -388.9525 -215.61726 -176.5794 -215.21584
000210 53 6b d7 c2 e0 8c e4 c3 f3 1a ec c3 5f 7b ec c3
       -107.70962 -457.1006 -472.21054 -472.96384
000220 9e ac 0e c4 b0 84 2c c4 84 f7 ae c2 7d 1e af c3
       -570.69714 -690.07324 -87.48343 -350.2382
000230 aa 58 11 c4 59 68 8d c3 bd 7f 72 c3 7c d5 25 c4
       -581.3854 -282.81522 -242.49898 -663.3357
000240 71 ad 1a c3 86 71 9b c3 80 96 e1 c3 ea c9 92 42
       -154.6775 -310.8869 -451.17578 73.39436
000250 8e 07 41 c3 f1 1b 58 c3 7b 46 d6 c3 f3 dd 9c c3
       -193.02951 -216.10915 -428.55063 -313.73398
000260 20 c1 d3 c2 fa 2e 98 c3 48 ad 31 c3 13 c7 9d c3
       -105.8772 -304.367 -177.67688 -315.55527
000270 32 2c aa c3 72 31 06 c4 34 8c 2b c4 3f d7 33 c3
       -340.34528 -536.7726 -686.1907 -179.8408
000280 8f ab 4b c3 ed be bd c3 e7 aa d3 c3 e4 7a d4 c3
       -203.67015 -379.4916 -423.33517 -424.96008
000290 da df 90 c3 20 6a b5 c3 dc 19 cf c2 b9 f3 93 c3
       -289.74884 -362.8291 -103.55051 -295.90408
0002a0 9d 21 93 c3 c1 26 c3 c3 17 a9 e4 c3 39 4c a9 c3
       -294.2626 -390.30276 -457.321 -338.5955
0002b0 c4 1d bd c3 1a 16 50 c4 5f a8 06 c4 9d eb 3a c3
       -378.23254 -832.34534 -538.6308 -186.92036
0002c0 d2 63 35 c4 49 5a c9 c3 4f 78 f5 c2 98 c1 8a c3
       -725.5597 -402.70535 -122.73498 -277.51245
0002d0 b2 25 c7 c3 d8 71 fb c3 fd c2 87 c3 e2 e9 a5 c3
       -398.2945 -502.8894 -271.52335 -331.8272
0002e0 07 8c b3 c3 cf 4b 1f c4 d2 50 e7 c3 07 a7 2b c3
       -359.09396 -637.1845 -462.6314 -171.65245
0002f0 31 1e ab c2 04 11 70 c4 39 a6 1d c4 57 1a d2 c2
       -85.55897 -960.26587 -630.5972 -105.051445
000300 78 a7 8d c3 ab 14 40 c4 45 a6 68 c4 77 cd 98 c3
       -283.30835 -768.32294 -930.59796 -305.6052
000310 f0 1c 9b c3 87 33 a6 c3 fd e6 8f c3 d1 f1 71 c4
       -310.22607 -332.40256 -287.8046 -967.7784
000320 b2 45 40 c4 1d ae 91 c3 23 5e 60 c3 a1 3c 55 c4
       -769.089 -291.36026 -224.36772 -852.9473
000330 45 4f 06 c4 37 80 28 c3 8b 08 25 c3 7e 8e 46 c4
       -537.2386 -168.50084 -165.03337 -794.22644
000340 03 b6 29 c3 66 72 8f c2 f7 fe a9 c3 84 9c ec c3
       -169.71098 -71.723434 -339.9919 -473.22278
000350 6f e1 88 c3 6f d6 c1 c3 81 bc aa c2 b5 66 ae c3
       -273.7612 -387.67526 -85.36817 -348.8024
000360 3e 03 ca c3 cc e0 01 c4 b9 28 e4 c3 bd f5 f7 c3
       -404.02533 -519.51245 -456.31815 -495.91983
000370 f5 56 a9 c3 dc 8e 3e c3 91 d1 7e c3 e6 52 2b c4
       -338.67935 -190.55804 -254.81862 -685.2953
000380 fd 3b 05 c4 45 2c 52 c4 85 cd bf c2 27 22 24 c4
       -532.9373 -840.6917 -95.901405 -656.5336
000390 10 b2 a1 c3 0a f2 19 c4 db 7f e0 c3 27 3c 67 c3
       -323.3911 -615.78186 -448.99887 -231.23497
0003a0 18 ff 4b c3 c8 79 14 c4 a2 20 f0 c3 85 f9 8c c3
       -203.99646 -593.90283 -480.25494 -281.94937
0003b0 b4 73 5b c4 f9 38 73 c3 9a a8 00 c2 7d e5 bf c1
       -877.80786 -243.22255 -32.16465 -23.987055
0003c0 02 b2 18 c3 fc 23 13 c4 87 bb a8 c3 7f 48 f3 c2
       -152.69534 -588.56226 -337.46506 -121.641594
0003d0 3b 7d 4b c4 0c 60 9c c3 b8 8f d7 c3 7c 03 d4 c3
       -813.9567 -312.75037 -431.1228 -424.02722
0003e0 00 dc 4d c4 a4 db ae c3 13 1d 61 c3 2c fb bc c1
       -823.4375 -349.71594 -225.11357 -23.622643

weight f4 [252]
000000 3d 65 de 3f a7 ad d5 3f 32 6e f8 3f 61 6f f0 3f
       1.7374645 1.669362 1.9408629 1.878399
000010 8b 71 05 40 47 5b 02 40 bb cd e6 3f 09 e7 17 40
       2.085055 2.0368211 1.8031534 2.3734763
000020 07 e3 08 40 d3 01 f4 3f a5 79 0f 40 2e 48 04 40
       2.1388566 1.9063057 2.2417996 2.0669055
000030 2a 40 06 40 51 fa 0a 40 35 34 ee 3f dc 37 07 40
       2.0976663 2.171528 1.8609682 2.1127844
000040 d2 7f 11 40 b0 c1 dc 3f 48 2f ea 3f 0c d6 f4 3f
       2.2734265 1.7246609 1.8295679 1.9127822
000050 e9 c8 c7 3f 5a 84 d4 3f 48 df f3 3f 22 0f e7 3f
       1.5608188 1.660289 1.9052515 1.8051493
000060 a9 35 de 3f 19 c9 ea 3f c1 b5 06 40 80 2d df 3f
       1.7360126 1.834262 2.1048434 1.743576
000070 66 d6 15 40 73 8a 0e 40 2d 6a 1e 40 eb 3b fe 3f
       2.3412108 2.2272003 2.4752305 1.9862036
000080 c7 62 c9 3f b8 f9 09 40 2f 17 1d 40 33 ef c2 3f
       1.573327 2.1558666 2.45454 1.5229248
000090 74 5c 0a 40 18 f2 0f 40 27 ca 05 40 1b 58 03 40
       2.161893 2.2491512 2.0904634 2.0522525
0000a0 97 27 07 40 d2 5c f0 3f d3 65 f3 3f de 9d 08 40
       2.1117914 1.8778327 1.9015449 2.1346354
0000b0 de bf 19 40 23 07 06 40 93 5e 0b 40 49 ca 08 40
       2.4023356 2.0941856 2.1776474 2.1373465
0000c0 98 e7 d3 3f be c1 d4 3f 39 4a f1 3f 9f 14 07 40
       1.6555052 1.6621625 1.8850776 2.1106336
0000d0 1f 1a d0 3f 5a 56 14 40 22 5b 0f 40 1b 31 ef 3f
       1.6257972 2.3177705 2.2399373 1.8686861
0000e0 a3 2b d1 3f 87 08 0b 40 eb 35 16 40 e5 49 f1 3f
       1.6341442 2.1723955 2.347041 1.8850676
0000f0 4d eb ec 3f 6f d1 88 40 36 7e eb 3f a3 d9 20 40
       1.8509308 4.2755656 1.8397892 2.5132835
000100 8e e9 0a 40 fd a9 ee 3f 3f b1 0a 40 ac 71 e0 3f
       2.170505 1.8645626 2.1670682 1.753469
000110 08 e3 ed 3f 4a d5 02 40 a6 54 e3 3f 18 44 38 40
       1.858491 2.0442681 1.7760208 2.879156
000120 a0 d6 f3 3f 9a 9d 12 40 df 55 f9 3f 76 15 e6 3f
       1.9049873 2.2908692 1.9479331 1.7975299
000130 19 8d f9 3f 44 6f e2 3f 2c 8a cd 3f d9 42 08 40
       1.9496185 1.7690206 1.6057792 2.12908
000140 c1 0b 05 40 c1 b9 4a 40 66 04 ca 3f 1c 4b e1 3f
       2.0788424 3.1675875 1.5782592 1.7601047
000150 09 1d f1 3f c6 42 0d 40 3c e2 14 40 16 2f 19 40
       1.8836986 2.2072005 2.3263083 2.393499
000160 92 a2 da 3f b2 b8 f7 3f e2 44 04 40 29 d6 07 40
       1.7080863 1.935324 2.0667043 2.1224463
000170 7c 22 00 40 1f 87 da 3f a8 3f 15 40 6e 01 ed 3f
       2.0021048 1.7072486 2.3320103 1.8516061
000180 31 bb 1f 40 28 33 f7 3f 55 a0 e6 3f 50 07 ed 3f
       2.4958003 1.9312487 1.801768 1.8517857
000190 ea f8 cf 3f 65 b4 ee 3f ec 9f f5 3f 5d c2 09 40
       1.6247838 1.8648802 1.9189429 2.152488
0001a0 f8 3c f5 3f 66 b0 f0 3f ee 2d f5 3f ad c8 e7 3f
       1.9159231 1.8803833 1.9154642 1.8108116
0001b0 a0 de f4 3f 09 f2 09 40 55 3f dc 3f eb a4 d8 3f
       1.913044 2.1553977 1.7206827 1.6925329
0001c0 a0 ba e2 3f a4 78 da 3f f9 07 dc 3f 4b 32 fa 3f
       1.7713203 1.7068067 1.7189933 1.9546598
0001d0 47 16 d8 3f dd 1b d2 3f cc 1f eb 3f fa c2 1f 40
       1.6881799 1.6414753 1.8369079 2.4962754
0001e0 05 9f e0 3f 0d fd eb 3f 0c fe 13 40 5f 3a 1a 40
       1.7548529 1.84366 2.3123808 2.4098127
0001f0 54 04 11 40 61 c9 03 40 c4 5d ff 3f 50 60 f9 3f
       2.2658892 2.0591662 1.995049 1.9482517
000200 69 10 f4 3f 4e 35 df 3f 72 8a 09 40 67 45 08 40
       1.9067508 1.7438142 2.149075 2.129236
000210 3b 48 fe 3f da 66 f3 3f 6b c2 fb 3f a7 96 e7 3f
       1.9865793 1.9015763 1.9668707 1.809285
000220 e7 6b f8 3f 1a ee dc 3f 97 b8 c1 3f e0 d9 47 40
       1.9407929 1.7260163 1.5134457 3.122673
000230 f5 66 15 40 65 63 18 40 47 bb 00 40 48 cb 11 40
       2.334409 2.3810666 2.0114305 2.2780323
000240 71 44 03 40 06 8b dd 3f c0 e4 ec 3f c3 67 e6 3f
       2.0510523 1.7308052 1.8507309 1.8000416
000250 65 34 ee 3f 7c 24 07 40 8f 84 f3 3f eb 52 ec 3f
       1.860974 2.1116018 1.9024829 1.8462805
000260 e9 ab f9 3f 34 4b d4 3f 6e 3e 01 40 e7 18 fb 3f
       1.9505588 1.658545 2.0194354 1.9616975
000270 8d ef ea 3f 38 1f f0 3f 48 4c 01 40 57 bc f1 3f
       1.8354355 1.8759527 2.0202808 1.8885602
000280 c8 c5 f3 3f df 30 f0 3f 01 90 eb 3f 28 5b f5 3f
       1.9044733 1.8764914 1.8403322 1.9168444
000290 39 c9 e3 3f 64 61 f4 3f 07 a7 ee 3f 58 76 09 40
       1.7795783 1.9092221 1.8644723 2.1478481
0002a0 59 08 1b 40 8a b2 01 40 0f 53 04 40 55 a3 08 40
       2.4223845 2.0265222 2.0675695 2.134969
0002b0 d3 d3 e9 3f 7a e9 02 40 06 27 ee 3f af b7 f1 3f
       1.8267769 2.0455003 1.8605659 1.8884181
0002c0 9a 19 02 40 82 d7 fb 3f 39 9a 29 40 de 94 09 40
       2.0328126 1.9675143 2.650038 2.1497111
0002d0 1a 99 05 40 de 2f f8 3f 9e f0 e8 3f b3 41 e7 3f
       2.0874696 1.9389608 1.819843 1.8066925
0002e0 df f0 e8 3f 84 b8 03 40 36 2f 00 40 b1 50 f8 3f
       1.8198508 2.058137 2.0028815 1.9399625
0002f0 17 6d e1 3f 31 be f7 3f 1b 33 f7 3f a2 8a e1 3f
       1.7611417 1.9354917 1.9312471 1.7620432
000300 97 77 da 3f d1 6c 13 40 61 76 6b 40 0d a0 e9 3f
       1.7067746 2.3035166 3.6791003 1.8251969
000310 e1 40 d7 bf 38 22 df 3f 9c 2a 0b 40 dd 4b fa 3f
       -1.6816674 1.7432318 2.1744757 1.9554402
000320 0e 63 fa 3f f2 7b e2 3f 9b d9 01 40 6b 7e 14 40
       1.9561479 1.7694075 2.0289066 2.320216
000330 66 97 d8 3f d8 6a f3 3f 61 6e f1 3f 8e 4d 0a 40
       1.6921203 1.9016981 1.886181 2.1609836
000340 91 9b 28 40 cd 06 d5 3f ba e8 d8 3f 51 88 16 40
       2.634495 1.66427 1.6946023 2.35207
000350 c0 de e0 3f d9 b3 e1 3f 86 76 0a 40 2b 10 1e 40
       1.7567978 1.763301 2.163484 2.4697368
000360 e9 d5 f8 3f 31 5c 13 40 99 32 f6 3f f3 6e f1 3f
       1.944028 2.302502 1.9234191 1.8861984
000370 6e 5f 0e 40 93 5c ff 3f b9 e0 fb 3f 85 21 ea 3f
       2.2245746 1.9950126 1.9677955 1.8291479
000380 f1 9a e5 3f 7f bf 2a 40 db 81 f8 3f 68 2a 6d 40
       1.7937909 2.667938 1.9414629 3.7057133
000390 bd d2 fe 3f 2a 4e 13 40 4e a6 10 40 6a 45 14 40
       1.9908062 2.3016458 2.2601504 2.3167367
0003a0 4e 13 d1 3f 2e 66 1c 40 1b f6 09 40 ec 91 cf 3f
       1.6334016 2.4437366 2.155646 1.6216407
0003b0 30 7f 09 40 c6 97 22 40 53 64 04 40 df c6 00 40
       2.148388 2.5405135 2.0686233 2.0121381
0003c0 c8 64 f8 3f 7e e0 07 40 8d 07 0b 40 5d 05 e1 3f
       1.9405756 2.123077 2.1723359 1.7579762
0003d0 5e a5 1d 40 48 1e f4 3f 9b e8 01 40 77 78 08 40
       2.4632182 1.9071741 2.029822 2.1323526
0003e0 3d 96 04 40 0f 2f 02 40 52 fe 10 40 d2 60 e5 3f
       2.0716698 2.0341222 2.2655225 1.7920172

bias f4 [252]
000000 7b 85 09 3e 20 0e 82 3e be 63 9a be 99 57 5b 3e
       0.13429825 0.25401402 -0.30154222 0.21420135
000010 5c e0 35 3e 5d 3b 39 3f 1e 3a d7 3e 82 9b ae bf
       0.17761368 0.72356206 0.42036527 -1.3641207
000020 ba 9b 83 bf f8 3a 76 bd 3b ba 2f 3f 44 fe 4d 3f
       -1.0281899 -0.06011483 0.6864354 0.80466104
000030 bb a8 93 bf b2 6b ac bf 83 c9 97 3e 23 a5 55 3f
       -1.1535867 -1.3470366 0.2964593 0.83455104
000040 be 63 43 bf 6b 46 19 3d 23 da 69 be 07 2c f4 3e
       -0.7632407 0.03742067 -0.22837119 0.4768984
000050 08 35 16 be 77 13 e4 3c 96 80 4a 3e 88 1a 9f 3e
       -0.14668667 0.027841313 0.19775614 0.3107493
000060 02 e5 80 3e ec d2 b4 3d d8 1d 03 bf 64 32 e4 3e
       0.2517472 0.08829293 -0.5121741 0.44569695
000070 a7 e7 92 bf bd 31 b5 bf 4d bf 3c bf ff ff 20 3f
       -1.1476945 -1.4155804 -0.737294 0.6289062
000080 64 21 f8 bd 6d 1a 35 bf 7b 4a ae bf 33 72 59 3d
       -0.12115744 -0.7074345 -1.361648 0.053087424
000090 46 c8 7f bf 46 7e 67 3f d7 47 dd 3e c0 20 27 3f
       -0.9991497 0.9042705 0.43218872 0.6528435
0000a0 3e f4 9d 3e 09 03 f2 3e 53 3d ad 3e b0 4e 61 bf
       0.30850405 0.4726794 0.3383585 -0.8801069
0000b0 32 1a 70 3f d2 6c 1b 3f 0f e8 8e bf da 45 05 be
       0.9378997 0.6071292 -1.1164569 -0.13014928
0000c0 32 b8 59 be 61 f4 b3 bb 5c 4b 12 bf 70 07 f8 bd
       -0.21261671 -0.0054917787 -0.5714624 -0.121107936
0000d0 a5 9e 63 3e ef 61 8e 3f d6 00 2d bf 35 e0 bc 3e
       0.22228487 1.1123637 -0.675794 0.36889806
0000e0 6c 53 66 3e 41 23 15 bf cc dc b4 bf e7 39 40 bd
       0.2249276 -0.5825692 -1.4129882 -0.04693022
0000f0 d7 1c 68 3e 71 ee c5 3f 60 79 bd 3d ab fa 91 bf
       0.22667252 1.5463392 0.09251666 -1.1404623
000100 c6 3c 29 3f bd 2b 3f be be 6c 45 3f da d0 b9 3e
       0.6610836 -0.18669029 0.7711905 0.36292154
000110 fb fe ed 3e 58 dc 01 3f 1a 0d 89 bd 52 6e 81 3f
       0.46483597 0.5072684 -0.06691952 1.0111792
000120 14 98 91 3e 56 ef 90 bf 0d 3a e3 3e 46 ec a3 3d
       0.2843634 -1.132304 0.44380227 0.0800405
000130 a6 e2 c1 3e d1 df cd bc 53 b6 97 be 2d 78 74 be
       0.37868232 -0.025131138 -0.2963129 -0.23873968
000140 14 27 06 3f 05 d2 82 3f 30 95 26 bf d5 e9 d8 3e
       0.5240338 1.0220343 -0.6507139 0.423659
000150 f5 f4 f4 3e e2 6d 5b 3f 89 eb c8 be 90 07 91 3f
       0.47843137 0.8571454 -0.392422 1.1330433
000160 4f d2 a2 be 1b 73 2a 3e cb 16 53 3f fd ca 6c 3e
       -0.31801078 0.16645472 0.82456654 0.23124309
000170 33 61 fb 3e 9b 74 6e 3e 77 39 be bf be eb fd 3e
       0.49097595 0.23286669 -1.4861287 0.4959392
000180 23 cb ca bf 9e 36 a9 3e 96 78 7a 3e 6d 62 8d bd
       -1.5843242 0.33049482 0.24460062 -0.06903539
000190 09 66 0a bd e4 97 34 3e 71 0d 0f 3f a1 94 18 3f
       -0.033788715 0.17636067 0.55879885 0.5960179
0001a0 f9 fe 96 3e 68 88 d3 bd 4c 33 9d 3d 0c 0d 32 bb
       0.29491404 -0.10328752 0.076758 -0.002716842
0001b0 c3 df f0 3d fa fa 0f 3f c4 dc 58 3d 31 a8 95 3d
       0.11761429 0.56242335 0.052944914 0.073074706
0001c0 5b 68 bc 3e ab f0 92 bd 30 d9 29 3e 01 04 77 3e
       0.36798367 -0.0717481 0.16586757 0.24122621
0001d0 83 9e 23 bd ec 82 4c 3e 41 bf 0d 3f 5f fa 7b bf
       -0.03994609 0.19971818 0.55369955 -0.9842891
0001e0 80 92 86 3e 58 45 e0 3d 2e ef 91 bf bd dd a4 bf
       0.26283646 0.10950726 -1.1401117 -1.2880169
0001f0 b1 64 15 bf f2 03 c6 3e 56 03 01 3d b4 de 52 be
       -0.5835677 0.38674885 0.031497322 -0.20592767
000200 cf 29 28 3e 0d 55 db 3e 87 1b 2f 3f 86 11 0d 3f
       0.16422199 0.42838326 0.6840138 0.55104864
000210 00 5f ca 3e 3c 51 b2 bc c0 e5 72 be d7 83 5f 3d
       0.39525604 -0.021767251 -0.23720455 0.05456909
000220 8b ac 8f 3e 72 87 c6 be c1 6c b3 bc 6b 7e 92 3f
       0.28061327 -0.38775212 -0.021902444 1.144483
000230 36 84 34 3f 9f 97 88 3f 01 c8 f2 3e 8d d1 88 bf
       0.7051424 1.0671271 0.47418216 -1.068895
000240 66 1c e1 3e e1 ca 3e bd 0f ea 5f 3e 37 ec 82 3e
       0.4396698 -0.0465802 0.2186663 0.25570843
000250 fc 94 e3 3e fc 4a 11 3f 6b 74 46 3e 1b d9 90 3e
       0.44449604 0.5675504 0.19380347 0.28290638
000260 47 4d 04 3f 7a 2f 89 3e c6 2c b8 3e a7 92 2b 3e
       0.51680416 0.26794034 0.3597166 0.16755162
000270 96 5a 91 3d 93 92 d2 3e 9c 3e 47 bf 03 99 80 3e
       0.07097356 0.41127452 -0.7782991 0.2511674
000280 4f 07 8d 3e 37 69 a2 bc f6 52 bd 3e db a6 98 3e
       0.2754464 -0.019825561 0.36977357 0.298148
000290 d2 0d 74 3e 05 72 37 3e f5 40 00 3f e2 cc 4f 3f
       0.23833397 0.17914589 0.50099117 0.81172
0002a0 79 c8 50 3f 46 11 de 3e b6 b3 4e 3e 37 db 23 3f
       0.81555897 0.43372554 0.20185742 0.6400637
0002b0 97 16 f3 3d 1a 8d 8f 3e 66 9d 6e be 93 59 09 3e
       0.11869543 0.2803734 -0.2330223 0.13413076
0002c0 dc a5 77 bf c4 50 4c 3e 5f 8a a9 3f 52 c4 1c 3f
       -0.96737456 0.19952685 1.3245353 0.6123706
0002d0 76 46 b7 3e 6f d1 c5 3e 93 fe 37 3f 5f c2 be 3d
       0.35795945 0.38636348 0.71872824 0.09314417
0002e0 65 2f 8e 3e 83 de 86 3d 9b 27 16 3f d4 dc 0c 3f
       0.27770534 0.065854095 0.58654183 0.55024457
0002f0 a1 21 f5 3d 88 e1 0c bd af 72 40 bd fa 2c df 3e
       0.11969305 -0.03439477 -0.04698437 0.43589002
000300 eb a6 93 3e 51 5b a7 bf 24 ee 99 3f 5f 4c c3 3e
       0.28838286 -1.3074743 1.20258 0.38144204
000310 8a f2 0a be c3 e1 8b 3e 94 da 1a 3f da 39 0d bd
       -0.13569084 0.2732068 0.60489774 -0.034479
000320 c5 76 46 3e 1f 7e 3e 3e 93 a9 ac 3e 75 a2 ca bf
       0.19381244 0.18602799 0.33723125 -1.5830828
000330 d9 74 02 be 39 f9 a1 be 3b 25 3f 3e a3 81 75 bf
       -0.12739886 -0.31635454 0.18666546 -0.95900935
000340 37 cc 8f 3f 34 c9 86 3d 5e 60 a3 3b a0 ad 3c 3f
       1.1234196 0.06581345 0.004985853 0.7370243
000350 e7 20 87 3d d1 36 56 3d 3e 87 ed 3e a2 f7 2b 3f
       0.065980725 0.05229837 0.46392244 0.6717473
000360 56 df 10 3f 43 e6 a0 bf fd c2 1b 3f d9 ff 03 3e
       0.56590784 -1.257027 0.60844404 0.12890567
000370 91 72 29 3f 57 00 3b 3f 30 fc 0e 3f db 34 f8 bd
       0.6619044 0.73047394 0.5585356 -0.121194564
000380 d4 f1 39 bd 6c 3a a0 bf 0e ad c1 3e 20 9a a9 3f
       -0.04539664 -1.2517829 0.37827343 1.325016
000390 8c e2 a1 3c 02 00 2d 3f 6a dd f6 3e df 66 86 3f
       0.019761346 0.67578137 0.482158 1.0500144
0003a0 de 4f a4 3d 1b 23 64 bf 2b e5 eb 3e 14 72 07 3e
       0.08023046 -0.89116067 0.4607328 0.13227111
0003b0 0e 35 76 bf ba fa 9e 3f d1 a5 98 3e 74 eb 4b 3e
       -0.96174705 1.2420266 0.29814008 0.19914037
0003c0 f3 bf 6b 3e 5d 1a 34 bf cf a1 70 3f 66 9a 18 3e
       0.23022442 -0.7035273 0.939969 0.14902648
0003d0 cd 5d a9 bf 98 5e e8 3e 72 8e 1f 3f 3d e2 28 3f
       -1.3231751 0.4538467 0.6232673 0.6597021
0003e0 33 5e b9 bf fd bc f0 3d b7 53 4b 3f 77 77 94 3d
       -1.4481872 0.11754797 0.79424614 0.072493486

running_mean f4 [252]
000000 2d 95 08 47 ca 1d d9 46 40 16 ae 47 68 cb 2c 47
       34965.176 27790.895 89132.5 44235.406
000010 a9 a1 f1 46 48 b2 32 47 60 59 02 47 1f e8 42 47
       30928.83 45746.28 33369.375 49896.12
000020 12 f6 6a 47 24 0b bc 46 96 00 63 47 a7 e4 94 46
       60150.07 24069.57 58112.586 19058.326
000030 c5 fc 0c 48 f4 47 67 47 7c 8b 5b 47 28 05 42 47
       144371.08 59207.953 56203.484 49669.156
000040 f7 7b ac 46 3a 0f 71 46 9e 7f 00 47 e4 67 01 47
       22077.982 15427.807 32895.617 33127.89
000050 29 ab a2 46 ba 43 0f 47 9e 02 8b 46 84 c6 18 47
       20821.58 36675.727 17793.309 39110.516
000060 2e 3b d2 46 85 91 a5 46 d9 56 bb 47 77 55 da 46
       26909.59 21192.76 95917.695 27946.732
000070 7e b9 78 47 f9 f8 e5 47 75 f9 16 47 96 77 bd 46
       63673.492 117745.945 38649.457 24251.793
000080 fa a1 7e 46 41 c1 ad 47 1f 05 a3 47 95 38 82 46
       16296.494 88962.51 83466.24 16668.291
000090 0f a3 d2 47 c6 b9 fc 46 eb 63 15 47 3d 23 c8 46
       107846.12 32348.887 38243.918 25617.62
0000a0 af 7e 81 47 98 69 c9 46 8e c1 f4 46 a9 6e f2 46
       66301.37 25780.797 31328.777 31031.33
0000b0 ca a9 0f 47 ed 83 b5 46 e4 16 27 47 85 0f 6b 46
       36777.79 23233.963 42774.89 15043.88
0000c0 70 38 82 46 90 c4 c1 46 0a 52 28 46 c0 87 4b 46
       16668.219 24802.281 10772.51 13025.9375
0000d0 bd 8b a0 46 f5 6a 4f 47 1b d4 e5 46 09 cc b9 46
       20549.87 53098.957 29418.053 23782.018
0000e0 45 29 8f 46 c9 4b a6 47 49 2f f8 47 9d 7d 54 46
       18324.635 85143.57 127070.57 13599.403
0000f0 59 25 25 47 ec 7c ee 46 a7 19 cb 46 ff 7d 1a 48
       42277.348 30526.46 25996.826 158199.98
000100 ab 1a 89 46 58 fc b7 46 24 50 54 47 06 0b 90 46
       17549.334 23550.172 54352.14 18437.512
000110 2c 93 a7 46 91 21 db 46 17 29 46 47 39 29 a2 46
       21449.586 28048.783 50729.09 20756.611
000120 38 26 a0 46 4c 4a 15 48 81 ba db 46 c5 eb 1a 47
       20499.11 152873.19 28125.252 39659.77
000130 10 5d 49 47 ab 5f e5 46 32 17 4d 46 61 85 6f 47
       51549.062 29359.834 13125.799 61317.38
000140 cd 98 43 47 20 be e9 46 7d 9a b5 46 9a dc de 46
       50072.8 29919.062 23245.244 28526.3
000150 65 82 de 46 00 76 d5 46 6a b9 19 47 d5 bb 09 47
       28481.197 27323.0 39353.414 35259.832
000160 2c 23 62 46 9d e3 37 47 21 4e 1f 47 c3 89 6d 47
       14472.793 47075.613 40782.13 60809.76
000170 5f 23 1f 47 1e 59 e1 46 95 75 d2 47 00 20 e5 46
       40739.37 28844.559 107755.164 29328.0
000180 38 2e fc 47 5f b0 12 47 7e 97 e9 46 6e d3 8f 47
       129116.44 37552.37 29899.746 73638.86
000190 61 1a ff 46 80 e8 3e 47 49 79 b1 46 25 a0 aa 46
       32653.19 48872.5 22716.643 21840.072
0001a0 5c dc 1c 47 29 e2 bd 46 14 6a 88 47 62 05 e1 46
       40156.36 24305.08 69844.16 28802.691
0001b0 ba 0c 76 47 f5 d6 64 46 29 71 12 47 a9 ff e7 46
       62988.727 14645.739 37489.16 29695.83
0001c0 04 ff dd 46 ec 52 88 46 5a bd 3d 47 61 f7 77 47
       28415.508 17449.46 48573.35 63479.38
0001d0 a2 58 b5 46 f3 bd b9 46 ce 21 08 47 2c cc ae 46
       23212.316 23774.975 34849.805 22374.086
0001e0 33 55 f3 46 31 f5 05 47 82 80 f6 47 e7 46 2a 48
       31146.6 34293.19 126209.016 174363.61
0001f0 43 9b ab 46 6e 2b 1e 47 b8 39 37 47 55 41 db 46
       21965.63 40491.43 46905.72 28064.666
000200 21 c4 6d 47 1c b6 9b 46 3d 7f b9 46 98 5f 13 47
       60868.13 19931.055 23743.62 37727.594
000210 b8 ca cb 46 34 53 ce 46 16 ed a2 47 d9 b0 57 47
       26085.36 26409.602 83418.17 55216.848
000220 57 f3 1d 47 ff e1 08 47 09 c2 b6 46 76 9f a6 46
       40435.34 35041.996 23393.018 21327.73
000230 06 73 85 46 31 2c 21 47 64 28 ee 46 eb 40 02 48
       17081.512 41260.19 30484.195 133379.67
000240 7d 21 32 47 41 bf 1f 47 2f 85 37 47 00 f0 f5 46
       45601.49 40895.254 46981.184 31480.0
000250 d1 8a c5 46 92 d2 29 47 22 5b 05 47 31 52 37 47
       25285.408 43474.57 34139.133 46930.19
000260 a4 00 fe 46 bc 5f c3 46 7b 33 1c 47 d2 ef f9 46
       32512.32 25007.867 39987.48 31991.91
000270 a8 42 27 47 30 2c 23 47 d7 bb ae 47 fd 44 09 47
       42818.656 41772.188 89463.68 35140.99
000280 e2 8e 27 47 d7 24 9b 46 fb e7 0c 47 e4 b0 01 47
       42894.883 19858.42 36071.98 33200.89
000290 b5 48 23 47 34 d3 62 47 a4 e9 c0 46 63 88 f1 46
       41800.707 58067.203 24692.82 30916.193
0002a0 dd 51 07 47 5f ac 59 46 80 c9 98 46 ae 59 32 47
       34641.863 13931.093 19556.75 45657.68
0002b0 9d a7 17 47 45 16 05 47 36 2a 92 46 b4 d8 46 47
       38823.613 34070.27 18709.105 50904.703
0002c0 83 f2 dd 46 ca 72 58 47 98 ef ff 46 cc b7 31 47
       28409.256 55410.79 32759.797 45495.797
0002d0 a2 8f 37 47 c2 57 d8 46 ee d8 68 46 5e 98 de 46
       46991.633 27691.879 14902.232 28492.184
0002e0 50 f1 d6 46 f7 00 1d 47 d6 28 98 46 48 e5 2d 47
       27512.656 40192.965 19476.418 44517.28
0002f0 86 4a d9 46 0f 1f 85 46 ea 2e 3c 47 21 d3 ec 46
       27813.262 17039.53 48174.914 30313.564
000300 1c cc 06 47 78 dd b3 47 10 e8 b4 46 b8 60 da 46
       34508.11 92090.94 23156.031 27952.36
000310 01 16 bd 46 0b 37 9d 46 1c cc 28 47 b9 97 8a 46
       24203.002 20123.521 43212.11 17739.861
000320 b1 d0 3b 47 d6 9b c0 46 0b 0e ca 46 37 25 e2 47
       48080.69 24653.918 25863.021 115786.43
000330 fa 09 51 46 2e a3 b5 46 24 2e 02 47 0a 44 da 47
       13378.494 23249.59 33326.14 111752.08
000340 ef 4d da 46 dc 10 6d 46 92 70 d6 46 52 fc 91 46
       27942.967 15172.215 27448.285 18686.16
000350 b8 19 0c 47 3b f4 34 47 b5 40 90 46 76 be 71 46
       35865.72 46324.23 18464.354 15471.615
000360 3d f9 20 47 f9 79 d6 46 9f 18 1e 47 94 5e 8b 47
       41209.24 27452.986 40472.62 71357.16
000370 9b 1b 50 47 65 56 d4 46 f5 5b 0b 47 dc 8e 96 47
       53275.605 27179.197 35675.957 77085.72
000380 43 39 63 47 29 cd b9 46 66 f6 ba 46 be ff f5 46
       58169.26 23782.58 23931.2 31487.871
000390 18 8c 7a 47 2f c1 54 46 07 35 01 47 84 99 6d 47
       64140.094 13616.296 33077.027 60825.516
0003a0 c2 c1 79 46 e4 a1 14 48 28 99 c7 46 5c c5 08 47
       15984.439 152199.56 25548.578 35013.36
0003b0 e1 ac 0a 48 7c 56 0a 47 9c 0d a8 46 9b c8 5d 47
       142003.52 35414.484 21510.805 56776.605
0003c0 31 e2 e2 46 ac 2a fc 47 4c a6 04 47 7d d6 ea 46
       29041.096 129109.34 33958.297 30059.244
0003d0 a3 49 2f 48 75 72 2d 47 a2 c8 1b 47 aa 16 6c 47
       179494.55 44402.457 39880.633 60438.664
0003e0 77 62 01 48 a3 f8 20 47 c4 d9 25 47 61 62 d5 46
       132489.86 41208.637 42457.766 27313.19

running_var f4 [252]
000000 76 d6 52 4e 8b 29 4d 4e 87 ff 4a 4f 3b 48 85 4e
       8.843176e+08 8.6051296e+08 3.4057439e+09 1.1180517e+09
000010 92 17 1d 4e 17 6b f4 4e 3d bb da 4e 54 24 83 4e
       6.588919e+08 2.0503295e+09 1.834852e+09 1.100098e+09
000020 5f 7b cf 4e 99 3d 1f 4e 66 c5 1f 4f 34 09 88 4e
       1.7404845e+09 6.6790355e+08 2.680514e+09 1.1411523e+09
000030 e4 16 e2 4f b8 4c c7 4e 5d 09 07 4f f0 2d 3c 4f
       7.586302e+09 1.6718469e+09 2.2655378e+09 3.1571272e+09
000040 d7 0c 63 4d bd d4 1d 4d 08 82 45 4e af 52 9f 4e
       2.3807934e+08 1.6549781e+08 8.284083e+08 1.336498e+09
000050 65 af 6d 4e e9 86 29 4e ab e3 d6 4d 93 7a f6 4e
       9.969237e+08 7.1104774e+08 4.5065558e+08 2.0676141e+09
000060 20 bf 53 4e 59 1a 9a 4d 8e 99 5c 4f 52 f3 9c 4e
       8.8812954e+08 3.2317725e+08 3.701051e+09 1.316596e+09
000070 81 e2 cc 4e 94 07 bf 4f 46 b6 26 4e e1 7b 8c 4e
       1.7186981e+09 6.40989e+09 6.992408e+08 1.1784644e+09
000080 79 d8 34 4d f8 81 2e 4f 5a 98 39 4f 35 3a de 4d
       1.8963035e+08 2.9277532e+09 3.1137695e+09 4.6604458e+08
000090 8b 5a 8f 4f f4 33 cb 4e 6d 1c 92 4e 4f 75 8e 4e
       4.8101514e+09 1.7045898e+09 1.2256682e+09 1.1950263e+09
0000a0 d9 e3 0c 4f 6c a1 55 4e df 01 8c 4e 07 11 c2 4d
       2.3637425e+09 8.960315e+08 1.1744664e+09 4.0698698e+08
0000b0 56 9a 1e 4f 0d 65 5a 4f 21 73 53 4e 0a a4 b5 4c
       2.6609147e+09 3.6640556e+09 8.868844e+08 9.523208e+07
0000c0 b2 7a 1f 4d cd d4 cc 4d 7c de 6a 4c 90 8b 70 4c
       1.6722614e+08 4.2956227e+08 6.156952e+07 6.305747e+07
0000d0 10 bf f2 4d 59 d5 80 4f ed f2 b2 4d b9 d3 62 4e
       5.0907597e+08 4.322931e+09 3.752831e+08 9.5138157e+08
0000e0 c5 34 1f 4e 3f 5f 22 4f d0 ce c3 4f 86 e7 9c 4c
       6.677589e+08 2.724151e+09 6.5702216e+09 8.226309e+07
0000f0 8b e8 de 4e 99 b2 a7 4f 51 46 56 4e 11 5e 02 50
       1.869891e+09 5.6269993e+09 8.987331e+08 8.748811e+09
000100 e6 64 b8 4e 71 2f a6 4d 95 00 22 4f e8 4f 09 4e
       1.5468101e+09 3.4851587e+08 2.7179471e+09 5.759288e+08
000110 e0 09 1a 4e d1 af 39 4e 79 d6 9c 4e 1e 5d 07 4f
       6.460846e+08 7.788268e+08 1.3156507e+09 2.2710267e+09
000120 c1 9a 18 4e a2 02 03 50 b4 75 8e 4e 72 01 8c 4e
       6.400697e+08 8.791951e+09 1.1950392e+09 1.1744525e+09
000130 e1 f6 e8 4e e3 0c 7c 4e 92 52 d9 4c 65 ed ad 4e
       1.9542468e+09 1.05717574e+09 1.139396e+08 1.4590081e+09
000140 15 30 05 4f 21 7b 92 4f 2f 46 06 4e 2a a9 c3 4e
       2.2345208e+09 4.915086e+09 5.631866e+08 1.6413217e+09
000150 76 1a 90 4e 91 f7 87 4e 99 57 48 4e 10 0f 28 4f
       1.2088266e+09 1.1405743e+09 8.40296e+08 2.8195594e+09
000160 43 84 1e 4d 2e 37 b3 4e 1d 72 17 4f 2f e4 4b 4f
       1.6621675e+08 1.503369e+09 2.5408381e+09 3.420729e+09
000170 b9 87 1d 4f bb fd 21 4e 53 72 95 4f 51 09 a4 4e
       2.6429176e+09 6.7944006e+08 5.014595e+09 1.376037e+09
000180 08 d1 cb 4f 1f ae c9 4e 80 1b 96 4e 30 6f f7 4e
       6.838948e+09 1.6918158e+09 1.2591923e+09 2.0756296e+09
000190 f0 d7 50 4e d1 24 a4 4e af bd 74 4e 6d 5e 29 4f
       8.7595315e+08 1.3769381e+09 1.02651795e+09 2.8415378e+09
0001a0 b0 b0 cd 4e 2c 6e a4 4d 5b 89 16 4f 09 1c 0f 4e
       1.7254543e+09 3.4483546e+08 2.5255841e+09 6.002448e+08
0001b0 f2 f1 ff 4e 33 10 85 4e d1 af ad 4e 35 c6 16 4e
       2.1470231e+09 1.1162157e+09 1.4569903e+09 6.32393e+08
0001c0 63 83 d2 4e da 2f 61 4d c8 dc aa 4e 21 f7 f3 4e
       1.765913e+09 2.361256e+08 1.4332979e+09 2.0465297e+09
0001d0 c6 38 47 4e e8 4d 10 4e ef da c4 4e 8b d2 39 4d
       8.355967e+08 6.052562e+08 1.6513412e+09 1.9484894e+08
0001e0 26 86 85 4e d5 b8 b6 4e 3a c9 b7 4f 2f c0 2a 50
       1.1200806e+09 1.5327832e+09 6.166836e+09 1.1458887e+10
0001f0 a2 b9 51 4d 55 7d 0e 4f 1f 8a af 4e d8 a3 ed 4d
       2.1991274e+08 2.3905784e+09 1.4725324e+09 4.9836723e+08
000200 90 c1 c4 4e 27 74 09 4e 6e 21 94 4e 1b 40 ff 4e
       1.6505098e+09 5.765227e+08 1.2426094e+09 2.1411956e+09
000210 c5 99 8f 4e cd a6 d6 4d a1 c1 30 4f b3 0d ea 4e
       1.2046097e+09 4.5015696e+08 2.9654797e+09 1.9633832e+09
000220 14 b3 b5 4e 47 23 8d 4e a7 cb bb 4d 62 77 0c 4f
       1.5242061e+09 1.1839497e+09 3.9383574e+08 2.356634e+09
000230 bc ee 2e 4e a2 68 27 4f 6f ed c6 4e 23 2e a1 4f
       7.337203e+08 2.8086523e+09 1.6687246e+09 5.408311e+09
000240 fb bc dd 4e ab db 9f 4e 08 65 05 4f ff be 82 4e
       1.8600749e+09 1.3409868e+09 2.237991e+09 1.0967776e+09
000250 0d a4 6e 4e 58 fa ce 4e e1 a3 c6 4e 9c eb 0a 4f
       1.00093216e+09 1.7362565e+09 1.6663144e+09 2.3306967e+09
000260 54 67 dc 4e fd f0 3f 4e 52 1c ce 4e e8 7b 54 4e
       1.8488796e+09 8.050604e+08 1.7289812e+09 8.912225e+08
000270 62 17 a2 4e 98 00 16 4f 88 6a 3d 4f 0d 0a ac 4e
       1.3597207e+09 2.5166213e+09 3.1778755e+09 1.4431699e+09
000280 60 6f ad 4e 84 46 ff 4d 9a b3 f0 4e e8 ea 78 4e
       1.4548787e+09 5.3535142e+08 2.0191511e+09 1.0440361e+09
000290 20 ec b0 4e 99 13 01 4f fc 5a 94 4e 4d 8a e0 4e
       1.4841324e+09 2.1655452e+09 1.2444954e+09 1.88358e+09
0002a0 49 80 e3 4e 03 68 2a 4e 57 f9 18 4e 8d ca 24 4f
       1.9084177e+09 7.147358e+08 6.416194e+08 2.7647378e+09
0002b0 32 2a b3 4e 26 f1 52 4e be b5 44 4d 3e 52 0a 4f
       1.5029435e+09 8.847548e+08 2.0626531e+08 2.3206456e+09
0002c0 2d 93 1a 4e 78 cb ed 4e 2f b6 26 4f 0e 59 fa 4e
       6.4833414e+08 1.9947674e+09 2.7969574e+09 2.1000701e+09
0002d0 ba 95 eb 4e 4d 31 41 4e 28 8f 15 4e a4 54 1e 4e
       1.9762291e+09 8.103084e+08 6.272968e+08 6.640868e+08
0002e0 b6 b3 5a 4e b8 6a 97 4e 08 2c 20 4e 25 b2 20 4f
       9.1730266e+08 1.2701768e+09 6.7181005e+08 2.6960294e+09
0002f0 62 3b 34 4e 70 d5 e9 4c 08 36 a2 4e 03 ca c6 4e
       7.5594765e+08 1.2259622e+08 1.360725e+09 1.6675639e+09
000300 6c e0 a9 4e 89 af 61 4f cd ab 44 4f 13 c4 86 4e
       1.4250286e+09 3.7863775e+09 3.2995935e+09 1.1304984e+09
000310 83 8d 11 4e 6a 1b 0b 4e 5e 0d 57 4f 05 a2 0c 4d
       6.104926e+08 5.834574e+08 3.6079775e+09 1.4746427e+08
000320 36 d3 b1 4e b5 60 1f 4e 27 6e 52 4e 0d 68 b7 4f
       1.4917046e+09 6.684788e+08 8.826086e+08 6.154099e+09
000330 8e 89 21 4d 0b a1 fc 4d e6 65 fd 4e 54 38 a3 4f
       1.6938416e+08 5.2980157e+08 2.1256568e+09 5.4767555e+09
000340 bf d8 9f 4e 1c 53 82 4d a0 98 82 4e 96 bc ff 4d
       1.340891e+09 2.733106e+08 1.0955203e+09 5.3631866e+08
000350 35 71 61 4e 1b ff b6 4e ce 07 13 4e d3 b4 97 4e
       9.455732e+08 1.535086e+09 6.1669056e+08 1.272605e+09
000360 2a e9 03 4f 2d 0e 8a 4d fa 2c 11 4f 25 cf 04 4f
       2.213096e+09 2.895231e+08 2.435644e+09 2.228168e+09
000370 5c eb 37 4f 68 2b b8 4e 73 09 f5 4e cd 6a 16 4f
       3.085655e+09 1.5449262e+09 2.0555186e+09 2.5235817e+09
000380 6c 78 a3 4e 68 49 47 4d 56 d9 5e 4e 34 c0 b5 4f
       1.3712891e+09 2.089673e+08 9.346963e+08 6.0985446e+09
000390 7a 43 f4 4e 08 7a f8 4d 53 75 3c 4f 46 57 79 4f
       2.0490314e+09 5.2109338e+08 3.1618056e+09 4.1832463e+09
0003a0 24 ab 43 4d 59 ad e4 4f 33 19 83 4e f1 82 a6 4e
       2.0517331e+08 7.6731315e+09 1.0997334e+09 1.3967996e+09
0003b0 22 65 e6 4f dd cf fb 4e b7 af 40 4e 49 05 0d 4f
       7.730775e+09 2.1123519e+09 8.081853e+08 2.3659338e+09
0003c0 58 c1 8b 4e a5 8a be 4f da 37 18 4f ef 49 7d 4e
       1.172352e+09 6.3935145e+09 2.553797e+09 1.06237024e+09
0003d0 b4 0b 1d 50 69 0e 01 4f a7 9a f6 4e 90 a3 40 4f
       1.053916e+10 2.1652052e+09 2.0686652e+09 3.2319447e+09
0003e0 f6 0d ec 4f 68 71 97 4e 7f 52 e8 4e b6 1d 12 4e
       7.920676e+09 1.2703959e+09 1.9488603e+09 6.128552e+08

weight f4 [252, 252]
000000 80 9c 10 40 0e a7 a0 bf c9 78 68 bf c1 59 d1 c0
       2.259552 -1.2550981 -0.90809304 -6.5422063
000010 8e 7a 2f 40 b3 b1 d8 bf 99 52 94 bf d8 ce f3 3f
       2.7418551 -1.692923 -1.1587707 1.9047499
000020 a9 90 ff 3e c0 7b fb 3f ea 95 08 3e be 56 81 40
       0.49915054 1.964714 0.13338438 4.0418386
000030 80 ce 0d c0 f1 66 05 3f 97 61 97 c0 e0 ed 00 bf
       -2.2157288 0.521102 -4.730663 -0.5036297
000040 1b 3b 91 3e 18 81 5f 40 ca c8 1c bd 58 d9 09 c0
       0.28365406 3.4922543 -0.038277425 -2.1538906
000050 81 97 1a c0 2f 70 f6 be 88 60 7a be 51 c2 9d bf
       -2.415497 -0.48132464 -0.24450886 -1.2324926
000060 14 7c 41 bf c3 c8 24 bf 9e 8e 2a bf 39 08 6e bd
       -0.75579953 -0.6436884 -0.66623867 -0.05811331
000070 0b f3 17 bf 64 fc 30 40 58 9d 84 3f 45 12 c7 3f
       -0.5935523 2.7654047 1.0360518 1.555245
000080 85 a5 86 3f dd 08 8d bf fd a4 8a c0 a1 f5 03 3f
       1.0519263 -1.101833 -4.33264 0.51546675
000090 e0 84 d7 be 12 60 35 bf c0 52 da bf 66 82 01 c0
       -0.42093563 -0.70849717 -1.7056503 -2.023584
0000a0 86 0f c3 40 42 80 88 3f 0b 4d 52 bc af 14 34 3e
       6.095645 1.0664141 -0.012835751 0.17586015
0000b0 67 f1 0c c0 5f 47 b0 bf 7b 2b 17 bf 54 ad a4 3f
       -2.202234 -1.3771781 -0.5905072 1.2865396
0000c0 19 7c 81 40 51 00 18 41 9a 16 45 bf a0 a6 6c bf
       4.0463986 9.500077 -0.7698761 -0.9244175
0000d0 11 3e b8 bf ed 31 1a c0 bb 4e 1d be 6c 7f 87 3f
       -1.4393941 -2.4092972 -0.15362065 1.0585761
0000e0 0d f0 bf bf 30 12 30 bf 22 65 f2 3e 12 68 05 40
       -1.4995133 -0.6877775 0.47342783 2.084477
0000f0 20 e9 0b 3f 84 b6 8c 3e 0c 99 75 3f c0 01 10 40
       0.54652596 0.27482998 0.95936656 2.2501068
000100 42 c7 95 be 28 24 af 3e 96 30 9f 3f 3b 6c e7 bf
       -0.29253584 0.34207273 1.2436702 -1.8079904
000110 a2 30 eb 3f d4 b8 23 bf 85 0d b1 bf 80 36 1b 3f
       1.8374217 -0.639539 -1.3832251 0.60630035
000120 19 b5 fb be 8c 23 13 3f 7d f4 51 bf d1 3f 2a 40
       -0.49161604 0.57476115 -0.82013685 2.660145
000130 3c 43 d1 40 4c dc a7 3e f5 ac b7 3e 12 3f e1 bf
       6.5394573 0.3278526 0.35874143 -1.7597373
000140 d9 d4 c9 3f a1 4a 21 c0 40 15 82 c0 e1 47 5f bf
       1.5768081 -2.52018 -4.065094 -0.87219054
000150 dd 25 97 bf 57 66 a6 3e 50 74 55 c0 05 c6 be 40
       -1.180843 0.32499954 -3.3352242 5.9616723
000160 67 bc 37 bf 48 ed dd c0 b2 ea d4 3f 6e 1f 22 40
       -0.71771854 -6.935215 1.6634123 2.5331683
000170 c0 30 46 3f 20 55 84 c0 b4 22 ec be ab 23 40 3f
       0.77418137 -4.135391 -0.46120226 0.75054425
000180 35 9b 0c 40 0a 91 cc 3e 37 25 ea bf 64 71 a2 3f
       2.196973 0.39954406 -1.8292607 1.2690854
000190 5f ad 64 41 48 9f d4 3f 1b d8 ae bf b9 5e 07 40
       14.292327 1.6611109 -1.36597 2.1151564
0001a0 ce c4 e6 3f 22 b9 71 3f 49 58 dc 3f 32 0d a3 be
       1.802881 0.94423115 1.7214442 -0.31846005
0001b0 60 e0 e7 bf 3a fe 1f be c7 67 d9 bf 25 32 1b 40
       -1.8115349 -0.15624323 -1.6984795 2.4249356
0001c0 5c f5 1a 3f 66 8b a0 bf d6 c8 a1 bf 37 41 8b 40
       0.6053064 -1.2542541 -1.2639415 4.351711
0001d0 03 8c 4a bd d3 59 2a 40 c5 be 10 3e 66 62 6f 3f
       -0.04944993 2.6617324 0.14135273 0.9350952
0001e0 12 e3 dc be 7e ba 13 3d 83 be 84 3f 2f 71 21 3f
       -0.4314199 0.036066525 1.037064 0.6306333
0001f0 8d f4 4d 3e 57 c4 cb c0 5d b0 9d bf fe 08 8b bf
       0.2011282 -6.3677173 -1.2319447 -1.0862119
000200 ed da 00 c0 2c d8 78 bf ee d2 33 3f a5 0e d0 bd
       -2.0133622 -0.9720485 0.7024373 -0.10159043
000210 12 ac 90 bf e9 15 a6 be 8b 6a bf 3e 76 17 ff 3e
       -1.1302512 -0.3243859 0.37385973 0.49822587
000220 2e d2 ba bf 63 76 bb 3f 1f 03 08 c0 2a cc 88 bf
       -1.4595392 1.4645504 -2.1251905 -1.0687306
000230 5f 36 58 3e 27 f3 2b 40 81 a8 12 be 4b 65 67 3f
       0.21114491 2.6867158 -0.14322092 0.90388936
000240 bb 9f 5c bf 0b 16 97 c0 de 30 8b c0 63 21 07 c0
       -0.8618123 -4.721441 -4.349715 -2.1114128
000250 ce 4a 0d c0 86 05 6a bf a6 25 21 41 6e c6 31 bf
       -2.2076907 -0.9141468 10.0716915 -0.69443405
000260 d1 d4 71 3f 53 1d 26 3f bd 0c 19 40 a5 4d 85 40
       0.9446536 0.64888495 2.3914025 4.165728
000270 c7 ce 62 bf a3 20 57 40 af a3 8b be fb 97 c5 bf
       -0.8859677 3.361367 -0.27273318 -1.5437006
000280 f9 23 44 40 6b 62 2d 3e db f5 43 c0 52 26 8a bf
       3.0646956 0.16932075 -3.0618808 -1.0792944
000290 07 78 ac c0 90 e6 95 3f 2a a2 0c bf 89 69 14 3f
       -5.389652 1.1710987 -0.5493494 0.57973534
0002a0 fa 52 13 40 b1 5a 3c bf 88 62 e9 bf 2d 83 80 bf
       2.3019395 -0.73575884 -1.8233194 -1.0040032
0002b0 57 a3 c4 c0 5b cc b2 3d b8 c8 ed bf af be af 3f
       -6.144939 0.08730384 -1.857688 1.3730067
0002c0 2d 97 b8 bf dc 25 81 c0 ba 8b 4f 40 3b d1 df be
       -1.4421135 -4.0358715 3.2429032 -0.43714318
0002d0 03 94 91 3f ec 5a 0b 3f 4b e4 83 c0 33 81 97 3f
       1.1373295 0.5443561 -4.121618 1.1836303
0002e0 70 b1 cd 3f 4d f5 75 41 b2 b1 fe bf a6 6f 83 3f
       1.6069775 15.372388 -1.9897978 1.0268447
0002f0 d8 fc 4e bf 1b 0a 2f 40 e8 36 9e 40 ac f5 26 40
       -0.8085456 2.7349918 4.9442024 2.6087446
000300 c8 ec 9d 3f 1e 9a dd bb 97 b2 f7 bf 54 73 63 41
       1.2337885 -0.006762757 -1.9351376 14.215656
000310 76 11 07 40 ec 1a 0b 40 d1 a5 8a 3f b6 14 b7 bf
       2.1104407 2.1735182 1.0831853 -1.4303195
000320 61 0e 7a 3f 06 7e 35 bf 28 e4 85 bf b5 62 71 3f
       0.9767819 -0.7089542 -1.0460253 0.9429124
000330 4b f7 4a be 15 2e e1 bf c8 54 52 3f 24 82 04 bf
       -0.19820897 -1.7592188 0.82160616 -0.5176108
000340 e7 c9 84 3f 03 8e 0b 40 c5 9f 2e bf 15 e4 50 c0
       1.0374116 2.1805427 -0.6821254 -3.263921
000350 bc 8d 3d c0 b2 8b 11 c0 f5 3b b2 3f 4b 3e 19 3e
       -2.9617758 -2.2741513 1.3924547 0.14965169
000360 2d 66 cf 3f 70 58 90 be c9 e1 b4 bd fd 4d ab 3e
       1.6203057 -0.28192472 -0.088321276 0.33457938
000370 0d b9 5c 40 3b cf a0 bf 26 00 a1 bf 71 ed 1c 40
       3.4487946 -1.2563242 -1.257817 2.4519923
000380 6e bd 1a 40 74 46 41 bf e2 db 6b bf ca fc 03 c0
       2.4178119 -0.7549813 -0.9213239 -2.062304
000390 ef 94 24 3f 94 5c 3f 3f ad c8 fc be b3 df 97 c0
       0.64289755 0.7475064 -0.49371853 -4.746057
0003a0 dc 29 50 bf b9 44 bd 3f 89 2f 59 c0 b9 ac 31 bf
       -0.8131387 1.4786597 -3.3935263 -0.6940418
0003b0 42 a1 42 bf 76 a4 2f c0 6e e9 95 c0 e1 ab 08 3f
       -0.7602731 -2.744413 -4.684745 0.53387266
0003c0 ee a3 6c 40 ca 10 0c be 66 1d 0c 40 c8 d3 bd 3e
       3.6975055 -0.1367828 2.1892943 0.3707564
0003d0 c6 f9 ba 3f 3d fd 9d 40 79 f1 7d 3f be 4b 13 40
       1.4607475 4.937163 0.99196583 2.301498
0003e0 e1 31 25 3f f0 a8 28 40 ca 41 5d be 47 88 26 bf
       0.64529234 2.6353111 -0.21607128 -0.6505169
0003f0 b9 af b9 3e 17 e4 de bf 03 29 46 c0 08 6b 1a bf
       0.36266878 -1.7413357 -3.0962532 -0.60319567
