public_models/Dnn3Layers/178.pth (torch_old, 616467 bytes, 14 tensors)

weight f4 [252, 252]
00000000: f3d0 16c0 5ab2 3641 87ef 68c0 5860 3341
00000010: 9bb1 8f41 a1ec c1be 6c30 3c40 3c80 cc41
00000020: f729 2c40 19b0 aec0 7064 a0c0 c8be b23f
00000030: 98a0 4ec0 f3e2 e73f cbbd ed40 73df d7c0
00000040: cec6 24c0 1863 50c0 648a 8741 6467 84c1
00000050: cc4d 20c0 da74 f9bf 50b4 d23f 8639 4ec0
00000060: d895 c6c0 f534 8941 ac28 ba40 bb7f dcc0
00000070: 1c01 d1bd 8175 fabf 3c3e e5bf c4cb 05c0
00000080: 2341 fa3f 66bc d73e fa86 e840 e637 19be
00000090: 4584 cabf dc34 2d3f 1dd9 26c0 c660 4240
000000a0: edd2 45c0 be09 e640 03f1 0040 24b1 8ac0
000000b0: 8fc1 a83f 6478 733e c912 b8bf 10d9 183f
000000c0: 42bd b23e 8229 a2be 6ed0 55bd 29eb 3a3f
000000d0: 0170 d0bf e341 f83e b8a7 f7be ea36 dcbf
000000e0: 32f0 2a3f 0921 1bbf ec3b db3e 6b68 3b3f
000000f0: 8b5c 2abf 6c8e 803f 7c24 02c1 5e1f a3c1
00000100: a647 90c0 b90c c140 95f1 6fc0 0ced 4c40
00000110: 1c4f 263e eb9f 9fbd d6e2 ecbc 27de 9c3f
00000120: e27f c93e 439a 5ebd f808 0e40 e1a6 9fbf
00000130: 224e 10bf 99db a73f f25d 74bf d2e7 5b3d
00000140: ab00 983f e4da 8fbf db45 b73f 298f 843e
00000150: 473b ac3d 6f5d 263d 0e8e 1dbe 68c5 fc3d
00000160: d7a5 3abf ab13 8d3f f14a 17bf 5cf9 313e
00000170: b2a2 b63e 71d4 d63d 1cac a6be 6f2d a9be
00000180: c187 2f3f f754 c0bf 6289 503e e7db 8f3f
00000190: dec8 01c0 8122 80be b929 223f 536d 43bf
000001a0: f33f 42be 5677 a13e a708 923f 05b6 a8be
000001b0: 92fa 973e 1182 34bd c794 0e3e 90e7 cc3f
000001c0: cca9 a8bf 96e2 be3e 8426 5bbe ab4e 01bf
000001d0: e0ab 0840 3fc2 ecbf 8d93 6fbd e005 84bd
000001e0: 2698 323f 86ed 91be 1c86 6abf d3c8 863f
000001f0: ea54 e4be fb8d 6c3f 830d 253f cf36 06bf
00000200: de24 2840 d2ec 6abf fd03 273f 244d c53f
00000210: d2ac 33bc 2d15 64bf 56d9 423f ecfd 453e
00000220: 8c09 53bf d4ea 993c 97d8 0bbf 1d4f 643f
00000230: b3d0 403f e9b7 7dbf 2628 863f 3879 21bd
00000240: 82e4 c13f 8b0f 983f f85a 23bf a0b4 9b3f
00000250: ce3b 0dbe 7efc 43bf 25d6 1b40 640a 24c0
00000260: dcde 4bbe 60f1 3640 9dc2 36c0 b856 d9bf
00000270: 267e 0ebf 33a0 ab3f cc8f 21c0 8afd 793f
00000280: 926d a53e d084 2bbf aa14 0b40 0092 17c0
00000290: a110 aebf 1e07 0340 877b 16bf 1389 6540
000002a0: 8011 a5bf b43f d93d fc1d b1bf d2cf d2bf
000002b0: 624a 6740 b8f5 79bf 53af ba3f d5e6 b83f
000002c0: 6257 1e3f 239a 1bc0 423f 2940 17d0 d4be
000002d0: 1d57 9e3f 9122 1abf b05f c73f 02b6 a2bf
000002e0: 9dad a23f b152 0e40 86d1 0f3f 0d6e b23f
000002f0: dad3 70c1 4d98 99c0 e338 7b40 e024 f040
00000300: da20 aec0 919c 9540 d2ff b940 ccab ebbf
00000310: 918d 9640 06ad a5c1 bcca 9dc1 138e 5441
00000320: c17c a7bf f8a2 833f e6fa d9bd 16fc 4d3f
00000330: bf28 2ebf ed65 bfbf 58be 8941 43ed eec0
00000340: ee1d 1ebe d4ab b140 013b 6fc0 67f5 7740
00000350: 9694 2041 a6e0 f3c0 779a bac0 e92e 4140
00000360: b2f5 a03f f9ae 0840 cdd0 84c1 6b2f e1bd
00000370: 6e9e 57be 6d6f 14c1 c5dd 9140 b674 de3f
00000380: d0a0 1342 bcfa afc1 1b05 10c2 129e 4b40
00000390: 8109 9c41 65f9 6fc1 7cb9 a241 82ff f340
000003a0: bb90 04c1 c5dc a1bd b438 13c2 0725 99c1
000003b0: a8ea b840 e3d2 72c1 cf8e 7541 7b80 68c0
000003c0: e830 e4c0 1b44 9041 93e9 3fc2 4014 31c2
000003d0: b3fa 8940 5a65 2740 222f 1f41 80f2 11c1
000003e0: df6c 7640 57a5 8441 20ad 03c2 2593 6ac2
000003f0: 9ccb be40 388b 0cc1 5a87 0e41 db01 0f41
-2.3565032 11.418543 -3.6396196 11.211021 17.961721 -0.37875846 2.9404554 25.562614
2.6900613 -5.4589963 -5.0122604 1.3964472 -3.2285519 1.8116134 7.429418 -6.7460265
-2.574634 -3.2560482 16.942574 -16.550484 -2.5047483 -1.9488785 1.6461277 -3.222261
-6.2057915 17.150858 5.817465 -6.890592 -0.1020529 -1.9567109 -1.7909617 -2.0905619
1.9551128 0.42135924 7.2664766 -0.1496273 -1.5821615 0.6765878 -2.6070015 3.0371566
-3.090999 7.188689 2.0147102 -4.3341236 1.3184069 0.23776394 -1.4380733 0.5970621
0.34910017 -0.31672293 -0.052200727 0.73015076 -1.6284181 0.48487768 -0.48370147 -1.7204258
0.6677276 -0.6059728 0.42819154 0.73206204 -0.6654746 1.0043464 -8.133907 -20.390316
-4.508746 6.032803 -3.74912 3.2019682 0.16241115 -0.07794174 -0.028916758 1.2255296
0.3935538 -0.054346334 2.2192974 -1.2472802 -0.5636922 1.3113891 -0.9545585 0.053687878
1.1875204 -1.1238675 1.4318193 0.25890473 0.08409744 0.04061645 -0.15386221 0.1234234
-0.729093 1.1021627 -0.59098727 0.1738028 0.35671002 0.10489739 -0.32553184 -0.33042476
0.6856652 -1.5025929 0.20364907 1.1238984 -2.027885 -0.25026324 0.63344914 -0.7633869
-0.18969707 0.3153636 1.140889 -0.3295137 0.29683357 -0.044069353 0.13923942 1.6008167
-1.3176818 0.37282246 -0.21401411 -0.5051066 2.1354904 -1.8496779 -0.058490325 -0.06446433
0.6976341 -0.28501529 -0.91610885 1.0530037 -0.44596034 0.92404145 0.6447374 -0.5242738
2.6272502 -0.9176761 0.6524046 1.5414166 -0.010966497 -0.8909481 0.7611288 0.19335145
-0.8243644 0.018788733 -0.54627365 0.8918322 0.7531845 -0.9910875 1.0481002 -0.039422244
1.514786 1.1879743 -0.6381068 1.2164497 -0.13792345 -0.7655715 2.4349453 -2.5631342
-0.19909233 2.8584824 -2.8556283 -1.697959 -0.5566124 1.3408264 -2.5244017 0.97652495
0.32310158 -0.6699953 2.1731362 -2.3682861 -1.3598825 2.0473094 -0.5878224 3.5864913
-1.2895966 0.106078535 -1.3837276 -1.6469672 3.613915 -0.9764056 1.4584755 1.4445444
0.61852086 -2.4312828 2.644486 -0.4156501 1.2370335 -0.60208994 1.5576077 -1.2711794
1.2709233 2.223797 0.5617908 1.3939835 -15.051722 -4.7998414 3.925347 7.5045013
-5.44151 4.675362 5.812478 -1.8411803 4.704781 -20.709484 -19.723991 13.284686
-1.3084947 1.0284109 -0.10643558 0.8046278 -0.68030924 -1.495298 17.217941 -7.4664626
-0.15441105 5.552225 -3.7379763 3.8743532 10.036276 -7.621173 -5.8313556 3.0184882
1.257498 2.1356795 -16.601954 -0.109953724 -0.2105653 -9.277204 4.5583215 1.7379367
36.907043 -21.997429 -36.004986 3.1815228 19.50464 -14.998387 20.340569 7.62494
-8.285335 -0.079034366 -36.805374 -19.14308 5.7786446 -15.176486 15.347365 -3.6328418
-7.13097 18.033255 -47.9781 -44.269775 4.311853 2.615561 9.949007 -9.121704
3.850395 16.580732 -32.919067 -58.643696 5.9623547 -8.783989 8.908045 8.937953

bias f4 [252]
00000000: 0a8a b642 7c65 32c3 2d61 31c4 77e5 ddc3
00000010: b6be 03c4 c25d afc3 9325 7cc3 f34e 4cc4
00000020: b342 05c4 ffa8 fec2 fd1c e6c3 fb1e 27c3
00000030: ea5c 4cc4 0d5f 33c4 a13b a0c3 c6ce 18c4
00000040: d941 24c4 9771 94c3 43dd 02c4 b0c9 d3c3
00000050: 5b05 5bc3 da65 32c4 1523 69c3 545d d9c3
00000060: f77d cdc3 6d3b 2bc4 f7bf 2ec4 1395 93c3
00000070: e270 26c4 8161 69c4 736e 3cc4 77a3 b7c2
00000080: 4e64 84c3 99e0 4bc4 a065 2dc4 8304 2cc3
00000090: 3386 15c4 08f7 bac3 6778 e6c3 fc39 99c3
000000a0: efb8 16c4 5e7a 98c3 12a4 72c3 0ef0 1fc4
000000b0: 8694 bcc3 d844 15c3 e139 20c4 8ac4 5cc4
000000c0: cbcb 00c4 0d37 c6c3 cbab 4ec4 640e 45c4
000000d0: 0c43 98c2 e7be a8c3 5414 2ec4 50e4 99c3
000000e0: ca5d acc3 45a8 23c4 6212 28c4 40ee dcc3
000000f0: f273 4ec3 06b9 26c4 7063 55c3 ea61 49c4
00000100: 789c ddc3 e894 18c4 d45f c7c3 36c1 4ac3
00000110: 3d25 adc3 ff58 13c4 a26a 48c4 07eb fcc2
00000120: 38f6 2ec3 3cd8 31c4 a340 87c3 6b4d 95c3
00000130: 145c 60c3 74c9 f9c3 9eeb 6bc4 f8fa 28c4
00000140: 5580 b2c3 4386 61c4 cbf2 fcc3 ac5c 76c3
00000150: 65fc d7c3 53ad 53c3 2894 12c4 fde8 83c3
00000160: 861e 71c4 073c bfc3 0af6 82c3 be9e fdc3
00000170: 073e 93c3 27b3 b9c3 7c2b 62c4 3d6a 8dc2
00000180: 0dc9 5bc4 c3d4 f2c2 6036 38c3 8762 c9c3
00000190: 403c 66c3 69b0 12c4 de42 c2c3 2788 b1c3
000001a0: 10b1 b7c3 954b 4ac4 8ee7 6ec4 1f70 d3c3
000001b0: 2219 cec3 c1a4 6ec3 b193 5842 8895 1cc4
000001c0: 5ca9 96c3 074e f5c3 9f1a b5c3 7a76 b4c3
000001d0: 2dc0 3fc3 05e6 89c2 b7ba a4c3 cf69 51c4
000001e0: e263 6fc3 7af2 9ec3 c01d 31c4 80fd 4cc4
000001f0: 6a90 20c4 36f3 44c3 4b79 b2c3 984c 1cc4
00000200: 8063 c3c3 88d7 58c3 61b6 31c3 f142 58c3
00000210: d1f3 d8c2 57ca e5c3 b361 edc3 93b0 edc3
00000220: e978 0fc4 9276 2dc4 32f9 afc2 5ee4 afc3
00000230: 0501 12c4 215d 8ec3 bf88 73c3 748e 26c4
00000240: 3e9f 1bc3 732f 9cc3 09ba e2c3 8f83 9342
00000250: d504 42c3 1707 59c3 171b d7c3 b7ba 9dc3
00000260: 951f d4c2 b921 99c3 15a9 32c3 6b76 9ec3
00000270: 6315 abc3 8dee 06c4 836b 2cc4 e57a 34c3
00000280: bbe6 4cc3 a5a3 bec3 92ab d4c3 d3c0 d5c3
00000290: 4784 91c3 b259 b6c3 2c22 d0c2 fbcd 94c3
000002a0: cadc 93c3 0e4b c4c3 80fa e5c3 9ff9 a9c3
000002b0: a9fd bdc3 611d 51c4 d748 07c4 10c8 3bc3
000002c0: be84 36c4 615d cac3 088e f6c2 0e77 8bc3
000002d0: 8b2c c8c3 6a61 fcc3 be83 88c3 fc10 a7c3
000002e0: f4d1 b4c3 1614 20c4 fe0d e8c3 d09e 2cc3
000002f0: 1a5a acc2 565e 71c4 b786 1ec4 560b d4c2
00000300: 4f39 8ec3 a915 41c4 1ebf 69c4 f269 99c3
00000310: a6a9 9bc3 3337 a7c3 64a3 90c3 9106 73c4
00000320: 3b33 41c4 337a 92c3 e8bc 61c3 cc4e 56c4
00000330: d813 07c4 e1e0 28c3 b9fe 25c3 f59b 47c4
00000340: a4a4 2ac3 88f5 90c2 6394 aac3 0e79 edc3
00000350: 4882 89c3 3bb2 c2c3 3bad acc2 e3cd aec3
00000360: 1aec cac3 8684 02c4 942c e5c3 2c24 f9c3
00000370: 8c41 aac3 476f 3fc3 62ce 7fc3 6732 2cc4
00000380: 2fe3 05c4 e62a 53c4 9aca c0c2 fed6 24c4
00000390: dc87 a2c3 b9bd 1ac4 87aa e1c3 7d8e 68c3
000003a0: 920a 4dc3 7931 15c4 be39 f1c3 b8d3 8dc3
000003b0: 0a94 5cc4 6760 74c3 2a9b 01c2 ce4f c0c1
000003c0: 9490 19c3 42e1 13c4 ed98 a9c3 72d3 f4c2
000003d0: 908c 4cc4 8f49 9dc3 9685 d8c3 0003 d5c3
000003e0: f0f4 4ec4 74e3 afc3 db92 62c3 179a c0c1
91.26961 -178.39642 -709.5184 -443.7927 -526.97986 -350.73248 -252.14677 -817.2336
-533.0422 -127.33007 -460.22647 -167.12102 -817.4518 -717.48517 -320.46585 -611.23083
-657.0289 -296.88742 -523.4572 -423.57568 -219.02092 -713.59143 -233.13704 -434.72913
-410.9841 -684.9285 -698.99945 -295.16464 -665.7638 -933.5235 -753.72577 -91.81927
-264.78363 -815.50934 -693.5879 -172.01762 -598.09686 -373.92993 -460.94064 -306.453
-602.8896 -304.956 -242.6409 -639.75085 -377.16034 -149.26892 -640.90436 -883.0709
-515.18427 -396.43008 -826.68427 -788.22485 -76.13095 -337.49142 -696.3176 -307.7837
-344.73273 -654.6292 -672.28723 -441.86133 -206.45291 -666.891 -213.38843 -805.5299
-443.2224 -610.32666 -398.74866 -202.75473 -346.29092 -589.39056 -801.66614 -126.45904
-174.96179 -711.37866 -270.50497 -298.60483 -224.35968 -499.57385 -943.6815 -675.9214
-357.0026 -902.09784 -505.89682 -246.362 -431.97183 -211.67705 -586.31494 -263.82022
-964.4769 -382.46896 -261.92218 -507.24017 -294.4846 -371.39963 -904.67944 -70.7075
-879.1414 -121.41555 -184.2124 -402.76974 -230.23535 -586.7564 -388.5224 -355.0637
-367.3833 -809.18097 -955.61804 -422.87595 -412.19635 -238.64357 54.14423 -626.3364
-301.32312 -490.6096 -362.20798 -360.9256 -191.75069 -68.94926 -329.4587 -837.65326
-239.39017 -317.89435 -708.46484 -819.96094 -642.2565 -196.95004 -356.9476 -625.1968
-390.77734 -216.84192 -177.71242 -216.26149 -108.476204 -459.58078 -474.76328 -475.3795
-573.8892 -693.85266 -87.98671 -351.78412 -584.0159 -284.72757 -243.53416 -666.2258
-155.62204 -312.3707 -453.4534 73.75695 -194.01888 -217.0277 -430.21164 -315.4587
-106.06168 -306.26346 -178.66048 -316.92514 -342.16708 -539.72736 -689.6799 -180.48006
-204.90129 -381.27847 -425.3404 -427.50644 -291.03342 -364.70074 -104.06674 -297.60922
-295.7249 -392.58636 -459.95703 -339.95016 -379.98172 -836.45905 -541.1381 -187.7815
-730.0741 -404.72952 -123.277405 -278.9301 -400.348 -504.76105 -273.02924 -334.1327
-361.64026 -640.31384 -464.1093 -172.62036 -86.17598 -965.474 -634.1049 -106.02214
-284.44772 -772.33844 -934.9862 -306.8277 -311.32538 -334.43124 -289.2765 -972.1026
-772.8005 -292.95468 -225.73792 -857.2312 -540.31006 -168.87843 -165.99501 -798.4368
-170.64313 -72.47955 -341.15927 -474.94574 -275.01782 -389.39243 -86.33834 -349.6085
-405.84454 -522.0707 -458.34827 -498.2826 -340.5121 -191.43468 -255.80618 -688.78754
-535.54974 -844.6703 -96.395706 -659.35925 -325.0614 -618.9644 -451.33224 -232.5566
-205.04129 -596.773 -482.4511 -283.65405 -882.3131 -244.37657 -32.401527 -24.038967
-153.56476 -591.51965 -339.19473 -122.41298 -818.1963 -314.57468 -433.04364 -426.02344
-827.82715 -351.77698 -226.57365 -24.07524

weight f4 [252]
00000000: 701a e23f 0749 d93f aefe f33f 55a0 f23f
00000010: c778 0740 62dd 0340 b8c0 eb3f cf7b 1840
00000020: afa3 0a40 ac58 f63f d1dc 0f40 5a17 0240
00000030: 7b16 0a40 73c4 0c40 bcf3 ee3f a2ea 0840
00000040: 927a 1040 8d08 da3f 90c4 e73f e272 fe3f
00000050: 24e8 c73f 651e dd3f dba5 ea3f ca79 e63f
00000060: 557d de3f 9972 ec3f ccf4 0a40 550e e33f
00000070: 1113 1640 cee0 0c40 2667 1f40 e88e 0140
00000080: 31b5 c63f ae95 0940 5d8b 1b40 787d c53f
00000090: e6ea 0740 0a89 0e40 49d1 0440 6efc 0240
000000a0: c534 0540 65d8 f83f 6844 e03f 4415 0c40
000000b0: 0e5d 1b40 578c 0640 3a8e 0d40 bf0c 0b40
000000c0: 2ef5 de3f 67ef cd3f 9a9d ed3f ea84 0a40
000000d0: ef57 d33f 607a 1540 fbb0 0e40 5324 e83f
000000e0: 5c5d d13f a290 0c40 9979 1440 4df5 f53f
000000f0: c49f eb3f 0a47 8740 491c e23f 0cf5 1e40
00000100: fa3a 0b40 e694 ec3f 6a47 0d40 a979 e53f
00000110: 517d e73f e92b 0240 c1ac e13f ccf8 3a40
00000120: b3e7 fb3f d12e 1540 62bc f73f 1268 e43f
00000130: 746c fe3f 1665 d93f 650c ca3f 4e0f 0b40
00000140: 477e 0840 930e 5240 2137 d73f 2764 df3f
00000150: a437 f23f a145 0a40 3f28 1440 96cd 1640
00000160: 0ebf d83f 03aa f73f 3ea2 0440 144e 0540
00000170: 8cdb f83f f21a d93f 63ab 1840 adcf f13f
00000180: 506b 2040 92f7 fa3f d633 e33f 68b0 f03f
00000190: f4b8 ce3f 2dad eb3f 859b fb3f 7051 0840
000001a0: ba58 f53f 087b eb3f 2927 f53f b5e5 e23f
000001b0: c3aa f13f a337 0a40 2601 db3f 070e cd3f
000001c0: fe0c e73f 55e3 da3f 02bd ea3f ac51 ff3f
000001d0: 2c4d da3f b665 d43f 8b1b f33f e671 1d40
000001e0: 3884 e33f e69b ee3f ff37 1240 80b6 1740
000001f0: 1124 1340 9352 0240 e0ee f73f bd37 f73f
00000200: 1833 fa3f b1b0 e53f 5c71 0640 7d74 0740
00000210: 24ec f73f 83db f93f 49dc 0040 098c e93f
00000220: fb5e f93f 64d9 dd3f 9905 c33f 124e 4440
00000230: 77ae 1440 a3a3 1b40 d078 f83f 917f 1140
00000240: 0e34 0140 25ca eb3f 8200 ec3f c780 e63f
00000250: d5d7 e83f 1890 0540 2336 eb3f fb4b ed3f
00000260: 537d f83f a908 d03f 8a50 0640 9e3e 0040
00000270: f4a9 e73f b195 f13f 6065 0040 a56f f53f
00000280: bed4 f13f 5b7d fa3f a604 f13f 5220 f53f
00000290: aa08 e53f f3bd f53f 0145 e83f 7cf9 0340
000002a0: bf24 1540 0eac 0040 015b 0440 63e4 0940
000002b0: 4015 ed3f 02b6 0140 32cb f73f ddda f33f
000002c0: 3859 fb3f 6793 fe3f cb0b 2840 9fc9 0b40
000002d0: 1ec1 0140 25f5 f13f f9c0 ed3f fd81 ed3f
000002e0: 1977 e63f 8ade 0540 084e 0240 f178 f73f
000002f0: 8678 e53f f938 f93f 6073 f33f 0936 da3f
00000300: 91c7 dd3f 329d 0f40 9b9a 6d40 131a e83f
00000310: 05f6 d6bf 573f e53f 2eca 0840 7cf5 fe3f
00000320: 5676 f93f 0ceb e83f 40fc ff3f f8ea 1440
00000330: ae13 d13f 20b9 ee3f 0012 ee3f 740c 0d40
00000340: ec15 2540 fdb2 d43f 1880 ce3f da23 1a40
00000350: efa6 dd3f 9c4d e73f fcf9 0840 d330 1c40
00000360: 9a07 0240 ed77 1640 a70a f23f 6d2b f63f
00000370: 3041 0940 2d55 0140 c2c6 fc3f c199 ed3f
00000380: 10e7 e53f 3117 2940 b8c8 f23f 9e75 6b40
00000390: 17eb 0140 c977 1740 61e2 0c40 2960 1240
000003a0: ceaa d63f 1ea9 1c40 8047 0b40 d934 d23f
000003b0: 3eff 0640 8037 2440 baf7 0140 f3db 0040
000003c0: d674 f53f 04ec 0940 91ba 0b40 261b dd3f
000003d0: 9f77 1a40 b1c7 f03f 861a 0340 53d4 0840
000003e0: e9e3 0640 8886 0240 4c67 0f40 eafb e13f
1.7664318 1.6975411 1.9062097 1.895518 2.1167467 2.0603871 1.8418188 2.3825567
2.1662405 1.924581 2.2478526 2.0326753 2.157622 2.1994903 1.8668132 2.1393209
2.257481 1.703386 1.8106861 1.987881 1.5617719 1.7274901 1.8331865 1.8005917
1.7381998 1.8472472 2.1711912 1.7738749 2.3449137 2.201221 2.4906707 2.0243473
1.5524045 2.1497607 2.430381 1.5428915 2.123712 2.2271142 2.0752738 2.046657
2.0813458 1.9441038 1.7520876 2.188798 2.4275546 2.1023157 2.2118058 2.172653
1.7418573 1.6088685 1.8563721 2.1643624 1.651121 2.3355942 2.229552 1.8136085
1.6356616 2.1963277 2.3199217 1.9215485 1.8408132 4.2274218 1.7664882 2.4837065
2.1754746 1.848294 2.2074838 1.7927753 1.8085119 2.03393 1.7630845 2.9214354
1.9680084 2.3309824 1.9354365 1.784426 1.9876847 1.6983974 1.5785033 2.1728091
2.1327074 3.2821395 1.6813699 1.7452439 1.892323 2.1604998 2.3149564 2.356298
1.6933305 1.9348758 2.0724025 2.0828905 1.9442 1.6961348 2.3854606 1.8891503
2.5065498 1.9606802 1.7750194 1.8803835 1.6150193 1.8412224 1.9656836 2.1299706
1.9167702 1.8396921 1.9152576 1.7726351 1.8880237 2.1596458 1.7109725 1.6019906
1.805084 1.7100626 1.8338931 1.9946799 1.7054801 1.659354 1.899278 2.4600768
1.7774725 1.8641326 2.2846677 2.370514 2.2990763 2.03629 1.9369774 1.9313885
1.9546843 1.7944547 2.100669 2.1164849 1.9368939 1.9520115 2.0134451 1.824586
1.9482111 1.7331967 1.5236083 3.067265 2.3231485 2.4318626 1.9411869 2.273411
2.0188022 1.8421065 1.8437655 1.800805 1.8190867 2.0869198 1.8375896 1.8538812
1.9413246 1.6252643 2.0986657 2.0038218 1.809874 1.8873807 2.0061874 1.9174696
1.8893049 1.9569505 1.8829544 1.9150488 1.7893269 1.9198593 1.8146058 2.0621023
2.3303678 2.0105014 2.0680544 2.1545646 1.852211 2.0267339 1.9358885 1.9051167
1.9636602 1.9888734 2.6257198 2.184181 2.027412 1.8902937 1.8574516 1.8555294
1.8005096 2.0917077 2.0360126 1.9333783 1.7927406 1.9470512 1.9019585 1.704774
1.7326528 2.2439694 3.7125614 1.8132957 -1.6793829 1.7909955 2.13734 1.9918666
1.9489238 1.8196731 1.9998856 2.3268414 1.6334131 1.8650246 1.8599243 2.203885
2.579463 1.6617123 1.6132841 2.4084382 1.7316569 1.807056 2.1402578 2.44048
2.031714 2.3510697 1.8909501 1.9232002 2.1446037 2.0208237 1.9748156 1.8562547
1.796114 2.6420405 1.8967505 3.6790538 2.0299737 2.366686 2.201317 2.2871192
1.6770875 2.447822 2.176239 1.6422378 2.1093287 2.5658875 2.030745 2.0134246
1.917628 2.1550303 2.183262 1.727391 2.413551 1.8810941 2.0484939 2.1379592
2.1076605 2.0394611 2.2406797 1.7655003

bias f4 [252]
00000000: 46f8 f23d abb2 303e 86b5 b0be d116 773e
00000010: fee8 763e e491 403f b92c cb3e d994 abbf
00000020: a17b 86bf 776f 0ebe 98db 283f e666 473f
00000030: 8941 8fbf 3f89 aabf 79fb 993e abc8 413f
00000040: f8a2 40bf f909 d33d d6cc 84be 95e5 063f
00000050: 4c7b 64be ecea 4abc e9d7 423e d85f b63e
00000060: 0ac6 1d3e a608 083e 5176 f4be bc4b d03e
00000070: 3324 95bf 74a4 b5bf be0c 33bf a033 ee3e
00000080: 2c1c dabd 8dc4 39bf 607e adbf d6fe a73b
00000090: 6d82 7fbf 5215 6d3f f881 ee3e 8561 173f
000000a0: 8a6f 6f3e 4c8f f03e 9383 d43e 475e 6bbf
000000b0: 018d 673f 4fb5 253f d673 8ebf 9c0c aebd
000000c0: 6d63 dfbd 02ba 5abd ed3b 01bf 03a3 cdbd
000000d0: ca73 4f3e 16bf 8e3f 9613 33bf bd7d e43e
000000e0: 0945 213e ebbf 12bf c944 b5bf 78c1 9ebd
000000f0: 20fc 983e 6a0a c53f 31eb 1b3e 4b54 8dbf
00000100: 02be 343f c1e1 22be b9c2 513f 61cb a23e
00000110: 2bc9 f83e c1b8 113f 94f3 a1bd ec20 813f
00000120: c480 7c3e aca2 92bf 6030 be3e dd77 fc3c
00000130: 6507 cc3e 2aaa f1bd f506 99be c29c 82be
00000140: d92e 113f d33a 823f af76 17bf 782f b13e
00000150: 120b e03e 7ce4 643f b70b d9be 4637 913f
00000160: 61cc aebe fe68 483e 845a 5e3f 504f 563e
00000170: b493 0e3f c6de 363e 227d bbbf 215b f43e
00000180: 22f9 c9bf 7c42 be3e 0676 923e 9f5e bcbd
00000190: 6f78 63bd 266b 0d3e c11c fd3e 7b6c 123f
000001a0: 63d0 a23e 40ea 1ebe 7002 e53d 2b56 e6bb
000001b0: c8df 473e 4a1a 033f 0e79 a23d 9f20 123e
000001c0: 6e77 b73e 4271 23bd 107c 1f3e eaea 7b3e
000001d0: f1b0 1dbd 4c28 413e 75bb 083f 3d29 7abf
000001e0: 896a 9e3e d05f 1e3e 063b 8fbf 431c a4bf
000001f0: eda7 1ebf d071 b73e 7038 ba3d 4611 79be
00000200: 706d 6e3e 139c da3e 2f61 253f 2449 183f
00000210: b959 b23e 24a0 223d d54e 78be a41f 833d
00000220: 619d 8b3e 19b4 d0be 9fe1 66bc 2739 983f
00000230: 4acf 363f dbf7 813f 50db 033f 2b36 83bf
00000240: ae41 dd3e 6f45 13bc 8ca9 cc3d ab83 8a3e
00000250: cd51 df3e 4903 183f 66fd 553e cce5 713e
00000260: eeea 0c3f d8c6 8e3e e9a6 dc3e 16d9 1b3e
00000270: 2f7a ce3d 1263 fe3e aeed 41bf 12e3 853e
00000280: 7e12 ae3e a380 eebc b7d0 cb3e 2f50 9e3e
00000290: ac7b 643e 018a 203e 9f56 063f c933 593f
000002a0: 8883 613f 9d6b c53e 7da9 963e 8790 3d3f
000002b0: b416 193e ecfd 973e d6fc 69be d3e3 dc3d
000002c0: f526 89bf bc7e 733e 0849 a83f d2ff 233f
000002d0: 63d7 c43e 126b cb3e 0bbf 383f 3ec3 193e
000002e0: 56f5 9c3e 87e7 84bc b8df 193f 4e29 0b3f
000002f0: e812 fc3d 7efe 273c 15d0 adbc 9ae7 d03e
00000300: 6f15 723e 36e6 abbf fb8d 8d3f 377f e33e
00000310: c69c c9bd e431 8d3e 2cd6 223f 7f6b 2bbd
00000320: ce39 403e dfaf 8b3e afa4 a53e bfeb cfbf
00000330: 2b26 9fbd 01c2 8fbe d5c6 2f3e 0ed3 83bf
00000340: c4f0 8b3f 6f7e 6b3d 3fa7 113d eb51 373f
00000350: d15f d23d 3d05 84bc 4bb1 fd3e 9b3f 2d3f
00000360: 37c1 113f 9b34 a1bf e762 253f 5fdc d53d
00000370: db06 283f e444 383f be1d e93e 4d5f 1bbe
00000380: 025e d4bd 5aff a1bf 531d c13e 09b5 a83f
00000390: 551b 833c fe7e 2f3f 37d3 dd3e 4030 8d3f
000003a0: b689 2bbc 7b8b 6abf 9b6a d33e 62fb 393e
000003b0: ee43 7cbf 41a9 9a3f 41d2 bd3e 8cae 5f3e
000003c0: 946e 723e a39e 32bf 3e16 7d3f 89f1 203e
000003d0: e8e0 b1bf 2c50 f13e 30d1 253f 7b0e 333f
000003e0: 6d82 bcbf d547 073e 12fe 583f a41a aa3d
0.11863761 0.17255656 -0.3451349 0.24129798 0.24112317 0.7522261 0.39682558 -1.34048
-1.0506479 -0.13909708 0.65960073 0.77891386 -1.1191875 -1.3323134 0.3007467 0.7569682
-0.7524867 0.103046365 -0.25937527 0.52694064 -0.22312659 -0.012385111 0.19027676 0.35619998
0.15407577 0.13284549 -0.47746518 0.4068278 -1.1651672 -1.4190812 -0.6994132 0.46523762
-0.106499046 -0.7256554 -1.3554192 0.0051268144 -0.9980839 0.9261066 0.46583533 0.5913318
0.23382393 0.46984327 0.41506633 -0.9194073 0.9044953 0.6472978 -1.11291 -0.08498499
-0.10907636 -0.053400047 -0.50482064 -0.10040858 0.20259014 1.1152065 -0.6995176 0.4462718
0.15748991 -0.57324094 -1.4161617 -0.07751745 0.29879856 1.5393803 0.15226437 -1.1041349
0.7060243 -0.15906431 0.8193775 0.3179579 0.4859098 0.5692254 -0.07907787 1.0088172
0.24658495 -1.1455894 0.37146282 0.030818874 0.39849392 -0.11800034 -0.2988812 -0.25510222
0.5671211 1.0174202 -0.5916547 0.34606528 0.43758446 0.8941114 -0.4239175 1.1344993
-0.34140304 0.19571301 0.86856866 0.20928693 0.5569413 0.17858419 -1.4647563 0.47725776
-1.5779154 0.371601 0.2860567 -0.09197735 -0.055534776 0.13810405 0.49436 0.5719678
0.3179961 -0.15519047 0.111821055 -0.007029315 0.1951896 0.5121199 0.079332456 0.14270256
0.35833305 -0.039902933 0.1557467 0.24601331 -0.038498823 0.18863028 0.53411037 -0.97719175
0.30940655 0.15466237 -1.1189888 -1.2821125 -0.61974984 0.3582902 0.09092796 -0.24322996
0.23283935 0.426972 0.64601415 0.59486604 0.34834078 0.039703503 -0.24248822 0.06402519
0.27268508 -0.40762404 -0.014091878 1.1892442 0.7141005 1.0153764 0.5150652 -1.0250906
0.43214172 -0.008988722 0.09993276 0.2705358 0.43617097 0.5938001 0.20897445 0.23622817
0.55045974 0.2788608 0.43096092 0.1521953 0.100818984 0.4968496 -0.75753295 0.26149803
0.33998483 -0.029114073 0.39807674 0.3092055 0.22312802 0.15677644 0.52475923 0.8484464
0.88091326 0.38558665 0.29426184 0.74048656 0.14950067 0.29685915 -0.22850356 0.107856415
-1.0715014 0.23778814 1.3147287 0.64062226 0.38445577 0.39730126 0.7216651 0.15015885
0.30655926 -0.016223682 0.6010699 0.543599 0.123082936 0.010253547 -0.021217385 0.40801698
0.23640989 -1.342963 1.1058954 0.44432995 -0.09844355 0.27577126 0.6360805 -0.041850563
0.1877205 0.27282616 0.32352206 -1.6243819 -0.07770952 -0.280777 0.17165692 -1.0298784
1.0932851 0.057493623 0.03555989 0.7160937 0.10272182 -0.016115779 0.49549326 0.6767518
0.5693545 -1.2594179 0.6460404 0.10442423 0.6563546 0.7198012 0.45530504 -0.15173073
-0.10369493 -1.2656052 0.37717685 1.3180248 0.016004244 0.6855315 0.43325207 1.103035
-0.010469845 -0.9161908 0.4129227 0.18162301 -0.9854115 1.2082902 0.37074474 0.21843928
0.23674995 -0.6977331 0.98862064 0.15717138 -1.3896761 0.4713148 0.6477232 0.6994397
-1.4727303 0.13210995 0.8476268 0.083058625

running_mean f4 [252]
00000000: 3de0 0e47 3c94 e246 1de7 b147 fa05 3247
00000010: f053 ea46 4101 3547 60bf 0c47 dcfa 4147
00000020: 6247 6247 7e24 c846 0e14 7047 64a5 9e46
00000030: 5bd3 0b48 226f 6e47 1d14 5b47 9cdf 4147
00000040: 27cf a946 7a51 7c46 e817 0a47 7a24 0b47
00000050: d5c6 aa46 faba 1147 48b7 8946 f9ce 1e47
00000060: b889 d446 f686 aa46 d130 bc47 448c d246
00000070: 6272 7347 900c ea47 6ea5 1547 461f ae46
00000080: c48a 7446 f69b b247 cc50 a547 83c8 8746
00000090: d35c c947 74cf 0047 fac0 1747 de2b b846
000000a0: fca8 8347 c4b4 d646 8f1e 0147 4ee4 e746
000000b0: 9c0d 1047 1332 a046 d3d7 2947 6918 6b46
000000c0: 9222 8146 2458 cd46 7b0c 2746 b2a4 4846
000000d0: b349 a546 ba93 5147 4136 e546 74ec b246
000000e0: 2d35 8b46 a75d a447 226d f047 3798 5e46
000000f0: 827d 2a47 1277 ee46 7aa3 c446 6c07 1f48
00000100: 5bcc 8246 82d0 ba46 af94 5747 fdbe 8946
00000110: e1f6 ac46 8867 d646 e273 4f47 c661 bb46
00000120: 10a5 9b46 912d 1748 65b7 e046 5e16 2447
00000130: a672 4c47 50ab e346 fcc3 4446 a620 7147
00000140: 725e 4247 fa1e 0547 6dd9 b846 ed76 e846
00000150: 650e dd46 baae e746 460e 1a47 60d0 0d47
00000160: ac2e 6e46 a6b8 3647 e73c 2247 2d48 6947
00000170: 7a6e 2147 adcc d946 07da d247 3482 ee46
00000180: 6593 ff47 d7c8 1647 9100 ed46 00c2 8d47
00000190: b8aa 0147 e4d9 3e47 c292 b046 c8a0 b446
000001a0: 52da 1f47 4ba6 bb46 3395 8f47 70ca e146
000001b0: 64db 7a47 1bf9 5f46 a5d7 0d47 b735 f346
000001c0: e528 e246 bf00 8a46 d7b0 3e47 bc9c 7847
000001d0: 41b8 c546 a104 c346 aeb9 0a47 705d af46
000001e0: 687c f346 8b19 0247 dff1 f747 1473 2a48
000001f0: a14f ab46 bcce 1847 a014 3f47 3e46 e346
00000200: 7095 7347 1b30 a546 70e2 c946 8329 1547
00000210: 2fbd d246 c5fc cd46 67de a347 fcb8 5f47
00000220: ad6e 2347 4ffe 0747 4c50 bf46 5e4f a446
00000230: 9631 8746 84e9 3047 3d47 0047 10c9 0348
00000240: faab 3047 5414 1747 f836 4047 3c36 fa46
00000250: 74d3 d546 2155 2847 7683 0947 5494 4147
00000260: 5484 fc46 387b d046 53b8 2847 8147 f046
00000270: a207 3147 0616 2c47 f0f1 b447 c20f 0c47
00000280: ec00 3047 190a 9b46 b9eb 1147 5bc0 f946
00000290: 33ae 2747 9876 6d47 d2b3 c046 5500 0047
000002a0: 5df5 0647 d271 5846 ae37 9d46 0136 3d47
000002b0: 796e 1247 535c 0547 35da 9146 fcc1 5147
000002c0: 7311 d946 1e68 5247 3d58 0147 e8b7 3547
000002d0: 37b9 3847 c54c ea46 0dc1 6846 20f2 db46
000002e0: 7a85 c046 4f7a 1f47 b36d 9846 0c81 2a47
000002f0: 7595 d646 9bf8 7e46 62b5 4047 6824 eb46
00000300: 48b1 0847 d621 b247 4f5d e446 718a ea46
00000310: 38f4 b546 f4fb 9946 990b 3347 4c00 8846
00000320: be85 3847 1cab be46 7d25 ca46 168a e147
00000330: a337 4d46 7d85 be46 814b 0047 95a7 d947
00000340: 9afb de46 d2ea 7546 8493 cf46 de6f 8a46
00000350: 2355 1247 404a 3c47 e43f 9946 6c62 6146
00000360: baa4 1e47 d721 d446 a06a 1f47 4c85 8547
00000370: 155c 5847 be56 e346 83d3 1047 2da8 9f47
00000380: e3a6 6847 529c b146 7972 c246 820d 0647
00000390: 484f 8347 3b90 4b46 8d93 0b47 7b50 6947
000003a0: 07ec 8246 4ad0 0d48 4062 d046 dac0 0947
000003b0: fe84 0a48 3371 1047 9e08 b446 1ee3 6a47
000003c0: 2f9d f546 79dd fb47 5d90 1447 d4fe d946
000003d0: 0c06 3048 bde9 3447 45bf 1747 1cff 7147
000003e0: 17bd 0048 29cd 2347 38ef 2e47 08ff e646
36576.24 29002.117 91086.23 45573.977 29993.969 46337.254 36031.375 49658.86
57927.383 25618.246 61460.055 20306.695 143181.42 61039.133 56084.113 49631.61
21735.576 16148.369 35351.906 35620.477 21859.416 37306.977 17627.64 40654.973
27204.86 21827.48 96353.63 26950.133 62322.383 119833.125 38309.43 22287.637
15650.691 91447.92 84641.59 17380.256 103097.65 32975.453 38848.977 23573.934
67409.97 27482.383 33054.56 29682.152 36877.61 20505.037 43479.824 15046.103
16529.285 26284.07 10691.12 12841.174 21156.85 53651.727 29339.127 22902.227
17818.588 84155.305 123098.266 14246.054 43645.508 30523.535 25169.738 162845.69
16742.178 23912.254 55188.684 17631.494 22139.44 27443.766 53107.883 23984.887
19922.531 154806.27 28763.697 42006.367 52338.65 29141.656 12592.996 61728.65
49758.445 34078.977 23660.713 29755.463 28295.197 29655.363 39438.273 36304.375
15243.668 46776.65 41532.902 59720.176 41326.477 27878.338 107956.055 30529.102
130854.79 38600.84 30336.283 72580.0 33194.72 48857.89 22601.379 23120.39
40922.32 24019.146 73514.4 28901.219 64219.39 14334.276 36311.645 31130.857
28948.447 17664.373 48816.84 63644.734 25308.127 24962.314 35513.68 22446.719
31166.203 33305.543 126947.74 174540.31 21927.814 39118.734 48916.625 29091.121
62357.438 21144.053 25841.219 38185.51 26974.592 26366.385 83900.805 57272.984
41838.676 34814.31 24488.148 21031.684 17304.793 45289.516 32839.24 134948.25
45227.977 38676.33 49206.97 32027.117 27369.727 43093.13 35203.46 49556.33
32322.164 26685.61 43192.324 30755.752 45319.633 44054.023 92643.875 35855.758
45056.92 19845.049 37355.723 31968.178 42926.2 60790.594 24665.91 32768.332
34549.363 13852.455 20123.84 48438.004 37486.473 34140.324 18669.104 53697.984
27784.725 53864.117 33112.24 46519.906 47289.215 29990.385 14896.263 28153.062
24642.738 40826.31 19510.85 43649.047 27466.729 16318.151 49333.383 30098.203
34993.28 91203.67 29230.654 30021.22 23290.11 19709.977 45835.598 17408.148
47237.742 24405.555 25874.744 115476.17 13133.909 24386.744 32843.504 111439.164
28541.8 15738.705 26569.758 17719.934 37461.137 48202.25 19615.945 14424.605
40612.727 27152.92 40810.625 68362.59 55388.082 29099.371 37075.51 81744.35
59558.887 22734.16 24889.236 34317.508 67230.56 13028.058 35731.55 59728.48
16758.014 145217.16 26673.125 35264.85 141843.97 36977.2 23044.309 60131.117
31438.592 128954.945 38032.363 27903.414 180248.19 46313.74 38847.27 61951.11
131828.36 41933.16 44783.22 29567.516

running_var f4 [252]
00000000: 53a8 884e 2e4b 644e c325 464f e3da 924e
00000010: 11d1 144e 395e 154f 72c2 db4e c771 834e
00000020: eef0 d84e c713 194e 871d 2d4f 1a5f ad4e
00000030: de45 e24f 7ff8 c94e 7569 064f d87c 734f
00000040: 9ffd 634d 9ecb 2b4d 562c 604e a0aa d44e
00000050: 86d0 5f4e 041a 324e d1b9 c24d ff08 014f
00000060: 4beb 4d4e 9bac a14d e4ea 604f b082 944e
00000070: 239c da4e 8016 bc4f afa6 2f4e 8217 8c4e
00000080: ca2d 1e4d 5556 374f c9bb 444f 4dd8 d94d
00000090: 3a43 954f e0db ee4e b744 b24e f4f2 8c4e
000000a0: 2db4 2c4f c551 454e ce43 c44e a1cf cb4d
000000b0: e7f1 064f e379 cb4e 13fe 614e cdea c14c
000000c0: e4ad 154d 37e7 174e 0bc2 7a4c 9783 604c
000000d0: 1aea 024e 6e67 814f bbe1 ae4d d2e9 4e4e
000000e0: c344 274e fd6e 2f4f 8c79 d14f 3f97 964c
000000f0: 8d54 cc4e bea4 b24f a88c 3d4e 592b 0150
00000100: 3184 854e 93ce b24d 9bd5 4d4f 33c2 084e
00000110: ca08 1a4e 2b59 3e4e ee75 ac4e c234 324f
00000120: d634 0a4e be9c 0250 ffa8 a84e 5c9e 9d4e
00000130: 4e17 fb4e 2151 874e 6a21 e34c 3a2b c14e
00000140: 4652 224f 408d d64f b77c 1b4e db87 b34e
00000150: dc4d fb4e 9728 af4e 3acc 714e ae35 2b4f
00000160: 6e4d 3c4d eb1b c44e 8980 014f c22e 574f
00000170: f969 084f 0275 224e 4a9b 964f 672f ab4e
00000180: 2733 d94f 6414 d44e 79b0 cf4e a2dc 024f
00000190: 5cf5 5c4e bfe9 b74e 742c 8d4e 67fb 324f
000001a0: c11b 004f 7ac8 9f4d 0235 0f4f 168b 0f4e
000001b0: 2f07 144f 417c a24e 616b bf4e e2f7 304e
000001c0: dcdc f34e 5cc4 6a4d 9a26 834e 17b3 164f
000001d0: 87eb 514e f881 594e 029a 034f 9e37 414d
000001e0: e981 c24e 0bce aa4e 3ce9 b74f aa65 2950
000001f0: a605 3f4d 48cb 0a4f 0733 c24e 86e3 0f4e
00000200: 463a f64e 28d8 864e 9098 cf4e 5f21 004f
00000210: 4155 8f4e fd99 de4d 9703 364f 308f d54e
00000220: 8b57 bc4e 5122 7c4e 839e ef4d 6218 074f
00000230: 3b3d 8c4e 1ee5 4c4f 273a f24e 193b ab4f
00000240: 2581 ba4e 032a 984e 5179 034f 174a 844e
00000250: da42 914e a878 c24e 9649 d34e 89ba 104f
00000260: 02e4 084f 0a3e 504e 35f3 f04e 44d2 574e
00000270: a459 a54e 6591 234f c3e3 3d4f 8bad ae4e
00000280: 954c fa4e f4ad fc4d 5e2a d14e 62cd 7f4e
00000290: 59e2 a74e 3d5a 104f 09f3 a04e 5333 f94e
000002a0: 4304 dd4e e3e9 0b4e 377a 2b4e 56d9 4c4f
000002b0: 2239 d04e f2a1 7a4e 9b76 704d c644 0b4f
000002c0: 9e90 094e 4b2a 074f 5731 0c4f e3d8 084f
000002d0: 3170 dd4e 7614 544e d040 154e ca9d 3f4e
000002e0: 1410 5a4e 1445 9b4e 3199 f34d dae7 084f
000002f0: d7af 3b4e a06e 044d ce00 c24e 6cce b44e
00000300: 68f8 a74e d29a 6d4f 0063 a04f 8b25 ae4e
00000310: bb1b 124e 85f3 014e 90c6 5b4f cec5 0f4d
00000320: 3e49 b14e 257a 2f4e 0f4a 674e 1a39 b44f
00000330: c248 184d 98a4 ff4d aef6 d34e 624b a94f
00000340: 70ee 9e4e d149 f84d 0098 804e 10d5 d84d
00000350: ea01 664e 1d57 bc4e 0dad 434e 5238 9c4e
00000360: e351 114f e35f 904d 2910 114f a8af f54e
00000370: c28b 404f f82e 004f 823d 324f 6128 2b4f
00000380: f195 a44e 73b7 564d 4aeb 804e 74e9 c94f
00000390: 5d99 f24e ff9d e74d b17d 724f 9996 974f
000003a0: e938 664d ae24 ea4f b1b8 874e e526 cd4e
000003b0: a140 ee4f 74f9 fa4e 14fe 754e 70cc 1c4f
000003c0: 5440 e74e f21f bf4f bd97 434f 0bb9 9a4e
000003d0: b5a2 2550 1f96 024f b37f 134f d0d1 484f
000003e0: 0db8 e64f 5985 9e4e e62b 154f 7e39 5b4e
1.1463663e+09 9.5753306e+08 3.3243635e+09 1.2319092e+09 6.2418234e+08 2.5059802e+09 1.8434767e+09 1.1026359e+09
1.8198341e+09 6.4205254e+08 2.9043935e+09 1.4543455e+09 7.5924593e+09 1.6942529e+09 2.2550582e+09 4.0850452e+09
2.3906558e+08 1.8014051e+08 9.402505e+08 1.783976e+09 9.3874624e+08 7.4701235e+08 4.083697e+08 2.1648504e+09
8.6368736e+08 3.3905546e+08 3.7734902e+09 1.2457964e+09 1.8338328e+09 6.3111823e+09 7.3673414e+08 1.1751754e+09
1.6586256e+08 3.0758884e+09 3.300641e+09 4.5685392e+08 5.008422e+09 2.0036936e+09 1.4954239e+09 1.1823662e+09
2.8974892e+09 8.276176e+08 1.646389e+09 4.2742275e+08 2.2640003e+09 1.7068814e+09 9.4788115e+08 1.01668456e+08
1.5695008e+08 6.371281e+08 6.57347e+07 5.8855004e+07 5.4909504e+08 4.3420785e+09 3.6675363e+08 8.6785754e+08
7.0157536e+08 2.9432865e+09 7.0288077e+09 7.895295e+07 1.7140466e+09 5.994282e+09 7.95028e+08 8.668407e+09
1.1200165e+09 3.749853e+08 3.4533281e+09 5.736071e+08 6.460668e+08 7.983787e+08 1.4467049e+09 2.989802e+09
5.796796e+08 8.765241e+09 1.4148238e+09 1.3222006e+09 2.1063043e+09 1.1351205e+09 1.1908181e+08 1.6204178e+09
2.7233009e+09 7.1991624e+09 6.5216045e+08 1.5060125e+09 2.1080919e+09 1.4693364e+09 1.0141733e+09 2.872422e+09
1.9744944e+08 1.645082e+09 2.1726845e+09 3.6101658e+09 2.2886464e+09 6.813943e+08 5.053519e+09 1.4360052e+09
7.2880164e+09 1.779053e+09 1.7422245e+09 2.1954975e+09 9.2676685e+08 1.5427747e+09 1.1842504e+09 3.0028204e+09
2.1493025e+09 3.3508947e+08 2.4026158e+09 6.0206426e+08 2.4834988e+09 1.363026e+09 1.6057427e+09 7.422588e+08
2.0456689e+09 2.4617107e+08 1.1001725e+09 2.5283192e+09 8.804684e+08 9.122934e+08 2.2079084e+09 2.0260298e+08
1.6316468e+09 1.432815e+09 6.1710316e+09 1.1368049e+10 2.0030115e+08 2.328578e+09 1.629062e+09 6.035132e+08
2.0655071e+09 1.1311565e+09 1.741441e+09 2.1496707e+09 1.2023645e+09 4.6682922e+08 3.0536886e+09 1.7914655e+09
1.5799269e+09 1.05752685e+09 5.0251786e+08 2.266522e+09 1.1764115e+09 3.4375675e+09 2.0319487e+09 5.745554e+09
1.5645129e+09 1.276445e+09 2.205766e+09 1.109724e+09 1.2185388e+09 1.6313436e+09 1.7724076e+09 2.4281439e+09
2.296644e+09 8.734317e+08 2.0212353e+09 9.0522035e+08 1.3870577e+09 2.7442148e+09 3.1858204e+09 1.4653044e+09
2.0996614e+09 5.2990733e+08 1.7546074e+09 1.0729125e+09 1.4083145e+09 2.421833e+09 1.350141e+09 2.0904452e+09
1.854022e+09 5.8684026e+08 7.1922835e+08 3.4367954e+09 1.7467026e+09 1.0512293e+09 2.5214405e+08 2.3365402e+09
5.7698906e+08 2.2676959e+09 2.3520438e+09 2.2959153e+09 1.8575587e+09 8.895277e+08 6.260132e+08 8.036973e+08
9.146217e+08 1.3024978e+09 5.1086288e+08 2.296896e+09 7.872158e+08 1.3886515e+08 1.6274163e+09 1.5167135e+09
1.4090373e+09 3.9863465e+09 5.381685e+09 1.460848e+09 6.128227e+08 5.4505504e+08 3.6872233e+09 1.5075658e+08
1.4871836e+09 7.360044e+08 9.700976e+08 6.047282e+09 1.5968157e+08 5.361221e+08 1.7780795e+09 5.6805796e+09
1.3332132e+09 5.206984e+08 1.0787226e+09 4.5473024e+08 9.647213e+08 1.5799128e+09 8.2072454e+08 1.3104684e+09
2.4380628e+09 3.027754e+08 2.4337554e+09 2.0609649e+09 3.2303846e+09 2.1505618e+09 2.9903754e+09 2.8715502e+09
1.380645e+09 2.2514667e+08 1.0814518e+09 6.77504e+09 2.0350685e+09 4.8573642e+08 4.0683236e+09 5.0864584e+09
2.4140558e+08 7.856545e+09 1.138514e+09 1.7209391e+09 7.994426e+09 2.1053261e+09 1.0317673e+09 2.6306437e+09
1.9398764e+09 6.4130836e+09 3.2815014e+09 1.2979091e+09 1.1115615e+10 2.1908764e+09 2.4746196e+09 3.3691935e+09
7.7416433e+09 1.3297696e+09 2.502682e+09 9.194945e+08

weight f4 [252, 252]
00000000: 56a1 1240 8906 aabf bb84 7fbf 141e cfc0
00000010: dd89 3140 2f23 f3bf 49b4 8bbf 24f1 fe3f
00000020: 52ca f93e 0632 0440 9034 023e 0387 8140
00000030: 2456 05c0 b591 e93e d160 8bc0 9185 3abf
00000040: 575f 623e 5b5e 5340 7e55 f83d 6504 11c0
00000050: a093 1dc0 e626 b4be 8cac 2ebe 8b85 95bf
00000060: c121 47bf 5a00 17bf 260f 14bf 9929 383e
00000070: a99a 00bf c3e5 3040 145b 8c3f 0a3e cb3f
00000080: dd33 883f 7770 93bf 2ca4 8ec0 18e8 1e3f
00000090: bf00 debe 72d1 2dbf 6315 c2bf e9fc f6bf
000000a0: 1f9f c540 2660 873f 1b80 103d 03f5 9c3d
000000b0: df5d 0ec0 2c14 cfbf f0f5 32bf 766c a83f
000000c0: 4729 8040 507d 1741 742a 4bbf a400 88bf
000000d0: 338f bdbf 60a0 11c0 0126 d2bd a616 6c3f
000000e0: e683 d6bf 3821 08bf d650 df3e b830 0d40
000000f0: ffd9 3a3f fb27 7cbc 476d 913f e335 1940
00000100: 1715 f9be 09a1 a33e d8fe 983f 20ce 07c0
00000110: e3b4 ea3f edc9 0bbf 8a85 a7bf 3f6f 073f
00000120: 3291 e1be 7fd3 153f cfc6 74bf b09e 2a40
00000130: 4559 d140 fe1f c13e 5988 373e d675 f6bf
00000140: 905e da3f 4941 24c0 da64 83c0 b5d1 84bf
00000150: 2a33 87bf fbb7 bd3d 6152 60c0 0ff4 bb40
00000160: bad1 33bf a082 dec0 d303 d03f 0247 3340
00000170: ca5d 323f 3261 89c0 7910 1fbf a296 3b3f
00000180: 3fa8 1440 da30 493e 00d6 e1bf 3bed af3f
00000190: 575d 6441 2900 bf3f d640 aebf 76ce 0840
000001a0: a035 f43f 4efa 503f b169 d83f 81ca efbe
000001b0: 60d4 d5bf e7df 08be 0d85 e6bf f5a9 1c40
000001c0: 37af 2b3f 932b b9bf 1617 8abf afcb 8740
000001d0: 65d7 0e3e 91c3 2640 3296 6d3d ccc3 763f
000001e0: 65b5 11bf 79a9 f63d 3fdd 973f 3ca3 5c3f
000001f0: b806 813e 16cc c9c0 463e 8cbf 8a80 a5bf
00000200: 3832 09c0 bb42 59bf 8e93 de3e eee0 28bd
00000210: d702 66bf 4386 eebe e20a 473e a652 f83e
00000220: c64b b9bf 0503 a23f 9800 0ac0 6ea8 73bf
00000230: 023a ce3e ba59 2840 b5c9 94be 372c 8b3f
00000240: d0d4 65bf 20d7 90c0 7c66 8bc0 c5ca 0dc0
00000250: 08ca 15c0 9816 6cbf 2e59 1f41 7d18 08bf
00000260: 9591 343f cf6e dc3e e1dd 1740 fba0 8440
00000270: 9e7f 54bf 2019 5d40 b358 87be a1ab a5bf
00000280: d048 5040 297b 2a3e 0742 43c0 5288 5bbf
00000290: cb93 b2c0 b57d 863f 0175 95be 88d7 0d3f
000002a0: 0324 0d40 87f0 2fbf ff2d d5bf 8b2a a1bf
000002b0: dde8 c9c0 b2bd 563e e4b1 00c0 b2dc ac3f
000002c0: d2ca c1bf 9e72 7fc0 a327 4840 e1ff fabe
000002d0: 872a 5e3f ce4c ec3e 7db4 82c0 b411 a93f
000002e0: eb9e c93f be35 7541 b3c7 e6bf 5f72 8f3f
000002f0: a2b3 44bf a068 3340 6b1d a040 f5ea 2940
00000300: 4c6d a83f a2d8 d93d aac6 febf baf8 6241
00000310: f947 0a40 1a9f 1040 353e 843f 991a d6bf
00000320: ccef 933f 2ff5 11bf efe5 8cbf 1512 473f
00000330: c687 49be 5bda cabf 967c 593f 63c9 edbe
00000340: 51cd 873f 910a 0c40 eaaf 53bf 5b9b 54c0
00000350: 2afb 34c0 f550 16c0 e01d c73f a6fc a23d
00000360: 75fb b93f 78d4 60be 1a8a 05be 953e 043e
00000370: db8b 4840 1eb0 a2bf 763c 9dbf 46cf 2040
00000380: 3b13 1d40 dd71 3ebf ee77 67bf 3300 0ec0
00000390: b59d 5c3f ec5d 2c3f 9924 49be f372 9ac0
000003a0: 7add 47bf f824 ba3f 92a3 5cc0 c529 0abf
000003b0: 8a03 55bf 922c 3dc0 079a 9bc0 b840 033f
000003c0: ad0a 6d40 762b 56be f197 0040 5534 aa3e
000003d0: 34ff c93f 7d21 9f40 b1d1 833f de75 0f40
000003e0: 2fbc 143f fb50 2f40 e672 82bd caed 00bf
000003f0: d296 c83e 1b85 f5bf 5d54 3cc0 c87b 1dbf
2.2910972 -1.3283244 -0.99811906 -6.4724216 2.7740395 -1.8995112 -1.0914394 1.991734
0.4878717 2.0655532 0.12715364 4.047731 -2.0833826 0.45618978 -4.3555684 -0.72860056
0.22106682 3.302634 0.12125681 -2.2658932 -2.4621353 -0.35185927 -0.17058009 -1.1681379
-0.7778588 -0.5898491 -0.57835615 0.17984618 -0.5023599 2.7640235 1.0965295 1.5878308
1.0640827 -1.1518697 -4.4575405 0.62072897 -0.43359944 -0.67897713 -1.5162777 -1.9295932
6.175674 1.0576217 0.03527842 0.0766392 -2.2244794 -1.6178031 -0.6990652 1.31581
4.0050387 9.468094 -0.79361653 -1.0625196 -1.4809326 -2.2754135 -0.10261155 0.9222206
-1.6759002 -0.5317569 0.4361636 2.2060986 0.72988886 -0.015390391 1.1361474 2.393914
-0.48648903 0.31958798 1.1952772 -2.1219559 1.8336452 -0.5460499 -1.3087628 0.52904123
-0.44056088 0.5852584 -0.9561586 2.6659355 6.542147 0.3771972 0.17923106 -1.9254711
1.7060108 -2.5664847 -4.106061 -1.0376498 -1.0562489 0.09263607 -3.505028 5.8735423
-0.7024189 -6.9534454 1.6251167 2.801209 0.6967436 -4.2931147 -0.6213451 0.7327672
2.322769 0.19647542 -1.7643433 1.3744272 14.272788 1.4921924 -1.3613536 2.1376014
1.9078865 0.81631935 1.6907254 -0.46834186 -1.6705437 -0.13366662 -1.8009354 2.4478734
0.6706423 -1.4466423 -1.0788295 4.2436137 0.13949354 2.6056864 0.058004566 0.9639251
-0.5691741 0.12044043 1.1864394 0.86186576 0.25200438 -6.306163 -1.0956504 -1.2929852
-2.14369 -0.8486745 0.4347195 -0.041230135 -0.89848083 -0.4658681 0.19437745 0.48500556
-1.4476249 1.2657171 -2.1562862 -0.9517888 0.4027863 2.6304765 -0.2906014 1.0872868
-0.8977785 -4.5262604 -4.3562603 -2.215501 -2.340456 -0.92221975 9.959272 -0.53162366
0.7053464 0.4305329 2.3729174 4.144651 -0.8300723 3.4546585 -0.2643486 -1.2943002
3.2544441 0.16648544 -3.050905 -0.85754883 -5.580541 1.0507113 -0.2919083 0.55407
2.205323 -0.6872639 -1.6654662 -1.2591108 -6.3096757 0.209708 -2.0108576 1.3504851
-1.5140021 -3.9913707 3.1274192 -0.49023345 0.8678364 0.46152347 -4.0845323 1.3208528
1.5751623 15.325621 -1.8029693 1.1206778 -0.768366 2.8032608 5.003591 2.6549656
1.3158355 0.106370226 -1.9904377 14.185724 2.1606429 2.2597108 1.0331484 -1.6726867
1.1557555 -0.57014745 -1.100767 0.77761966 -0.196807 -1.5847887 0.8495573 -0.46442708
1.0609533 2.188145 -0.826903 -3.3219821 -2.8278298 -2.3486912 1.5555992 0.07958345
1.4529864 -0.2195605 -0.13040963 0.12914498 3.133536 -1.2709997 -1.2284076 2.512651
2.4542987 -0.7439249 -0.90417373 -2.2187622 0.8617814 0.67330813 -0.19642867 -4.826532
-0.7807232 1.4542532 -3.4474835 -0.53969985 -0.83208525 -2.9558454 -4.862552 0.5127063
3.7037766 -0.20915017 2.0092738 0.3324305 1.5781007 4.972838 1.0298368 2.241569
0.58099645 2.7393177 -0.063695714 -0.5036284 0.39177567 -1.9181246 -2.9426491 -0.61517

bias f4 [252]
00000000: 2fab fb41 450c 0942 d010 d741 ceb9 0c42
00000010: 8314 c441 756b ef41 de6e b540 5887 1f42
00000020: fde2 0e42 8417 1642 bc58 e13f de0d c341
00000030: 1bfe db41 d2c0 5cc1 9ab6 3241 cd8e c941
00000040: 6f18 3441 f088 5c40 1a3f 1342 e644 04c1
00000050: 0d4e fc41 1752 c7c0 1627 e5bf d16f 1542
00000060: 5956 7c3f e474 1442 4186 3742 dbae f441
00000070: b75e f241 55ae 4abf 12a9 3041 3347 0542
00000080: 3a80 1541 8565 6f41 e0e0 1142 7cb2 2542
00000090: 06f3 8141 8945 ccc0 140f 0342 8ec6 acc1
000000a0: 00a2 0f42 4fde c1c1 7e4e acc1 c83d eb41
000000b0: 2d59 7141 d694 0242 b8a7 0741 e195 0442
000000c0: 2bcb 1441 696c 8fbf 64a3 8741 4d67 bc41
000000d0: 5143 0642 0aec bd41 c556 3942 576d 77bf
000000e0: ec62 20c1 de1f d641 72a2 0b42 68a1 0a41
000000f0: 2d8f 3441 1415 6641 ab0d e741 580d f141
00000100: 6045 2442 b979 d640 0534 97bf 4f2d ecc1
00000110: 7f86 1142 5124 2d42 aefb c241 9a68 17c1
00000120: d2da 4642 775e 0242 f097 4841 aad1 c1c0
00000130: e67e e241 0d7a 04c2 6d40 7241 a789 1c42
00000140: 4f2c dec1 85e0 e6c1 795d 2042 53a6 e7c1
00000150: ac38 be41 b37d 1b42 76a3 e341 50de 80c1
00000160: 7eb0 0e42 d1fe 0342 0f18 0541 a4f8 dd41
00000170: a21b d441 0cf0 df41 0716 b341 32b4 4441
00000180: b959 1742 eecf 2dc0 3dca ca40 c3b9 f341
00000190: 3646 1842 409d 0841 dfc8 d441 5d54 4541
000001a0: 196d 4441 bad4 2142 50e7 2742 f8b4 1142
000001b0: e7ab 0942 ecae 1ac2 3535 f6bd 57db 8941
000001c0: e586 c341 1b2c d9c1 2422 7a41 bf72 1b42
000001d0: 6666 2b42 c851 8941 7c3f 1a42 93ad 2140
000001e0: 7a30 1341 da34 2942 f6b2 86c0 ecde 1342
000001f0: de04 2dbf e281 0342 05cf 5d41 c4d2 a341
00000200: 2970 dfc0 7c7a 31c2 8b6f f2c0 f04a 0242
00000210: f896 ac41 18a0 09c2 b538 0040 57bc 1042
00000220: 0982 7a41 eab6 e241 08bd 5741 9f4b 0c41
00000230: e013 ad40 4e3e 38c0 068e 1641 5a75 c541
00000240: 3d8c af41 405b 1a3f 5fb9 1742 7c71 8641
00000250: ce23 97c0 3046 0dc2 75ab 1041 dd6a e7c1
00000260: 493f f140 04bf 0b41 dec6 dc40 cb93 5941
00000270: f558 ee41 f33c cb41 c760 0e42 33b0 b341
00000280: e4b3 2142 322d f741 5456 06c2 4c5b 98bf
00000290: 9c77 6e41 ea03 9f41 ce23 e241 8f76 e541
000002a0: 1017 0842 1001 0b42 8959 c841 4cb1 e741
000002b0: 198f 0242 7455 32c0 1d0a 6841 f7ce c941
000002c0: 3260 4b41 5ca3 ad41 61ed 2142 5d6e be41
000002d0: 0d39 1d42 d1d6 c7c1 030e 9cc1 2f07 c941
000002e0: d91c 933e cfa7 4d42 8e2a 02c2 64c1 e341
000002f0: af5b 0b42 a8b6 5bc1 64f2 a4c1 d27c da41
00000300: b6d7 78c0 5cdf 08c2 bb60 e9c1 f012 b641
00000310: 692a 11c2 1fec fe41 41d9 eb41 9dbe 1e42
00000320: d72c 4741 384f ae3f 41d8 0642 bc05 0842
00000330: c863 1642 5780 0542 f111 9741 f139 6e41
00000340: 0879 0242 8393 dd41 9541 1542 189f e7c1
00000350: 5299 fe41 cf42 af40 c276 f241 aa22 7f41
00000360: 234b fb41 6cc4 c741 3198 b5c1 ab20 0d42
00000370: 8d97 ed41 5860 6dc1 7aa1 a041 7625 4241
00000380: 4654 9841 f213 b8c1 83b6 1942 b65c 4b42
00000390: 7a66 2f40 988f be41 ceee d441 9e2d f6c1
000003a0: 8373 7440 369b 3e41 1ac3 3842 7c2f 7241
000003b0: dec8 2242 9c10 dd41 ff22 7141 2f2a 1b41
000003c0: a6a9 c641 518a e841 de8c b441 4b86 e341
000003d0: 85d6 a540 ee46 0842 b858 0741 14bd b441
000003e0: 3a67 ac41 12e0 0a42 243b e541 e248 2c41
31.458586 34.261982 26.88321 35.18145 24.510015 29.92747 5.6697836 39.88217
35.72167 37.522964 1.7605205 24.381771 27.499075 -13.797075 11.16958 25.194727
11.255965 3.445858 36.811623 -8.266821 31.53811 -6.2287707 -1.7902553 37.359196
0.98569256 37.11415 45.881107 30.585379 30.296247 -0.7917226 11.041277 33.31953
9.343805 14.962285 36.469604 41.4243 16.243664 -6.383488 32.764725 -21.59695
35.908203 -24.23355 -21.538326 29.405167 15.084271 32.645348 8.478447 33.146366
9.299602 -1.1204959 16.95478 23.55044 33.56574 23.740253 46.334736 -0.96651214
-10.024151 26.76556 34.908638 8.664406 11.284955 14.380146 28.881674 30.131516
41.06775 6.7023587 -1.181275 -29.522123 36.381344 43.285465 24.37289 -9.4630375
49.71369 32.59225 12.537094 -6.0568438 28.311962 -33.11919 15.140729 39.134426
-27.771635 -28.859629 40.09128 -28.956213 23.777672 38.872753 28.454815 -16.108551
35.672356 32.998844 8.318374 27.746407 26.513493 27.99221 22.385756 12.293993
37.83762 -2.715816 6.3371873 30.465704 38.068565 8.538391 26.598082 12.3330965
12.276635 40.45774 41.97589 36.426727 34.417873 -38.670822 -0.12021867 17.2321
24.440866 -27.146536 15.633335 38.862057 42.85 17.164932 38.561996 2.5262191
9.199335 42.301613 -4.209346 36.967697 -0.6758555 32.87684 13.863042 20.477913
-6.9824414 -44.369614 -7.576116 32.57318 21.573715 -34.40634 2.0034611 36.183926
15.656747 28.339314 13.48365 8.768462 5.408676 -2.8788028 9.409674 24.6823
21.943476 0.60295486 37.931026 16.805412 -4.7231207 -35.318542 9.04186 -28.92718
7.5389752 8.734135 6.899276 13.598582 29.793436 25.40476 35.59451 22.461035
40.425674 30.897068 -33.584305 -1.1902862 14.9042015 19.876911 28.267483 28.68289
34.022522 34.751038 25.043718 28.96157 32.639744 -2.7864656 14.502469 25.226057
12.710985 21.704765 40.481815 23.803888 39.305714 -24.97989 -19.506842 25.128508
0.28732947 51.413876 -32.541557 28.469429 34.839535 -13.732094 -20.618355 27.310947
-3.888166 -34.218124 -29.172232 22.759247 -36.291416 31.865294 29.481081 39.686146
12.448447 1.3617926 33.711185 34.0056 37.597443 33.37533 18.88376 14.889146
32.618195 27.697027 37.314045 -28.952682 31.824863 5.4769053 30.307987 15.945963
31.411688 24.97091 -22.699312 35.281902 29.699 -14.836021 20.078846 12.134146
19.04115 -23.009739 38.428234 50.840538 2.7406297 23.820114 26.616604 -30.772274
3.8195503 11.912893 46.19053 15.136593 40.69616 27.63311 15.071044 9.697799
24.832836 29.067537 22.568783 28.440573 5.1824365 34.069267 8.45916 22.592323
21.550404 34.71882 28.653877 10.767794
