public_models/Dnn3Layers.pth (torch_old, 616274 bytes, 14 tensors)

weight f4 [252, 252]
0	0xc0944738	-4.6336937
1	0x40e2c176	7.086116
2	0xc012c75e	-2.2934184
3	0x40b97129	5.7950635
4	0x4153fdb6	13.249441
5	0x3f9d4447	1.2286462
6	0xbfa020c4	-1.2509999
7	0x418699b1	16.825045
8	0x40d2b5a3	6.5846725
9	0x3d192b94	0.037395075
10	0xbf56740b	-0.8377082
11	0x3f0cdc4e	0.5502366
12	0xc021f269	-2.5304205
13	0x3f39e78c	0.7261894
14	0x40bb6429	5.8559766
15	0xc0a720ba	-5.222745
16	0xc041d53b	-3.0286396
17	0xbf8169e6	-1.0110443
18	0x413cd4d3	11.801959
19	0xc10a6393	-8.64931
20	0xbf914fee	-1.1352518
21	0xbf99fe6b	-1.2030767
22	0xbf7e6f8f	-0.99388975
23	0xbe286d29	-0.16447891
24	0xbfde415b	-1.7363695
25	0x410162a6	8.086584
26	0xbe91ac07	-0.2845156
27	0xc0e7ff14	-7.2498875
28	0xc08a5932	-4.323388
29	0xbfb7033c	-1.4297862
30	0x3f9fd8a1	1.2487985
31	0xc0014b5a	-2.020224
32	0x3fb0d016	1.3813503
33	0x3f3a9b8e	0.7289361
34	0x406c72cf	3.6945074
35	0xbf7273fd	-0.94708234
36	0xbf2d70dc	-0.67750335
37	0x3e9f550e	0.3111958
38	0xbfe1aff2	-1.7631819
39	0x3f935b2e	1.1512201
40	0xbf8b2b16	-1.0872524
41	0x408fe320	4.496475
42	0x3faab6e9	1.333707
43	0xc0353199	-2.8311522
44	0x3f9849a1	1.189747
45	0x3e8934b7	0.2679803
46	0xbfc21202	-1.5161746
47	0x3eb39f9b	0.35082707
48	0x3f137e72	0.57614815
49	0x3dce8528	0.10083991
50	0xbcc45bf2	-0.023969624
51	0x3eb717aa	0.35760242
52	0xbf90cb2e	-1.1312006
53	0x3f0b0488	0.5430379
54	0xbea84764	-0.32866967
55	0xbf8ad6e3	-1.0846828
56	0x3efb5609	0.49089077
57	0xbf170b3d	-0.59001523
58	0x3ed3bf3b	0.41356835
59	0x3f774368	0.9658723
60	0xbf48ed09	-0.78486687
61	0x3f97035e	1.1797903
62	0xc0bad3d5	-5.8383584
63	0xc163191b	-14.193629
64	0xc0491367	-3.1418092
65	0x409ad1ad	4.838095
66	0xc03a3521	-2.9094927
67	0x3fe413bf	1.7818526
68	0x3ef13922	0.471139
69	0xbece8ec4	-0.40343297
70	0x3ef46a75	0.4773747
71	0x3ecd2cbc	0.40073192
72	0x3ed442e5	0.41457286
73	0x3e37be83	0.17943768
74	0x3fc83acc	1.5642943
75	0xbf4797e3	-0.77966136
76	0xbf89456f	-1.0724314
77	0x3f96fd87	1.179612
78	0xbeaf019d	-0.34180918
79	0x3bf0de90	0.0073507503
80	0x3fa6cb11	1.3030721
81	0xbf3835c1	-0.7195702
82	0x3f7305c8	0.94930696
83	0xbe181424	-0.14851433
84	0x3d9a319c	0.075289935
85	0xbe10a84a	-0.14126697
86	0x3e1b31a8	0.15155661
87	0xbdc1d780	-0.094649315
88	0xbf45da5c	-0.77286315
89	0x3f3ff440	0.7498207
90	0xbeb9b8fb	-0.3627394
91	0x3e009e2c	0.12560338
92	0x3e6bc877	0.2302569
93	0x3dfb9dec	0.122859806
94	0xbe08ba0e	-0.13352224
95	0xbe98065d	-0.29692355
96	0x3ef64b83	0.48104486
97	0xbf763064	-0.9616759
98	0x3ec4b3f2	0.38418537
99	0x3f80182a	1.0007374
100	0xbfeee19f	-1.8662604
101	0xbeb86720	-0.36016178
102	0x3ef6977b	0.48162445
103	0xbe3d6eda	-0.18499318
104	0x3f0f1c36	0.5590242
105	0x3e46fa88	0.19431508
106	0x3f97cee9	1.1860019
107	0xbee5fa90	-0.44917727
108	0x3e83e9cc	0.2576431
109	0x3ce2c195	0.027680198
110	0x3cf428ae	0.029804554
111	0x3fbd56aa	1.4792073
112	0xbf91b5ab	-1.1383566
113	0x3e9d1226	0.3067791
114	0x3d623611	0.055227343
115	0xbf20a093	-0.62745017
116	0x3fd61b5d	1.6727101
117	0xbf8e9aa9	-1.1140949
118	0xbe8cc629	-0.27494934
119	0x3d964c82	0.073388115
120	0x3ec94ad3	0.393149
121	0xbef84429	-0.48489502
122	0xbf093aad	-0.5360516
123	0x3f459663	0.77182597
124	0xbe51342f	-0.20430063
125	0x3f1ddcf9	0.616653
126	0x3e6369d1	0.22208335
127	0xbe7c424a	-0.24634662
128	0x40102ddf	2.2527997
129	0xbf38f50f	-0.7224893
130	0x3ee15c44	0.44015706
131	0x3f903baa	1.1268208
132	0x3c238bdf	0.009982078
133	0xbf267acd	-0.6503113
134	0x3ca61b79	0.020276772
135	0x3e1246cb	0.14284818
136	0xbf1679f3	-0.5877983
137	0xbeb91222	-0.36146647
138	0xbc5320b6	-0.012886217
139	0x3f150aa5	0.5821937
140	0x3e059b3b	0.13047497
141	0xbdd05576	-0.101725504
142	0x3ed5f5c3	0.41789064
143	0x3cac2f69	0.0210187
144	0x3fd6c888	1.6779947
145	0x3f2749b7	0.65346855
146	0xbe95ccfd	-0.29257956
147	0x3f7caffd	0.98706037
148	0x3dc98b42	0.098410144
149	0xbedf6001	-0.43627933
150	0x3f601563	0.87532634
151	0xbf4dac05	-0.80340606
152	0xbf35109d	-0.70728475
153	0x3fbce647	1.4757775
154	0xbfd2eb69	-1.6478091
155	0xbf67c6e5	-0.90537864
156	0xbf4bd88f	-0.7962732
157	0x3fe0deb2	1.7567961
158	0xbf88017b	-1.0625452
159	0x3f1ef60f	0.62094206
160	0x3e8348d4	0.256415
161	0x3f825abb	1.0183939
162	0x3f459cb8	0.7719226
163	0xc01c8b42	-2.4459996
164	0xbed0c802	-0.40777594
165	0x3fae5afb	1.3621515
166	0xbf7d451d	-0.98933583
167	0x40255b04	2.5836802
168	0xbfa84e84	-1.3148961
169	0x3f3f4f88	0.7473073
170	0xc001c1b5	-2.027448
171	0xbfc52922	-1.5403178
172	0x4021d7a0	2.5287857
173	0xbf0a7f9f	-0.54100984
174	0x3f5f5584	0.8723986
175	0x3f7880e2	0.9707166
176	0x3f4911c4	0.78542733
177	0xbf95f0da	-1.1714127
178	0x3f0d18d4	0.5511601
179	0xbce7dc4b	-0.028303286
180	0x3eba24f0	0.36356306
181	0xbe43727a	-0.19086638
182	0x3fcd7d95	1.605395
183	0xbf0f1f1f	-0.5590686
184	0x3f5ddd6e	0.86666
185	0x4002d357	2.0441492
186	0x3eca0bed	0.39462224
187	0x3faaf48d	1.3355881
188	0xc10e2f4d	-8.886548
189	0xc0755744	-3.8334513
190	0x3f5f737e	0.872856
191	0x40b26a6f	5.5754924
192	0xc03a59ee	-2.9117389
193	0x402e4244	2.7227945
194	0x405ee013	3.4824264
195	0xc013813a	-2.3047624
196	0x40741dfe	3.8143306
197	0xc12b6add	-10.71359
198	0xc152ba87	-13.170539
199	0x40d0039e	6.5004416
200	0xbf2cdcc6	-0.67524374
201	0x3f9ef503	1.2418522
202	0x3f297eb6	0.6620897
203	0x3fee2a1d	1.8606602
204	0xc05b5805	-3.4272473
205	0xbfea77b6	-1.8317783
206	0x415cbcdc	13.796108
207	0xc0cbd442	-6.3696604
208	0xbeff4ce9	-0.49863365
209	0x4058170c	3.3764067
210	0xc018efef	-2.3896444
211	0x4074b642	3.8236241
212	0x40b35bff	5.60498
213	0xc0b0ec6b	-5.5288596
214	0xc09ff9aa	-4.9992266
215	0x405ba902	3.4321904
216	0x3f22bb02	0.635666
217	0x3f20c353	0.6279804
218	0xc0c6bf34	-6.21084
219	0x4006e8a1	2.1079485
220	0xbe8a89b6	-0.2705819
221	0xc084da6d	-4.1516633
222	0x3f483a08	0.7821355
223	0x4081ee29	4.0603223
224	0x41dbb139	27.461535
225	0xc17d432a	-15.828897
226	0xc1cc7273	-25.555883
227	0x407314de	3.7981486
228	0x413cfa25	11.81107
229	0xc10a0d8d	-8.628308
230	0x418bc407	17.470716
231	0x40e188e8	7.047962
232	0xc02f3246	-2.7374434
233	0x4086b1bd	4.2091966
234	0xc27239ba	-60.556374
235	0xc218ff6c	-38.249435
236	0x41330600	11.188965
237	0xc0672a0a	-3.6119409
238	0x40e1e334	7.0589848
239	0x3fb45e61	1.4091302
240	0xc04abbcf	-3.167713
241	0x41025f0a	8.148203
242	0xc177f23d	-15.49664
243	0xc17237db	-15.138637
244	0x40cd8d18	6.4234734
245	0x41283df6	10.515127
246	0x406a69af	3.6627004
247	0xc0d92191	-6.7853475
248	0x40bb051a	5.8443727
249	0x3f409939	0.752338
250	0xc1516010	-13.085953
251	0xc16523b2	-14.321215
252	0x40c7597b	6.229673
253	0xc1002f75	-8.011586
254	0x40d2dc38	6.589382
255	0x40a8e695	5.278147

bias f4 [252]
0	0x422549a1	41.321903
1	0xc2b1f304	-88.97464
2	0xc3cf0f98	-414.12183
3	0xc370e063	-240.87651
4	0xc39682c8	-301.02173
5	0xc3260cb3	-166.0496
6	0xc31368b9	-147.40907
7	0xc3d965f8	-434.79663
8	0xc39bb781	-311.43362
9	0xc2b1b68c	-88.85654
10	0xc379b1b0	-249.69409
11	0xc2909e97	-72.309746
12	0xc3dfd0ad	-447.63028
13	0xc3b84378	-368.5271
14	0xc337f2d9	-183.94862
15	0xc3a0eb45	-321.83804
16	0xc3aa407e	-340.50385
17	0xc2f35314	-121.66226
18	0xc3837910	-262.9458
19	0xc36626c5	-230.15144
20	0xc2dcab66	-110.33476
21	0xc3b2ea87	-357.83224
22	0xc2c73d9d	-99.62034
23	0xc368ff22	-232.99661
24	0xc34ab95e	-202.72409
25	0xc3a921f5	-338.2653
26	0xc3b948dd	-370.56924
27	0xc3250eef	-165.05833
28	0xc3b354a1	-358.66116
29	0xc3faaa83	-501.33212
30	0xc3c6fd37	-397.97824
31	0xc2760409	-61.50394
32	0xc2c1f4d6	-96.978195
33	0xc3e1a085	-451.25406
34	0xc3be976d	-381.183
35	0xc2b52b0a	-90.58406
36	0xc39da513	-315.28964
37	0xc33d620b	-189.38298
38	0xc374c295	-244.76009
39	0xc32006fc	-160.02728
40	0xc39d99e1	-315.20218
41	0xc33d5a75	-189.35335
42	0xc318a29a	-152.63516
43	0xc39b52c9	-310.64676
44	0xc342835c	-194.51312
45	0xc1b3a92b	-22.457602
46	0xc3a70986	-334.0744
47	0xc3d8de8f	-433.73874
48	0xc399b816	-307.43817
49	0xc33ddabb	-189.85442
50	0xc3b53e5e	-362.48724
51	0xc3cade78	-405.73804
52	0xc2737631	-60.86542
53	0xc32cc51b	-172.76994
54	0xc3c83b32	-400.46246
55	0xc32e48cc	-174.28436
56	0xc32dcf4c	-173.80975
57	0xc3b4e116	-361.75848
58	0xc3b529f6	-362.32782
59	0xc33e12fc	-190.07416
60	0xc30bb18d	-139.69356
61	0xc3b9e1e2	-371.7647
62	0xc30543ad	-133.26436
63	0xc3dfd9f8	-447.70288
64	0xc3507d28	-208.48889
65	0xc3a05ab5	-320.70865
66	0xc34e63b1	-206.38942
67	0xc2e17e90	-112.74719
68	0xc33ddcc7	-189.86241
69	0xc3adbc1c	-347.4696
70	0xc3e5da8a	-459.70734
71	0xc2aac961	-85.39332
72	0xc2eec042	-119.3755
73	0xc3be1bc7	-380.217
74	0xc31fb31f	-159.69969
75	0xc3102fb4	-144.18634
76	0xc30fefed	-143.93721
77	0xc38e7168	-284.886
78	0xc3e6d4d6	-461.66278
79	0xc3b48427	-361.03244
80	0xc3329d3e	-178.61423
81	0xc3fa2cc9	-500.34988
82	0xc372d9bf	-242.85057
83	0xc2ff142f	-127.53942
84	0xc35c0d1b	-220.0512
85	0xc2d3ee6d	-105.965675
86	0xc3b752f7	-366.64816
87	0xc2ea7814	-117.23453
88	0xc3f56d59	-490.85428
89	0xc3560429	-214.01625
90	0xc2f2260a	-121.074295
91	0xc3930812	-294.06305
92	0xc32fad1c	-175.67621
93	0xc34f4357	-207.26305
94	0xc3f24fa5	-484.62222
95	0xc2179477	-37.894985
96	0xc3ef2a67	-478.33127
97	0xc29ac79b	-77.389854
98	0xc2d3ba91	-105.86439
99	0xc34f3041	-207.18849
100	0xc2e5aa89	-114.83308
101	0xc3a2f163	-325.88583
102	0xc35054a5	-208.33064
103	0xc334e665	-180.89998
104	0xc349f5c3	-201.96
105	0xc3c9c8f7	-403.57004
106	0xc4036f27	-525.73676
107	0xc3530605	-211.02351
108	0xc363aacb	-227.66716
109	0xc2d97c0f	-108.7423
110	0x423f16d1	47.77228
111	0xc3a61629	-332.17313
112	0xc30d06c0	-141.02637
113	0xc382977a	-261.1834
114	0xc3481bf4	-200.10919
115	0xc358ab39	-216.66884
116	0xc2e9a140	-116.81494
117	0xc23e0b2f	-47.51092
118	0xc3364670	-182.27515
119	0xc3e0020f	-448.01608
120	0xc3046516	-132.39487
121	0xc3395635	-185.33675
122	0xc3bf7e4b	-382.98666
123	0xc3d6c07e	-429.50385
124	0xc3b854f4	-368.6637
125	0xc2ca356a	-101.104324
126	0xc348234f	-200.13792
127	0xc3a93d4a	-338.47882
128	0xc3681ca6	-232.11191
129	0xc2d6867e	-107.26268
130	0xc29c353d	-78.10398
131	0xc2fde595	-126.9484
132	0xc236fd16	-45.747154
133	0xc37b74a1	-251.45558
134	0xc3898be0	-275.09277
135	0xc3818d55	-259.10416
136	0xc38cc7d5	-281.5612
137	0xc3c28a84	-389.08215
138	0xc207b739	-33.92893
139	0xc347933e	-199.57516
140	0xc3a0979b	-321.18442
141	0xc30eca98	-142.79138
142	0xc303c583	-131.77153
143	0xc3be56e8	-380.67896
144	0xc2b4a9f9	-90.33198
145	0xc31fab42	-159.66898
146	0xc3831e34	-262.23596
147	0x41f8da60	31.106628
148	0xc2d0c495	-104.38395
149	0xc2da72e8	-109.22443
150	0xc3732ecb	-243.18279
151	0xc3177fa1	-151.49855
152	0xc29149d6	-72.64421
153	0xc317ccc9	-151.79994
154	0xc2b466b7	-90.200615
155	0xc32b0681	-171.0254
156	0xc33d72a2	-189.44778
157	0xc393b78a	-295.4339
158	0xc3c0b130	-385.38428
159	0xc2e3f7cb	-113.98397
160	0xc2ccd17c	-102.40915
161	0xc34c95f7	-204.5858
162	0xc36ac770	-234.77905
163	0xc36676c0	-230.46387
164	0xc3316611	-177.3987
165	0xc3314bbd	-177.29585
166	0xc25e0ba0	-55.511353
167	0xc3178950	-151.53638
168	0xc324dfcf	-164.87425
169	0xc33d8d61	-189.55226
170	0xc369957f	-233.58397
171	0xc3450a29	-197.03969
172	0xc34fcc40	-207.79785
173	0xc3e6071e	-460.0556
174	0xc3a60227	-332.0168
175	0xc2ca0871	-101.01649
176	0xc3a75e2f	-334.7358
177	0xc359b6fb	-217.71477
178	0xc2812889	-64.57917
179	0xc30a9ab9	-138.60439
180	0xc3551ba4	-213.10797
181	0xc39341d1	-294.5142
182	0xc3001943	-128.09868
183	0xc3103595	-144.2093
184	0xc32acfff	-170.81248
185	0xc3a83854	-336.44006
186	0xc39e18c1	-316.1934
187	0xc2c7d252	-99.91078
188	0xc2694f1e	-58.327263
189	0xc3f36ae3	-486.83505
190	0xc3acffad	-345.99747
191	0xc24d9476	-51.39498
192	0xc3282aac	-168.16669
193	0xc3d642b6	-428.52118
194	0xc4013870	-516.88184
195	0xc332bdbd	-178.74117
196	0xc33623d2	-182.13992
197	0xc30f61b1	-143.3816
198	0xc3162414	-150.14093
199	0xc401cfc6	-519.24646
200	0xc3d38580	-423.04297
201	0xc3155d09	-149.36342
202	0xc2db0e48	-109.52789
203	0xc3ff930f	-511.1489
204	0xc37de30e	-253.88693
205	0xc2e7d238	-115.91058
206	0xc2af5f51	-87.686165
207	0xc3da7f03	-436.99228
208	0xc2b19abd	-88.80222
209	0xc202a122	-32.657356
210	0xc34587d3	-197.53056
211	0xc397d9fe	-303.70306
212	0xc319b176	-153.6932
213	0xc35d6b5a	-221.41934
214	0xc1b0ea6b	-22.114462
215	0xc37a92b5	-250.57307
216	0xc361a324	-225.63727
217	0xc39981d1	-307.0142
218	0xc3817d8d	-258.98087
219	0xc3869c6a	-269.222
220	0xc325678f	-165.40453
221	0xc2d3f806	-105.98442
222	0xc315790b	-149.47282
223	0xc3bb6cf4	-374.8512
224	0xc399ff78	-307.99585
225	0xc40090ee	-514.2645
226	0xc2622af7	-56.541958
227	0xc3ceddfd	-413.73428
228	0xc329e86e	-169.90793
229	0xc3a87c88	-336.9729
230	0xc3747409	-244.45326
231	0xc2f37017	-121.718925
232	0xc2bc137d	-94.03806
233	0xc3a62dbe	-332.35736
234	0xc385b197	-267.38742
235	0xc314d1bf	-148.81932
236	0xc3ee1a9b	-476.20786
237	0xc2f970be	-124.7202
238	0xbe050607	-0.1299058
239	0xc1288887	-10.533332
240	0xc29cf9a0	-78.48755
241	0xc3a26919	-324.82108
242	0xc3322c98	-178.1742
243	0xc281233f	-64.56884
244	0xc3df320c	-446.391
245	0xc31dfd99	-157.99062
246	0xc3769570	-246.58374
247	0xc3665d2d	-230.36397
248	0xc3e720a9	-462.25516
249	0xc32fb29d	-175.69771
250	0xc2e1fe7a	-112.997025
251	0x403038dd	2.7534707

weight f4 [252]
0	0x3fc3b561	1.5289727
1	0x3fb44a14	1.4085107
2	0x3fd0e070	1.6318493
3	0x3fd1fc02	1.6405032
4	0x3fe1a2b1	1.7627774
5	0x3fee8c7d	1.8636624
6	0x3fc4ab0d	1.53647
7	0x400174b3	2.0227478
8	0x3ff36612	1.9015524
9	0x3fcd2181	1.602585
10	0x3fede055	1.8584086
11	0x3fd521d6	1.6650951
12	0x3fe5501f	1.7915076
13	0x3fedfb49	1.8592311
14	0x3fcaa5c6	1.583184
15	0x3fe76204	1.8076787
16	0x3ffc966f	1.9733409
17	0x3faa91b5	1.3325716
18	0x3fc0e104	1.5068669
19	0x3fe5f345	1.7964865
20	0x3fabcf0a	1.3422558
21	0x3fbeeb52	1.4915564
22	0x3fc87dc2	1.5663378
23	0x3fc6b3f3	1.5523666
24	0x3fcade50	1.5849094
25	0x3fd676ab	1.6754965
26	0x3fef3b1c	1.8689914
27	0x3fc5e5b1	1.5460721
28	0x3ff934ff	1.9469298
29	0x3fecb76a	1.8493474
30	0x400ce28d	2.2013276
31	0x3fdd1dd1	1.7274724
32	0x3fa8b036	1.3178775
33	0x3feb4963	1.8381771
34	0x4000a028	2.0097752
35	0x3faf6fa7	1.3705949
36	0x3fdb7132	1.714392
37	0x3ffa13ff	1.9537352
38	0x3fe5af6d	1.7944161
39	0x3fe00566	1.7501647
40	0x3fe570df	1.792507
41	0x3fcc8371	1.5977613
42	0x3fcabafc	1.5838313
43	0x3fe0d8fd	1.756622
44	0x3ffcaa62	1.9739497
45	0x3fe91098	1.8208189
46	0x3ff3de63	1.9052242
47	0x3ff34fe7	1.9008759
48	0x3fc66c26	1.5501754
49	0x3fb37a00	1.4021606
50	0x3fc927f6	1.571532
51	0x3fed0579	1.8517295
52	0x3fb14b28	1.3851061
53	0x40021c14	2.0329638
54	0x3fef491b	1.8694185
55	0x3fc126c1	1.5089952
56	0x3fbe62a4	1.4873853
57	0x3ff355b7	1.9010533
58	0x3ff36310	1.9014606
59	0x3fd68e5c	1.6762195
60	0x3fca6d0e	1.5814531
61	0x4045a88d	3.0884125
62	0x3fc25630	1.5182552
63	0x40012067	2.0176027
64	0x3ff2d0ee	1.897001
65	0x3fcd94db	1.6061052
66	0x3ff0ac78	1.8802633
67	0x3fba4bc4	1.4554372
68	0x3fcf69bd	1.6204144
69	0x3fe075a4	1.7535901
70	0x3fd1aa31	1.6380063
71	0x401f80c4	2.4922342
72	0x3fc9c076	1.576186
73	0x3fef2f15	1.8686243
74	0x3fbde050	1.483408
75	0x3fc34cfc	1.5257869
76	0x3fd4182f	1.656988
77	0x3fbc32bf	1.4702986
78	0x3fb16cf4	1.3861375
79	0x3fed058d	1.8517319
80	0x3fec9e2e	1.8485773
81	0x401f564e	2.4896426
82	0x3fabb213	1.3413719
83	0x3fc12aa9	1.5091144
84	0x3fd0b355	1.6304728
85	0x3feee725	1.866429
86	0x3ff3db70	1.9051342
87	0x3ffd337c	1.9781337
88	0x3fbdaa8a	1.4817669
89	0x3fcef7ef	1.6169413
90	0x3fe794f6	1.8092334
91	0x3fe23860	1.7673454
92	0x3fe12f7a	1.7592614
93	0x3fb889d7	1.4417065
94	0x40026461	2.0373766
95	0x3fdb63df	1.7139853
96	0x4001eaf1	2.0299647
97	0x3fc61026	1.5473678
98	0x3fc8e17c	1.5693812
99	0x3fd31341	1.6490251
100	0x3fabbfaf	1.3417872
101	0x3fca92fa	1.5826104
102	0x3fd5b25c	1.6695056
103	0x3fde3634	1.7360291
104	0x3fd18a1d	1.6370274
105	0x3fced66c	1.6159186
106	0x3fd4fdc9	1.6639949
107	0x3fc3257c	1.5245814
108	0x3fc78626	1.5587814
109	0x3fd5ecda	1.6712906
110	0x3fbb5c02	1.4637454
111	0x3fb685ab	1.4259542
112	0x3fd27425	1.6441694
113	0x3fbe7ce4	1.4881864
114	0x3fbf4f61	1.49461
115	0x3fd31d5f	1.6493338
116	0x3fb75ed4	1.4325814
117	0x3fb4d8b6	1.4128635
118	0x3fd8a476	1.692519
119	0x400ca673	2.1976593
120	0x3fbdf698	1.484088
121	0x3fcd329f	1.6031073
122	0x40036237	2.0528696
123	0x3fffad52	1.9974768
124	0x400373b6	2.0539374
125	0x3fefb868	1.8728151
126	0x3fd59033	1.6684631
127	0x3fcce42b	1.6007131
128	0x3fdd1c5b	1.7274278
129	0x3fc2634c	1.5186553
130	0x3fe9f615	1.8278223
131	0x3fe0db86	1.7566993
132	0x3fd09d8d	1.6298081
133	0x3fd0f472	1.6324599
134	0x3fdde4b7	1.7335423
135	0x3fc4a8d8	1.5364027
136	0x3fcc99a5	1.5984389
137	0x3fb4c6d3	1.4123176
138	0x3fa8abce	1.3177431
139	0x4015359c	2.331397
140	0x3ff3684a	1.9016201
141	0x4006769d	2.1009896
142	0x3fd5af14	1.6694055
143	0x3ff8fcc7	1.9452142
144	0x3fd3fa5c	1.6560779
145	0x3fbf4b51	1.494486
146	0x3fc50f37	1.5395268
147	0x3fc7a7ff	1.5598143
148	0x3fd2e9e7	1.6477631
149	0x3fc912ae	1.5708826
150	0x3fc953a0	1.5728645
151	0x3fcd5771	1.604231
152	0x3fd10416	1.6329372
153	0x3fb37283	1.4019321
154	0x3fd9bdd5	1.7011057
155	0x3fd082f2	1.6289961
156	0x3fc506e8	1.5392733
157	0x3fd99548	1.6998682
158	0x3fdc4e8e	1.7211473
159	0x3fc1f1c1	1.5151902
160	0x3fcb59b8	1.5886755
161	0x3fd4a47d	1.6612698
162	0x3fc82368	1.5635805
163	0x3fd773c9	1.683221
164	0x3fc0c5c2	1.5060351
165	0x3fd08df2	1.6293318
166	0x3fc3d384	1.5298924
167	0x3fea4c4a	1.8304532
168	0x3ffadbb0	1.9598293
169	0x3fd94bb9	1.6976234
170	0x3fcd8eeb	1.605924
171	0x3fe3092a	1.7737172
172	0x3fc9f210	1.5776997
173	0x3fed74f0	1.8551311
174	0x3fe459fe	1.7839963
175	0x3fd66f17	1.6752652
176	0x3fd9b9d1	1.7009832
177	0x3fe70553	1.80485
178	0x400155f4	2.0208712
179	0x3ffa5b84	1.9559178
180	0x3fe1ab3e	1.7630384
181	0x3fca86c8	1.5822382
182	0x3fc52f32	1.5405028
183	0x3fc676ed	1.5505043
184	0x3fbca002	1.473633
185	0x3fd9414c	1.6973052
186	0x3fceda1d	1.6160313
187	0x3fd9c2c0	1.7012558
188	0x3fb9e4e4	1.4522977
189	0x3fd84d7a	1.6898644
190	0x3fd5d002	1.6704104
191	0x3fc25459	1.5181991
192	0x3fbaede5	1.460385
193	0x3ff58113	1.9180015
194	0x4038e2c1	2.88884
195	0x3fc6f92c	1.5544791
196	0xbfb2a722	-1.3957255
197	0x3fba4e77	1.4555196
198	0x3febda48	1.8425989
199	0x3fd8a4a9	1.692525
200	0x3fdb0bc6	1.7112968
201	0x3fa2f83c	1.2732005
202	0x3fcb69b8	1.5891638
203	0x40002993	2.0025375
204	0x3faf039a	1.3672974
205	0x3fc94d7e	1.5726774
206	0x3fc467f5	1.5344225
207	0x3ff2c45c	1.8966174
208	0x400af698	2.171301
209	0x3fb452d8	1.4087782
210	0x3fb8497d	1.4397427
211	0x40011757	2.0170496
212	0x3fba2c4c	1.4544768
213	0x3fc081da	1.5039628
214	0x3feb5d70	1.838789
215	0x40058d5e	2.0867534
216	0x3fd7e2cf	1.6866091
217	0x3feb2418	1.837039
218	0x3fcb0398	1.5860472
219	0x3fd55c8d	1.6668869
220	0x3ffacdef	1.9594096
221	0x3fd3ce9e	1.654743
222	0x3fd5ff17	1.6718472
223	0x3fc30f61	1.5239068
224	0x3fcb4636	1.5880802
225	0x4016499a	2.3482423
226	0x3fcc14af	1.5943812
227	0x402ef3bb	2.7336261
228	0x3fd119a3	1.6335949
229	0x3feb4fd2	1.8383734
230	0x3fee1915	1.8601404
231	0x4001974f	2.0248601
232	0x3fbb0346	1.4610374
233	0x4001758d	2.0227997
234	0x3fe2673f	1.7687758
235	0x3fb284d4	1.3946786
236	0x3fe49e50	1.7860813
237	0x40077d40	2.1170197
238	0x3fc6b691	1.5524465
239	0x3fd4decf	1.6630496
240	0x3fcc9fe2	1.5986292
241	0x3ff03e1c	1.8768954
242	0x3fed6c72	1.854872
243	0x3fb70a1d	1.4299961
244	0x3ffa15b5	1.9537874
245	0x3fc945e0	1.5724449
246	0x3fde172b	1.735082
247	0x3fe5a4c0	1.7940903
248	0x3fe61252	1.7974341
249	0x3fd53f29	1.66599
250	0x40027d03	2.03888
251	0x3fc456f6	1.5339038

bias f4 [252]
0	0x3da208a5	0.07911805
1	0x3d9be433	0.07611885
2	0xbeb8fc9e	-0.36130232
3	0x3e1b5810	0.15170312
4	0x3e389d70	0.18028808
5	0x3f219ddb	0.63131493
6	0x3e982e7a	0.2972296
7	0xbf8a7499	-1.0816833
8	0xbf73c841	-0.9522744
9	0xbd8093e4	-0.06278208
10	0x3f00db52	0.50334656
11	0x3f207cee	0.6269063
12	0xbf7c8bd5	-0.98650867
13	0xbf8117f4	-1.0085435
14	0x3e3118c3	0.17294602
15	0x3f2de890	0.6793299
16	0xbf2bd0f5	-0.6711572
17	0xbd00a07b	-0.031403046
18	0xbe6e84f2	-0.23292902
19	0x3ef276dd	0.4735631
20	0xbe31effd	-0.17376705
21	0xbda05a6f	-0.07829749
22	0x3e15ef26	0.14642009
23	0x3e88dccc	0.26730955
24	0x3e8f9c8e	0.2804913
25	0x3e4f33de	0.2023463
26	0xbef30425	-0.474641
27	0x3ef4dcb1	0.47824624
28	0xbf54de1b	-0.83151406
29	0xbf9a7130	-1.2065792
30	0xbf2596cd	-0.6468323
31	0x3f04433d	0.516651
32	0xbdee0671	-0.11622322
33	0xbf277d25	-0.6542533
34	0xbf8c51b8	-1.0962439
35	0x3ded0265	0.11572722
36	0xbf351e18	-0.70749044
37	0x3f4d168a	0.80112517
38	0x3ebcc247	0.36866972
39	0x3f15f313	0.58574027
40	0x3db1030e	0.08643161
41	0x3e98588a	0.2975505
42	0x3e77e385	0.24207886
43	0xbf001956	-0.5003866
44	0x3f48adab	0.78389996
45	0x3f015743	0.50523776
46	0xbf524ec1	-0.8215142
47	0x3da49f2d	0.08038173
48	0xbe0802bb	-0.13282292
49	0xbc4d7bc7	-0.012541718
50	0xbec26217	-0.37965462
51	0xbd3f260e	-0.04666715
52	0x3e18733a	0.14887705
53	0x3f6625d9	0.899015
54	0xbec38ef6	-0.38195008
55	0x3eb24b03	0.34822854
56	0x3e923b7a	0.28561002
57	0xbf18243a	-0.5943028
58	0xbf8bed7f	-1.0931853
59	0x3cd29f0b	0.025710603
60	0x3e3859b5	0.1800297
61	0x3f971198	1.1802244
62	0x3dc6b4e1	0.09702469
63	0xbf70ddf5	-0.9408868
64	0x3f12e05e	0.5737361
65	0xbe112077	-0.1417254
66	0x3f3519ab	0.7074229
67	0x3e753718	0.23946798
68	0x3eb6986e	0.3566317
69	0x3ec06bbf	0.37582204
70	0xbd915c82	-0.070977226
71	0x3f4d2f20	0.8015003
72	0x3e83f56d	0.25773183
73	0xbf6c0a4d	-0.9220322
74	0x3eaddf15	0.3395926
75	0x3dcd2647	0.100170664
76	0x3e9ffdd1	0.31248334
77	0xbe0edb39	-0.13950814
78	0xbe8a7416	-0.27041692
79	0xbe755403	-0.23957829
80	0x3f11cc8d	0.56952745
81	0x3f4b8b8a	0.79509795
82	0xbedbeba4	-0.42953217
83	0x3e9412db	0.28920636
84	0x3ebb0353	0.36525974
85	0x3f37daae	0.71818054
86	0xbdeec0e4	-0.11657885
87	0x3f6a32be	0.91483676
88	0xbec06fde	-0.37585348
89	0x3e0ce79b	0.13760225
90	0x3f35bad7	0.7098822
91	0x3e459b9c	0.19297642
92	0x3f01872a	0.5059687
93	0x3e2a5502	0.1663399
94	0xbfa19a7c	-1.262527
95	0x3f0adbb3	0.54241484
96	0xbfa34fb6	-1.2758701
97	0x3e824e43	0.25450334
98	0x3e91dddf	0.28489587
99	0x3c488b7b	0.012240286
100	0xbda6af17	-0.081388645
101	0x3e33b4ab	0.17549388
102	0x3f0a4605	0.5401309
103	0x3ef27932	0.4735809
104	0x3e9839fa	0.29731733
105	0xbdc9e421	-0.09857965
106	0x3ce5af78	0.028037772
107	0xbcb64961	-0.022251787
108	0x3c8d24c3	0.017229443
109	0x3eb3e1cb	0.35133204
110	0x3d9be7b0	0.0761255
111	0x3cb108da	0.021610666
112	0x3eb22bd1	0.34799054
113	0xbd204172	-0.039124914
114	0x3df77a72	0.120839015
115	0x3e6ca700	0.2311058
116	0xbcdc0c68	-0.026861385
117	0x3e56906a	0.20953527
118	0x3f0af6f7	0.5428309
119	0xbf44f1f9	-0.7693172
120	0x3e756da5	0.23967607
121	0x3decbb95	0.11559216
122	0xbf731865	-0.949591
123	0xbf892560	-1.0714531
124	0xbee50505	-0.44730392
125	0x3ec946da	0.39311868
126	0x3d90d771	0.07072342
127	0xbe3d024b	-0.18457906
128	0x3e403b8b	0.18772714
129	0x3ec53281	0.38515094
130	0x3f220a43	0.6329691
131	0x3edd68a2	0.4324389
132	0x3eb8cde6	0.36094588
133	0x3cb623d4	0.022233881
134	0xbdf25663	-0.11832883
135	0x3db731db	0.08945056
136	0x3e67a139	0.22620095
137	0xbebbdc10	-0.36691332
138	0xbd1b8298	-0.03796634
139	0x3f56465a	0.837011
140	0x3f23c486	0.63971746
141	0x3f7fa00a	0.99853575
142	0x3ee7978e	0.45232815
143	0xbf648e69	-0.892798
144	0x3e9e377b	0.30901703
145	0xbdac079b	-0.08399888
146	0x3e57e910	0.21085
147	0x3e797bdf	0.2436366
148	0x3eb13443	0.34610185
149	0x3ea63d78	0.32468772
150	0x3e3af6be	0.18258187
151	0x3e604911	0.21902873
152	0x3ec82590	0.39091158
153	0x3e9913c1	0.29897884
154	0x3e803f2b	0.25048193
155	0x3e29c177	0.16577707
156	0x3d8a661c	0.06757757
157	0x3eb44d96	0.35215443
158	0xbf2025f7	-0.6255793
159	0x3e57d174	0.21075994
160	0x3eb0e925	0.34552875
161	0xbd928851	-0.071549065
162	0x3ec56811	0.3855596
163	0x3ed89b62	0.42306048
164	0x3e458b7e	0.19291493
165	0x3e3cd701	0.18441392
166	0x3ed1554b	0.40885386
167	0x3f4bc06c	0.7959049
168	0x3f2a551a	0.66536105
169	0x3e871173	0.263805
170	0x3e75a9e2	0.23990586
171	0x3f0b238b	0.5435111
172	0x3e258156	0.16162619
173	0x3e57a6ac	0.21059674
174	0xbea07e0e	-0.31346172
175	0x3d92fac9	0.0717674
176	0xbf500820	-0.812624
177	0x3e9319f6	0.28730744
178	0x3f831498	1.024066
179	0x3f2d4765	0.67687064
180	0x3e9ea683	0.30986413
181	0x3ea84869	0.32867745
182	0x3f1d6dd7	0.6149573
183	0x3e275868	0.16342318
184	0x3e57ce9e	0.21074912
185	0x3ac64b7a	0.0015128695
186	0x3eb85193	0.35999736
187	0x3eba01bb	0.36329445
188	0x3e0abc9d	0.13548513
189	0xbcffb1db	-0.031212738
190	0x3c3fa6e8	0.011697508
191	0x3eb6421a	0.35597306
192	0x3e26e800	0.16299438
193	0xbf9203eb	-1.1407446
194	0x3f67d35c	0.90556884
195	0x3e9dd0e9	0.30823448
196	0xbdcf5a5d	-0.10124657
197	0x3e06e481	0.13173105
198	0x3f143ee6	0.57908475
199	0x3cd13bf5	0.025541285
200	0x3e315dad	0.1732089
201	0x3e227049	0.15863146
202	0x3e83a8f4	0.25714839
203	0xbfadc43c	-1.3575511
204	0xbdb783e4	-0.08960703
205	0xbe9e6d74	-0.3094288
206	0x3e145973	0.14487247
207	0xbf5efe89	-0.8710714
208	0x3f6e3934	0.93056035
209	0x3d842937	0.064531736
210	0x3db1ee23	0.08687999
211	0x3f052880	0.52014923
212	0x3e3d7591	0.1850188
213	0x3df3b64d	0.119000055
214	0x3ef105a0	0.47074604
215	0x3f286c8a	0.6579062
216	0x3ee32f2d	0.4437193
217	0xbf2477fe	-0.64245594
218	0x3eef9d39	0.4679964
219	0xbd263553	-0.040578198
220	0x3f1b7776	0.6072916
221	0x3f25df2e	0.6479367
222	0x3ed58504	0.41703045
223	0xbdc703c0	-0.09717512
224	0xbe01dc4e	-0.12681696
225	0xbf7e9268	-0.9944215
226	0x3e7df109	0.24798979
227	0x3f744830	0.9542265
228	0x3cef267f	0.029193161
229	0x3ef94a8b	0.48689684
230	0x3ea33c7a	0.31882077
231	0x3f6c1887	0.92224926
232	0x3e064046	0.13110456
233	0xbf33245c	-0.69977355
234	0x3ecf95e6	0.4054405
235	0x3e181185	0.14850433
236	0xbf58d63e	-0.8470191
237	0x3f8063f0	1.0030499
238	0x3e919c4b	0.28439555
239	0x3e06b191	0.13153674
240	0x3e3fb0d8	0.18719804
241	0xbf14680a	-0.5797125
242	0x3f54c463	0.8311216
243	0x3dcf50e3	0.1012285
244	0xbf8be626	-1.0929611
245	0x3eb7966d	0.35856953
246	0x3f0b151c	0.54329085
247	0x3f1133e6	0.56719816
248	0xbfa03949	-1.2517482
249	0x3cd90059	0.026489424
250	0x3f60b282	0.8777238
251	0x3d9d1ffc	0.07672116

running_mean f4 [252]
0	0x46ccd485	26218.26
1	0x469e0a77	20229.232
2	0x47846929	67794.32
3	0x4707bcf2	34748.945
4	0x46b3852a	22978.582
5	0x4714e44d	38116.3
6	0x46d99fed	27855.963
7	0x470b5996	35673.586
8	0x4723af6c	41903.42
9	0x468d58f8	18092.484
10	0x473ae06e	47840.43
11	0x4667975e	14821.842
12	0x47c7dc45	102328.54
13	0x47184ba7	38987.652
14	0x47238a09	41866.035
15	0x47121a3f	37402.246
16	0x4682c206	16737.012
17	0x46549c5e	13607.092
18	0x46c50286	25217.262
19	0x46d4b880	27228.25
20	0x4685b88c	17116.273
21	0x46fa195a	32012.676
22	0x4664ba75	14638.614
23	0x46ff6733	32691.6
24	0x46c36d19	25014.549
25	0x46788474	15905.113
26	0x478f41b3	73347.4
27	0x46a1a5a1	20690.814
28	0x47246be4	42091.89
29	0x479fc3b7	81799.43
30	0x46ce35c6	26394.887
31	0x4683e5b2	16882.848
32	0x4636959d	11685.403
33	0x4787efd5	69599.664
34	0x47652969	58665.41
35	0x4663b182	14572.377
36	0x47864ca4	68761.28
37	0x46bff3df	24569.936
38	0x46ea6e9b	30007.303
39	0x469d5710	20139.531
40	0x47482c20	51244.125
41	0x46adc1e8	22240.953
42	0x46c5d6ad	25323.338
43	0x46a0ff7f	20607.748
44	0x46df2208	28561.016
45	0x4683b91c	16860.555
46	0x46ecaba0	30293.812
47	0x462d5cc7	11095.194
48	0x464ddd93	13175.394
49	0x46a46e05	21047.01
50	0x45f6b46f	7894.554
51	0x46111986	9286.381
52	0x4690f521	18554.564
53	0x471e88e8	40584.906
54	0x469f2222	20369.066
55	0x46966931	19252.596
56	0x4675f735	15741.802
57	0x4780ba8d	65909.1
58	0x47b2b3c7	91495.555
59	0x461ea4c8	10153.195
60	0x46ffbf1c	32735.555
61	0x46b5afa6	23255.824
62	0x46b0e334	22641.602
63	0x47e50214	117252.16
64	0x463b9ac3	12006.69
65	0x468946ba	17571.363
66	0x47220009	41472.035
67	0x465673aa	13724.916
68	0x46820aab	16645.334
69	0x46a27d13	20798.537
70	0x471ced5e	40173.367
71	0x467747a1	15825.907
72	0x467f492f	16338.296
73	0x47dc0c1c	112664.22
74	0x46be4fac	24359.836
75	0x46ebb00a	30168.02
76	0x471d5aaa	40282.664
77	0x46d04a03	26661.006
78	0x461aadec	9899.48
79	0x4730eac0	45290.75
80	0x4710b223	37042.137
81	0x46e1fe07	28927.014
82	0x4681ec56	16630.168
83	0x46ac586c	22060.21
84	0x46b35d9c	22958.805
85	0x46a97948	21692.64
86	0x46d05b29	26669.58
87	0x46da2e22	27927.066
88	0x46335b7f	11478.874
89	0x470ec08f	36544.56
90	0x46e85c42	29742.129
91	0x4735607a	46432.477
92	0x4701e4ed	33252.926
93	0x469b634a	19889.645
94	0x479a400a	78976.08
95	0x46b5d986	23276.762
96	0x47b2534e	91302.61
97	0x46d1df76	26863.73
98	0x46b62deb	23318.959
99	0x4754b458	54452.344
100	0x46c5477e	25251.746
101	0x47166dc4	38509.766
102	0x4681513d	16552.62
103	0x4682ae2c	16727.086
104	0x46ecb812	30300.035
105	0x4681d8ae	16620.34
106	0x47611948	57625.28
107	0x46a7eae5	21493.447
108	0x473d0f15	48399.082
109	0x463927d0	11849.953
110	0x46cc8eba	26183.363
111	0x46c58186	25280.762
112	0x46acec59	22134.174
113	0x4653f7f6	13565.99
114	0x470e2303	36387.01
115	0x472d24ce	44324.805
116	0x4699c401	19682.002
117	0x4698ca3e	19557.121
118	0x46bdc03f	24288.123
119	0x467559df	15702.468
120	0x46adb07a	22232.238
121	0x46d8cbfe	27749.996
122	0x47afecc0	90073.5
123	0x47f34a34	124564.41
124	0x46863cdc	17182.43
125	0x46d321ae	27024.84
126	0x47147820	38008.125
127	0x46b0f531	22650.596
128	0x4730ec07	45292.027
129	0x467b250c	16073.262
130	0x4699a5ce	19666.902
131	0x46e6f14c	29560.648
132	0x46a14482	20642.254
133	0x469da989	20180.768
134	0x4772eeef	62190.934
135	0x4727a282	42914.508
136	0x46ec36cc	30235.398
137	0x46cdefde	26359.934
138	0x468a6092	17712.285
139	0x465d7e0f	14175.515
140	0x4653118a	13508.385
141	0x46f2a5b3	31058.85
142	0x46e01e82	28687.254
143	0x47c1db6d	99254.85
144	0x47089ac4	34970.766
145	0x4703b434	33716.203
146	0x4708d962	35033.383
147	0x46b4b378	23129.734
148	0x46a66de3	21302.943
149	0x470430fc	33840.984
150	0x46d49d5c	27214.68
151	0x470fa16c	36769.42
152	0x46d00388	26625.766
153	0x469f16b9	20363.361
154	0x4706130e	34323.055
155	0x46ba12d4	23817.414
156	0x47076b5a	34667.35
157	0x470dae3b	36270.23
158	0x47883b0d	69750.1
159	0x46c9b7c0	25819.875
160	0x46f5b2db	31449.428
161	0x46855518	17066.547
162	0x46e31475	29066.229
163	0x46d6abfb	27477.99
164	0x47048768	33927.406
165	0x47396c46	47468.273
166	0x4694f1b3	19064.85
167	0x46c3c087	25056.264
168	0x46c2b94f	24924.654
169	0x461ae085	9912.13
170	0x467568fe	15706.248
171	0x4711612b	37217.168
172	0x46de88c0	28484.375
173	0x46c432a1	25113.314
174	0x466944c0	14929.1875
175	0x472220db	41504.855
176	0x469b5d8e	19886.777
177	0x4727fd95	43005.582
178	0x46ba0371	23809.72
179	0x4708c58b	35013.543
180	0x47051a47	34074.277
181	0x46b9b8fb	23772.49
182	0x464c5423	13077.034
183	0x46af3a0b	22429.021
184	0x46b03328	22553.578
185	0x46e1120b	28809.021
186	0x46823985	16668.76
187	0x46fe3fe6	32543.95
188	0x46ad690d	22196.525
189	0x46477283	12764.628
190	0x47157cd8	38268.844
191	0x46b44d19	23078.549
192	0x46bd5444	24234.133
193	0x4784e18a	68035.08
194	0x46ada9f3	22228.975
195	0x46b63c0a	23326.02
196	0x46a3b7c6	20955.887
197	0x468c9909	17996.518
198	0x470da104	36257.016
199	0x464ddca4	13175.16
200	0x4707291d	34601.113
201	0x4697bf02	19423.504
202	0x46b6fb07	23421.514
203	0x47a748c7	85649.555
204	0x462331ee	10444.482
205	0x4688fb1b	17533.553
206	0x46ac1401	22026.002
207	0x479999df	78643.74
208	0x469ead61	20310.69
209	0x46548134	13600.301
210	0x46c2c48e	24930.277
211	0x46566f73	13723.862
212	0x46e1c75c	28899.68
213	0x471091f1	37009.94
214	0x4681fee9	16639.455
215	0x46656354	14680.832
216	0x46f28063	31040.193
217	0x467ca7c4	16169.941
218	0x46ed424c	30369.148
219	0x47486ae0	51306.875
220	0x471b0bf3	39691.95
221	0x46a06cbf	20534.373
222	0x46d88084	27712.258
223	0x47766a8b	63082.543
224	0x47320f91	45583.566
225	0x4667c908	14834.258
226	0x469060e2	18480.441
227	0x46d3c5c3	27106.88
228	0x47483ba9	51259.66
229	0x461eaca8	10155.164
230	0x46cc7c12	26174.035
231	0x4733b3df	46003.87
232	0x46603a42	14350.564
233	0x47dd5e7d	113340.98
234	0x46a9d535	21738.604
235	0x46e4c0d6	29280.418
236	0x47c2a133	99650.4
237	0x46d5426a	27297.207
238	0x467a6daf	16027.421
239	0x472cb35a	44211.35
240	0x46b754c6	23466.387
241	0x47b68ea5	93469.29
242	0x46c982b8	25793.36
243	0x46b60891	23300.283
244	0x47f0e44d	123336.6
245	0x47024295	33346.582
246	0x46f983a6	31937.824
247	0x47364451	46660.316
248	0x47baf690	95725.125
249	0x46f7caff	31717.498
250	0x470d7b54	36219.33
251	0x46ae062b	22275.084

running_var f4 [252]
0	0x4e2b625c	7.188375e+08
1	0x4e011888	5.4146714e+08
2	0x4eee5d97	1.9995555e+09
3	0x4e28878b	7.068638e+08
4	0x4dc4be32	4.1259987e+08
5	0x4e9f1662	1.3345221e+09
6	0x4e68688b	9.7479136e+08
7	0x4e06582a	5.634812e+08
8	0x4e5dccab	9.3029446e+08
9	0x4dbf0b3d	4.006481e+08
10	0x4eb70ec7	1.5355995e+09
11	0x4e09796a	5.766089e+08
12	0x4f7250d2	4.065383e+09
13	0x4e333875	7.517054e+08
14	0x4eab2156	1.4355443e+09
15	0x4ec96b8e	1.6896346e+09
16	0x4d0cfcfa	1.4783683e+08
17	0x4d25b36c	1.7374995e+08
18	0x4de7c2e6	4.8603872e+08
19	0x4e618230	9.458514e+08
20	0x4e0a2bb8	5.7953024e+08
21	0x4e2240f7	6.8054163e+08
22	0x4d62b58c	2.377218e+08
23	0x4e9e71ef	1.3291334e+09
24	0x4e27c717	7.0371066e+08
25	0x4d288c7f	1.7673624e+08
26	0x4f0790ea	2.2744212e+09
27	0x4e397d00	7.7799424e+08
28	0x4e4b1e7a	8.5194304e+08
29	0x4f44a066	3.2988462e+09
30	0x4daf08ed	3.6707472e+08
31	0x4e28d3fb	7.0811616e+08
32	0x4cc78c4f	1.04620664e+08
33	0x4eda23f1	1.8298943e+09
34	0x4ec73b55	1.6712772e+09
35	0x4d9d7705	3.3022787e+08
36	0x4efaf656	2.105224e+09
37	0x4e7d1556	1.0615085e+09
38	0x4e418f43	8.118479e+08
39	0x4e03ad7f	5.522964e+08
40	0x4eababe7	1.4400849e+09
41	0x4e065b57	5.6353325e+08
42	0x4e770651	1.0360966e+09
43	0x4d3f90a6	2.008705e+08
44	0x4ed4b2cc	1.7842437e+09
45	0x4e9f60da	1.3369623e+09
46	0x4dddd125	4.651839e+08
47	0x4c4edce0	5.422784e+07
48	0x4cce168f	1.0804953e+08
49	0x4db97840	3.889582e+08
50	0x4c2415e9	4.3014052e+07
51	0x4bffef03	3.3545734e+07
52	0x4db54a3f	3.8019274e+08
53	0x4f0bfb58	2.348505e+09
54	0x4d474038	2.0892966e+08
55	0x4e0660ce	5.636228e+08
56	0x4dc30369	4.0897258e+08
57	0x4ed78730	1.8079805e+09
58	0x4f540e25	3.5576968e+09
59	0x4c3333c8	4.69768e+07
60	0x4e82fac3	1.098736e+09
61	0x4f339fd1	3.0135954e+09
62	0x4e1f8efa	6.6923686e+08
63	0x4f940c09	4.9676334e+09
64	0x4e04659c	5.553129e+08
65	0x4d53897c	2.2181267e+08
66	0x4ecad152	1.7013578e+09
67	0x4d69424e	2.445898e+08
68	0x4db2a0f7	3.7461168e+08
69	0x4dd5c3e2	4.4829805e+08
70	0x4e3ff1b1	8.0507194e+08
71	0x4e851f62	1.1167132e+09
72	0x4dd3e148	4.4434458e+08
73	0x4f94902f	4.9849544e+09
74	0x4e4c7060	8.574792e+08
75	0x4e1f3cce	6.6789056e+08
76	0x4e81992a	1.0871493e+09
77	0x4e38f418	7.757512e+08
78	0x4c9ab766	8.111595e+07
79	0x4e47d357	8.381291e+08
80	0x4ea57ff4	1.3883131e+09
81	0x4f875722	4.541269e+09
82	0x4d9e389a	3.318137e+08
83	0x4e2fd392	7.374696e+08
84	0x4e4165b5	8.1116704e+08
85	0x4e5ad67f	9.178726e+08
86	0x4dbd01a5	3.963752e+08
87	0x4edeb538	1.8682092e+09
88	0x4cf34ef9	1.2756372e+08
89	0x4e710a00	1.0109911e+09
90	0x4e8b06c8	1.1662387e+09
91	0x4ed808bd	1.8122257e+09
92	0x4eafbd33	1.4742061e+09
93	0x4d9f3692	3.338942e+08
94	0x4f1fec8c	2.6830797e+09
95	0x4e421ac7	8.141337e+08
96	0x4f5c6b1f	3.6980078e+09
97	0x4e67bc55	9.7196986e+08
98	0x4e372827	7.682155e+08
99	0x4e95db66	1.2570918e+09
100	0x4e0b1614	5.8337e+08
101	0x4e6b0ddc	9.858885e+08
102	0x4e024493	5.4638304e+08
103	0x4e85d307	1.1225998e+09
104	0x4e8c0885	1.1746843e+09
105	0x4d319d98	1.8624346e+08
106	0x4eb9f3bd	1.5598793e+09
107	0x4dab0b1a	3.5870394e+08
108	0x4e9b9dfe	1.3054113e+09
109	0x4df84e25	5.2073386e+08
110	0x4e3fc2ac	8.043016e+08
111	0x4dc5cafe	4.1480186e+08
112	0x4e7be24f	1.05647814e+09
113	0x4d128265	1.5362619e+08
114	0x4e24e678	6.9164186e+08
115	0x4e9394ce	1.2380014e+09
116	0x4e03f33b	5.534389e+08
117	0x4de1383b	4.7231984e+08
118	0x4e69558b	9.7867437e+08
119	0x4cca81b5	1.06171816e+08
120	0x4e0b79e6	5.8500544e+08
121	0x4e72c7b9	1.0182938e+09
122	0x4f449f90	3.2987914e+09
123	0x4fb8b55b	6.197786e+09
124	0x4ce02ca7	1.1753196e+08
125	0x4eabc44b	1.4408841e+09
126	0x4e595990	9.1163136e+08
127	0x4da7f5f2	3.5223917e+08
128	0x4e7870c5	1.042035e+09
129	0x4db3d025	3.7709533e+08
130	0x4e8186a7	1.0865427e+09
131	0x4e84dcf8	1.114537e+09
132	0x4e20a3af	6.7377043e+08
133	0x4d9a3499	3.233923e+08
134	0x4ed6da33	1.8023121e+09
135	0x4e97e6e4	1.2742456e+09
136	0x4e641db8	9.567882e+08
137	0x4e29386e	7.097619e+08
138	0x4d9a416c	3.2349734e+08
139	0x4e8396cc	1.103849e+09
140	0x4dac6065	3.614998e+08
141	0x4ecaf366	1.7024745e+09
142	0x4ea6d50c	1.39949e+09
143	0x4f373aab	3.0740754e+09
144	0x4e4db8e4	8.628616e+08
145	0x4e5d1043	9.272076e+08
146	0x4e7c3ec0	1.0579927e+09
147	0x4e1d6545	6.601649e+08
148	0x4e1af28b	6.4989664e+08
149	0x4e3caa19	7.9131603e+08
150	0x4e868890	1.1285484e+09
151	0x4e9151d8	1.21903e+09
152	0x4e805cc9	1.0767822e+09
153	0x4e0a7aea	5.808278e+08
154	0x4e41bf5e	8.12636e+08
155	0x4decb6a2	4.96424e+08
156	0x4e4851f5	8.402036e+08
157	0x4ebf9e40	1.6074097e+09
158	0x4ed7c2b5	1.8099309e+09
159	0x4e3713af	7.678801e+08
160	0x4e71a353	1.01350317e+09
161	0x4d9292dc	3.0738726e+08
162	0x4e84cf8d	1.1140973e+09
163	0x4e5abf66	9.1749414e+08
164	0x4e3b6b72	7.860952e+08
165	0x4e87bf9d	1.1387409e+09
166	0x4e02d46f	5.4874003e+08
167	0x4e9c6586	1.3119496e+09
168	0x4e38ed08	7.7563546e+08
169	0x4d82fd09	2.7470262e+08
170	0x4dc7567f	4.1804182e+08
171	0x4eca0d0e	1.6949266e+09
172	0x4e4cca42	8.589518e+08
173	0x4e064c1e	5.6328384e+08
174	0x4cf8a9a6	1.3037086e+08
175	0x4e9e247a	1.3265953e+09
176	0x4da0108e	3.3567994e+08
177	0x4eb20ffb	1.4936959e+09
178	0x4ea078f7	1.346141e+09
179	0x4e9de5c6	1.3245407e+09
180	0x4e7a8e4c	1.0509074e+09
181	0x4df3a082	5.109228e+08
182	0x4db79a7e	3.850444e+08
183	0x4ddfc2f8	4.6926208e+08
184	0x4e26d6af	6.9977184e+08
185	0x4e10ea1f	6.078156e+08
186	0x4d83259c	2.75035e+08
187	0x4e9c0bdb	1.3090113e+09
188	0x4dfd9ec6	5.3188013e+08
189	0x4c929835	7.685777e+07
190	0x4e568378	8.9973504e+08
191	0x4e6b817e	9.8778304e+08
192	0x4e254316	6.931593e+08
193	0x4ef6bab7	2.0697158e+09
194	0x4f16df5e	2.531221e+09
195	0x4e2e0091	7.298182e+08
196	0x4dfc8173	5.2954275e+08
197	0x4dbc78d0	3.9525427e+08
198	0x4f06920b	2.257718e+09
199	0x4cabdfdf	9.0111736e+07
200	0x4e3bb625	7.873191e+08
201	0x4de08839	4.7087798e+08
202	0x4e1d10b4	6.587794e+08
203	0x4f5540e6	3.5778002e+09
204	0x4cde758a	1.1663266e+08
205	0x4d853be3	2.794118e+08
206	0x4e47aa8c	8.3746074e+08
207	0x4f39a0f0	3.1143322e+09
208	0x4e174fbd	6.3464634e+08
209	0x4d410eec	2.0243629e+08
210	0x4e4ce445	8.59378e+08
211	0x4d7db6d1	2.6603854e+08
212	0x4e16976a	6.316264e+08
213	0x4e696ab2	9.790209e+08
214	0x4e1d21e4	6.59061e+08
215	0x4e8c4925	1.1768019e+09
216	0x4e96a07c	1.26355e+09
217	0x4cd6ddcc	1.1265187e+08
218	0x4e77d12a	1.03942e+09
219	0x4e91ffda	1.2247319e+09
220	0x4eb9909b	1.5566309e+09
221	0x4e3149c2	7.4360026e+08
222	0x4e821198	1.0910956e+09
223	0x4ebb8a03	1.5731921e+09
224	0x4e45c753	8.295436e+08
225	0x4ca9cc4d	8.902308e+07
226	0x4df3a1c0	5.10933e+08
227	0x4f766521	4.1338227e+09
228	0x4e9a4df1	1.2943996e+09
229	0x4d8f4f43	3.0054205e+08
230	0x4ee9834d	1.9588481e+09
231	0x4f0625e1	2.2506294e+09
232	0x4d24788c	1.7246022e+08
233	0x4f7fa823	4.289209e+09
234	0x4e3dc1b1	7.958969e+08
235	0x4e53fab5	8.891057e+08
236	0x4f7abeca	4.2068076e+09
237	0x4e9b68e7	1.3036717e+09
238	0x4dade638	3.6469325e+08
239	0x4ebc0648	1.5772641e+09
240	0x4e48b4b1	8.4182125e+08
241	0x4f4a3cb2	3.3929754e+09
242	0x4e9bdf81	1.307558e+09
243	0x4e16c8c9	6.3243526e+08
244	0x4fa71d94	5.607467e+09
245	0x4e940754	1.2417541e+09
246	0x4ea98cd9	1.42229e+09
247	0x4f052d7a	2.23435e+09
248	0x4f7e8508	4.2701312e+09
249	0x4e275161	7.017821e+08
250	0x4eba3573	1.5620325e+09
251	0x4dc78879	4.1845123e+08

weight f4 [252, 252]
0	0x3e269654	0.16268283
1	0xbf8a0c4f	-1.0785006
2	0xbf9a6bc5	-1.2064139
3	0xc0927490	-4.576729
4	0x401552ca	2.333178
5	0xbf1cab16	-0.61198556
6	0xbfb08f69	-1.3793765
7	0x3f97dd7b	1.1864465
8	0x3ef70311	0.48244527
9	0x3fff65c9	1.9952937
10	0x3d77c97a	0.060494877
11	0x401ccd7d	2.450042
12	0xbf44c026	-0.76855695
13	0x3ee9aeaf	0.45641086
14	0xc05e38e7	-3.472223
15	0x3f84d1b6	1.0376499
16	0xbdb0424d	-0.08606396
17	0x4037a648	2.869524
18	0x3f6569d4	0.89614606
19	0xbff55cb0	-1.9168911
20	0xbff37ce7	-1.9022492
21	0xbfe776de	-1.808315
22	0xbf1445f7	-0.5791926
23	0x3e983df5	0.2973477
24	0xbf07e7b7	-0.53087944
25	0xbf552aa6	-0.832682
26	0xbeb5159f	-0.35368058
27	0x3f9853d2	1.190058
28	0xbeb8f8ae	-0.36127228
29	0x400110fd	2.016662
30	0x3f89b412	1.0758078
31	0x3fa9e833	1.3273987
32	0x3f2f41b6	0.6845964
33	0xbf7825f6	-0.96932924
34	0xc043c8ec	-3.0591383
35	0x3f8d6b56	1.1048381
36	0x3d88e433	0.066841505
37	0x3ddbdf38	0.10735935
38	0xbfd36fdb	-1.651851
39	0xbfa1f196	-1.2651851
40	0x409aec77	4.8413653
41	0x3ef422b3	0.47682723
42	0x3e826543	0.25467882
43	0x3e1db08c	0.15399379
44	0xbf730e73	-0.9494392
45	0xbf7c62bd	-0.9858816
46	0xbe81f646	-0.25383204
47	0x3f68b076	0.9089426
48	0x4020267a	2.5023484
49	0x40e190d5	7.0489297
50	0x3e67b836	0.22628865
51	0xbfb1df4b	-1.3896269
52	0xbfdc84a8	-1.7227983
53	0xc02f97e4	-2.7436457
54	0x3e443226	0.19159755
55	0x3f06ba6b	0.526282
56	0xbf87d42f	-1.0611628
57	0xbf0db36b	-0.55351895
58	0x3f031151	0.511983
59	0x3fe2e6a6	1.7726638
60	0xbd29f87f	-0.04149675
61	0xbf155c71	-0.5834418
62	0x3e34adc9	0.17644419
63	0x3fd8f046	1.6948326
64	0xbf3cbf7b	-0.73729676
65	0x3f33d106	0.7024082
66	0x3f86cca9	1.0531207
67	0x3db809f8	0.089862764
68	0x3f50157a	0.8128277
69	0xbe374cf3	-0.17900448
70	0xbe2d16c5	-0.16903217
71	0xbec85e20	-0.39134312
72	0x3ee18186	0.4404413
73	0x3ea8ee5e	0.3299436
74	0xbf0f362d	-0.5594204
75	0x4003230b	2.0490139
76	0x40939e2d	4.6130586
77	0xbf0476b5	-0.5174363
78	0xbebd2f11	-0.3694997
79	0xbfbfed82	-1.4994357
80	0x3fcb5c06	1.5887458
81	0xbfffcf79	-1.9985191
82	0xc06ecab8	-3.731123
83	0xbf75124f	-0.9573106
84	0xbf0280e8	-0.50977945
85	0xbecd1790	-0.4005704
86	0xc00f2a65	-2.2369626
87	0x4051132d	3.2667954
88	0xbf0c2670	-0.5474615
89	0xc08cbafd	-4.3978257
90	0x3f9f166f	1.2428721
91	0x3ff9354a	1.9469388
92	0x3f154ab9	0.5831714
93	0xc037101d	-2.8603585
94	0xbf0c363f	-0.5477027
95	0x3e1928ff	0.14957045
96	0x3fbdebc2	1.4837573
97	0x3fc745a8	1.5568132
98	0xbf939e7c	-1.153274
99	0x3f7e3295	0.9929593
100	0x4128e1f1	10.555161
101	0x3e97caa3	0.29646787
102	0xbfb99962	-1.4499934
103	0x3f921c13	1.1414818
104	0x3f57b7d7	0.8426489
105	0x3e8d1d2a	0.27561313
106	0x3f42a97e	0.76039875
107	0xbdec2fd6	-0.115325615
108	0x3dca219e	0.09869693
109	0x3cfaf167	0.030632688
110	0x3ed0d754	0.40789282
111	0x3faddb5e	1.358257
112	0x3f3c50f7	0.7356104
113	0xbf89b975	-1.0759722
114	0xbf209110	-0.6272135
115	0x4054cabd	3.3248742
116	0x3dff5dbf	0.124690525
117	0x4050312b	3.253001
118	0x3edafa3c	0.4276904
119	0x3f795e53	0.9740955
120	0xbea69020	-0.32531834
121	0xbf959b4c	-1.1688018
122	0x3eeb2ecf	0.4593415
123	0x3f29569a	0.6614777
124	0xbec54fcc	-0.38537443
125	0xc077f87a	-3.8745408
126	0xbf00c829	-0.5030542
127	0xbf7bb382	-0.9832078
128	0xc03bdf88	-2.9355183
129	0xbf155514	-0.58332944
130	0x3f398a18	0.7247634
131	0x3ee834bb	0.4535273
132	0xbf99cb74	-1.2015214
133	0xbf058de4	-0.5216963
134	0x3f0d6269	0.55228287
135	0x3f5ccb8e	0.862481
136	0xbf85b0cd	-1.044458
137	0x3f67dd3b	0.90571946
138	0xbfe48e95	-1.7856013
139	0xbf9a4b36	-1.2054203
140	0x3e287787	0.16451846
141	0x4021354b	2.5188777
142	0xbe62f0df	-0.22162198
143	0x3f60122b	0.8752772
144	0xbf8a7fe5	-1.082028
145	0xc0785849	-3.8803885
146	0xc0676cf5	-3.6160252
147	0xbf050faf	-0.51977056
148	0xbfbad492	-1.4596121
149	0xbfb70d34	-1.4300904
150	0x40c7cab0	6.243492
151	0xbf2b7bf8	-0.66986036
152	0xbe86901f	-0.2628183
153	0x3f868d3f	1.0511855
154	0x40155a4b	2.333636
155	0x4021d5a1	2.5286639
156	0xbf9aef20	-1.2104225
157	0x3fd495fa	1.6608269
158	0x3e0d9e02	0.13829806
159	0xbf0ae781	-0.54259497
160	0x40646851	3.568867
161	0xbef21fab	-0.47289786
162	0xbfb7aff5	-1.4350573
163	0x3ec3c49d	0.38235942
164	0xc082bb2a	-4.085347
165	0x3f1967c0	0.59923935
166	0x3f16c918	0.58900595
167	0x3d26a84e	0.04068785
168	0x3fca7ba0	1.5818977
169	0xbea16c3b	-0.31527886
170	0xbf94d325	-1.1626936
171	0xbf098a05	-0.53726226
172	0xc0960eac	-4.689291
173	0x3f04fb97	0.51946396
174	0xbf8f1ba5	-1.1180311
175	0x3fa9da05	1.3269659
176	0xbf759b39	-0.95939976
177	0xc064e791	-3.5766337
178	0x404958ee	3.1460528
179	0xbd40e09c	-0.047089204
180	0x3f73f8fb	0.9530179
181	0xbf2399d1	-0.6390658
182	0xc0600513	-3.5003097
183	0x3ead71d9	0.3387592
184	0x3fceddb9	1.6161414
185	0x4147aa5e	12.479094
186	0xbf249cfc	-0.6430204
187	0x3d444f7a	0.047927357
188	0xbd4af7d3	-0.04955275
189	0x40046330	2.068554
190	0x404a9806	3.1655288
191	0x3fde009b	1.7343935
192	0x3f314e6e	0.692603
193	0x3dc5c008	0.09655768
194	0xc004c4af	-2.0745046
195	0x4129f75a	10.622889
196	0x3dd19707	0.10233884
197	0x3fc78140	1.5586319
198	0x3f48d092	0.78443253
199	0xbe8119b3	-0.2521492
200	0x3f4c885c	0.7989557
201	0xbf96a06b	-1.1767706
202	0xbf9b751f	-1.2145118
203	0x3e9b9b08	0.30391717
204	0xbfcf4952	-1.619425
205	0xbf321571	-0.69563967
206	0x3e5588dc	0.20852989
207	0xbe6127a0	-0.21987772
208	0x3f91d01e	1.1391637
209	0x3ff1e313	1.8897423
210	0xc006e075	-2.1074498
211	0xc039d009	-2.9033225
212	0xbffdb319	-1.9820281
213	0xbfb77b0b	-1.4334425
214	0x3fb2d83b	1.3972238
215	0xbf86689a	-1.0500672
216	0x3f564c6e	0.8371037
217	0x3e2d4c77	0.169237
218	0x3eececb5	0.46274343
219	0xbe8b42e7	-0.2719948
220	0x3f7f56c5	0.99741775
221	0xbe3cd751	-0.18441512
222	0xbf095606	-0.53646886
223	0x3f89cd7f	1.0765837
224	0x3fd0ef1d	1.6322972
225	0x3d75cdea	0.060010828
226	0xbf7c82b3	-0.9863693
227	0xbf77dd33	-0.968219
228	0x3f6a02ad	0.9141033
229	0xbe1eb30b	-0.15497987
230	0xbc5b2989	-0.013376602
231	0xc055cdca	-3.3406854
232	0xbe448f69	-0.19195332
233	0x3f8d58ec	1.1042762
234	0xc0115ac2	-2.2711644
235	0xbf7f66b5	-0.99766093
236	0xbee91815	-0.45526186
237	0xc0061fa5	-2.0956814
238	0xc03d2bfb	-2.9558094
239	0x3e998e46	0.2999136
240	0x406659eb	3.5992382
241	0xbe8173d9	-0.25283697
242	0x3fef34fb	1.8688043
243	0x3ff8178c	1.9382186
244	0x3f876377	1.0577229
245	0x405f0f7c	3.48532
246	0x3f977974	1.183394
247	0x3fe01211	1.7505513
248	0x3ec1a4d1	0.37821057
249	0x401360d9	2.302786
250	0xbf80c40a	-1.0059826
251	0xbf4443f0	-0.76666164
252	0xbd7ae1e7	-0.061250594
253	0xbed9bbeb	-0.42526183
254	0xc00e9032	-2.227551
255	0xbf1bfdd5	-0.6093419
